Model/cnn.pth (torch, 9191 bytes, 7 tensors)

weight f4 [10, 11, 3]
000000 25 08 01 be 36 b8 e6 3d 21 e2 ea 3d 87 ee 15 be
       -0.12600763 0.11265604 0.11468912 -0.14641772
000010 fe 3f 94 3d e8 c3 40 3d 54 6b 79 3d dd 6e b4 bc
       0.07238768 0.04706183 0.06089337 -0.02202552
000020 1a d5 49 3e d9 a0 0e 3d fe 88 ae bd 2e 4c b8 3d
       0.19710198 0.034821365 -0.08522223 0.08998905
000030 00 7e ea 3d b0 01 0d be f0 d1 19 be ea 9d af 3c
       0.11449814 -0.13770175 -0.15021491 0.021437604
000040 8b 77 68 bc 72 95 eb 3c 75 04 ee bc 0d 49 37 bd
       -0.0141886575 0.028757785 -0.02905486 -0.0447474
000050 73 cd 14 3e 2f b5 9c 3c ef a3 bb 3c 80 9e 28 be
       0.14531498 0.019129364 0.022905318 -0.16466713
000060 23 8a 9c 3d 3b 94 be bd 66 12 e7 3d 34 37 1e bd
       0.07643535 -0.093056165 0.11282806 -0.038626865
000070 48 fd 29 be a2 55 d3 bd 95 20 df 3d f0 b7 bb 3c
       -0.16600525 -0.103190675 0.108948864 0.022914857
000080 9b 04 da 3d 45 9d 23 be 49 53 ae bd f4 ee 70 3c
       0.1064541 -0.15977962 -0.08511979 0.014705408
000090 04 fc 22 be 1c cd cc bd 93 0b be bd 9f b4 9f bd
       -0.15916449 -0.10000059 -0.09279551 -0.077981226
0000a0 34 de bc bd 50 cb 78 3e 2d 1f 8f 3d f0 56 1f be
       -0.092220694 0.24296308 0.06988368 -0.15560508
0000b0 84 67 34 3e 82 01 f7 bd a5 7b e0 3c 31 df 52 be
       0.17617613 -0.120608345 0.027402708 -0.20592953
0000c0 1c e1 22 3d 42 2a de 3d 18 af b2 bd c8 f3 02 be
       0.039765462 0.10847904 -0.08724803 -0.12788308
0000d0 19 a3 10 3c 30 70 4d 3d d5 ab e1 bd 9c aa d6 ba
       0.008827948 0.05015582 -0.110191025 -0.001637775
0000e0 15 02 a4 3d 78 4d 53 be 54 92 25 39 05 51 98 3d
       0.080082096 -0.2063502 0.00015790138 0.07437328
0000f0 d6 78 63 be 7d 07 b0 bd 3b 52 3e 3c 5e fd 0c 3e
       -0.22214064 -0.08595178 0.011616285 0.13768527
000100 4f a3 09 3e 8d b5 45 3d a0 a1 ea 3d d4 de e4 bc
       0.13441204 0.048268843 0.11456609 -0.027938284
000110 29 d5 51 bd f7 61 cf bd 9c c6 0d be c5 f0 d1 bc
       -0.051228676 -0.10126107 -0.13845295 -0.025627503
000120 00 35 0f 3e 20 75 01 bd 4b f7 ca 3b ab a0 09 3e
       0.13985062 -0.03160584 0.0061940304 0.13440196
000130 ea ad aa bd f4 ca 27 3e 79 83 03 3d ab d4 30 3d
       -0.08333953 0.16386014 0.032107804 0.043171566
000140 0d 05 93 3d a0 83 ab bc 1d 09 b5 bd 3a 1a 15 3c
       0.07178698 -0.020936787 -0.08839629 0.009100491
000150 a9 bd 8d 3d f6 2e a4 bd c0 0b 26 3e 3c 15 da bd
       0.069209404 -0.080167696 0.1621542 -0.106485814
000160 4b b5 df 3d cf fe 19 be 4b f5 16 3e 8f c7 68 bd
       0.10923251 -0.15038608 0.1474201 -0.05683094
000170 bd 97 ee 3d 6a b3 f8 bd a7 5f 1e 3e ac ef ab 3d
       0.116500355 -0.121435955 0.15466176 0.08395323
000180 ab e2 4b 3d de e2 a6 bc 7e 68 04 be 85 fb a4 3d
       0.049776714 -0.02037185 -0.12930486 0.08055786
000190 c2 e8 e9 3b 2f 27 2b 3b 7b 17 20 bb 59 63 06 be
       0.0071383426 0.0026115885 -0.0024428058 -0.13123836
0001a0 47 46 f2 bd 56 91 1a 3d 79 e0 8e bd cc a3 de bd
       -0.118298106 0.03773626 -0.069764085 -0.108710855
0001b0 86 05 14 3d 9c 21 45 3e 8a 2e 0e bd 20 4a 81 bd
       0.03613808 0.19251102 -0.03471235 -0.06312966
0001c0 8f c7 13 3e e0 bc f2 bd b2 94 ad 3d 72 59 1a bd
       0.14431594 -0.11852431 0.08475627 -0.037682958
0001d0 37 de 61 3d f1 1b 08 be 8a 01 0f bd ba e1 04 3e
       0.05514356 -0.13291909 -0.034913577 0.12976733
0001e0 64 e0 75 bd c9 75 8b 3d 75 db 16 be 70 1a d0 bd
       -0.06002845 0.06809575 -0.14732154 -0.101612926
0001f0 cb 02 80 bc bb f2 aa 3d 6e 1a c9 bd d1 82 2a 3e
       -0.015626332 0.083470784 -0.09819494 0.16651465
000200 ba 0e 6c 3e 44 4d 07 be 66 d3 11 3c 9a 7b 54 bd
       0.23052493 -0.13213068 0.008900499 -0.051875688
000210 5d 46 4a bd 47 26 2c bd bb ff 5a 3c a0 2d a1 bd
       -0.04938351 -0.04202869 0.013366635 -0.078700304
000220 51 30 c8 3d 41 50 bb 3d e1 25 1c bd f4 1d 05 bc
       0.097748406 0.091461666 -0.03812206 -0.008124817
000230 37 93 01 be dd 03 31 bd 3d 12 ed 3c b3 b9 21 3e
       -0.12653814 -0.043216575 0.02893936 0.15793495
000240 16 bc 6d 3d 96 6c 0a 3c da 2a 08 3e cb 47 0a 3d
       0.0580407 0.0084487405 0.13297597 0.033759873
000250 9f a7 88 3d 5b f1 9a 3c 84 38 04 bc aa 56 23 3d
       0.06672596 0.018913915 -0.008070115 0.03987757
000260 d5 aa 92 3d da ff e3 bd 7d 37 85 ba c1 40 fa bd
       0.0716149 -0.11132784 -0.0010163632 -0.12219382
000270 bf 8f a7 bd 60 45 59 3e a2 3e 10 3e 52 23 7c 3d
       -0.08181714 0.2121787 0.14086393 0.06155712
000280 fb 5b e9 3d 40 d5 28 3d 82 7f 31 be 62 67 da bd
       0.11394497 0.041218996 -0.17333797 -0.1066425
000290 26 87 51 be 41 2e 35 bd f4 76 60 3d 21 0d a9 3c
       -0.20461711 -0.044233564 0.054800943 0.020636143
0002a0 f5 f3 84 bd a1 dd bd bd 36 50 e1 bd fe ca 39 3e
       -0.064918436 -0.09270788 -0.11001627 0.18143842
0002b0 75 ce 10 3e 70 b6 49 3d db d9 15 3e 30 12 df bd
       0.14141257 0.04924625 0.14633887 -0.10892141
0002c0 21 47 92 bd a2 99 f4 bc 2d 66 0b be 27 24 ce 3d
       -0.07142473 -0.029858414 -0.13613196 0.10065489
0002d0 45 eb cb 3d f6 8c 0d 3e aa 2b af bd 2d d2 bf 3d
       0.099569835 0.13823304 -0.0855325 0.0936626
0002e0 cb fb 69 3c fa cc 8c bd a8 71 cf bd 95 c3 1c be
       0.0142812235 -0.06875034 -0.101291 -0.15308984
0002f0 4b a3 ce 3d 3d 25 26 bd 1b 13 90 bd 44 ca 41 3e
       0.100897394 -0.040562857 -0.07034894 0.18924814
000300 a7 ef 57 3e 98 ed 6f bc f7 b9 6d 3e 5c 6c 16 be
       0.21087514 -0.014644049 0.23215471 -0.14689773
000310 90 75 f6 bd 38 a6 64 be 49 c0 52 be 3c 8e 89 3c
       -0.12034142 -0.22329032 -0.20581163 0.016791455
000320 83 e0 e6 3d 77 4b fb 3d 44 3a e5 bd af 53 30 3e
       0.11273291 0.12270253 -0.11192754 0.17219423
000330 32 6f d1 3c bd 20 65 3d e6 0e fa 3d 1f f1 48 bc
       0.025565717 0.055939425 0.12209873 -0.012264519
000340 2e 15 c0 bb 86 e5 8d 3d 2c a0 21 3e a3 5e 32 bd
       -0.0058619 0.06928544 0.15783757 -0.043547284
000350 ca 2e 0a 3d 23 b4 08 be 5f 96 0e 3e a5 79 25 be
       0.033736028 -0.13349967 0.1392455 -0.16159685
000360 ca 61 0f 3e a7 41 18 3e bf 05 03 3e 38 ce 95 3c
       0.14002147 0.14868794 0.1279516 0.01828681
000370 15 32 13 3e 7f 5e 43 bd 27 25 cb 3d b4 15 ec 3d
       0.14374574 -0.04769754 0.099191956 0.11527577
000380 10 1b 84 3d 6c 7b 35 bd 8f ab 29 be ce 77 de bd
       0.06450474 -0.044307157 -0.1656935 -0.10862695
000390 f2 6b 08 3e 85 50 3d 3e 8f 86 45 3e b5 9c df 3c
       0.13322428 0.18487747 0.19289611 0.027296403
0003a0 f4 ad 3a 3e b3 f7 2a 3e a7 c4 b8 3d 2e 91 82 bc
       0.1823042 0.16696052 0.090218835 -0.015938368
0003b0 db cd 7d 3c 7e b4 3f 3e b1 4a 02 3e 85 27 83 bd
       0.015490974 0.18721196 0.12723805 -0.06404022
0003c0 a8 e7 1a 3d db b1 c0 3d dd cc 2a 3d a0 72 14 be
       0.03781858 0.09408923 0.04169928 -0.14496851
0003d0 42 57 01 bd ed cf f8 3d 0f 85 dd 3d 0e 7c 01 3e
       -0.031577356 0.12149034 0.108163945 0.1264498
0003e0 1c 46 fe 3d 70 64 01 be c2 9b 25 3e 62 8c 15 be
       0.12415716 -0.1263597 0.16172698 -0.14604333
0003f0 23 97 dd 3d 58 0a f3 3c df 3b 9e 3d b6 3c 13 3e
       0.10819843 0.029668018 0.07726263 0.14378628

bias f4 [10]
000000 c2 54 9b 3d ed d2 7b bc 23 78 7f bd 46 65 27 be
       0.07584526 -0.015370113 -0.06237043 -0.16347227
000010 f4 81 76 bd 18 b9 5d be 71 87 a6 3d 51 e2 03 be
       -0.060182527 -0.21652639 0.08131302 -0.12879302
000020 33 a4 84 be ea ea 3b 3e
       -0.25906524 0.18351331

weight f4 [10, 10, 3]
000000 94 2e 1e 3d e1 da 48 bc a7 e6 d9 3d 8f bb 46 bd
       0.03861864 -0.012259216 0.106396966 -0.048518714
000010 89 3d 19 3d 6f d4 0b 3e 66 47 12 3d 78 32 68 3d
       0.0374122 0.13655256 0.035712622 0.056688756
000020 1a 10 8c be 2b 7a 23 be 0e 54 11 bc 82 7a 4f bd
       -0.27356035 -0.15964572 -0.008870138 -0.050653942
000030 7d 39 47 3c 58 88 e5 3d 5c a8 6c 3c 71 68 4a be
       0.012159702 0.11207646 0.014444437 -0.19766404
000040 c9 ff 06 3e f7 ca 91 3c b9 6b 54 3e 55 eb 15 be
       0.13183512 0.017796976 0.20744218 -0.14640553
000050 80 e1 65 3e 87 fd 36 be 17 fd d7 bc e1 d2 21 3e
       0.22449303 -0.1787015 -0.0263658 0.158031
000060 e3 65 3a be ea 10 4d bc 4d 7c 87 be 3d ce 24 be
       -0.18202929 -0.01251624 -0.2646202 -0.16094299
000070 67 97 2e 3e c0 cf ef bd 29 68 a9 bd 4c 8e cd bd
       0.17049943 -0.11709547 -0.0827182 -0.100369066
000080 92 fb 0f 3e 3f 12 9a 3b 2e 27 cd bd ed b6 b1 3c
       0.1406081 0.004701882 -0.100172386 0.021693671
000090 0d fe 94 3d 4c 8b b3 bd d9 cd f6 3d 81 73 87 3d
       0.07275019 -0.08766803 0.12050981 0.066138275
0000a0 66 64 02 be 9b 8d 30 3e f1 1e 44 3e ee 16 8a 3d
       -0.12733611 0.17241518 0.19152428 0.06742655
0000b0 1f 5d 16 3e aa 65 83 bd 77 f7 c2 3d 5c 96 88 bd
       0.1468396 -0.06415875 0.095198564 -0.06669304
0000c0 9a 31 67 bd 53 29 a4 bb a9 73 68 bd 00 a3 3e 3c
       -0.056443788 -0.005009809 -0.056750927 0.011635542
0000d0 62 d6 3e 3e 5b 82 fc 3d 8f 8c 22 3e bb 45 5a 3d
       0.18636468 0.12329551 0.15873931 0.053289156
0000e0 ed c1 b5 3c 26 6b f9 bd 2f e0 b3 bd e4 78 9e bd
       0.022187198 -0.1217864 -0.08782994 -0.07737902
0000f0 31 27 0f be 8d 37 91 3c a7 77 35 be c2 88 b9 3d
       -0.13979794 0.017726684 -0.17721425 0.090592876
000100 3b b5 f0 3d fa 33 41 be fa d2 a4 bc 48 40 65 3d
       0.11753317 -0.18867484 -0.020120133 0.055969507
000110 6d c8 a2 bb 16 da 94 3d 2f e1 9f 3c 62 89 9c bb
       -0.0049677403 0.07268159 0.019516556 -0.0047771195
000120 3f f2 33 3e f7 36 0e 3d 85 f5 1a 3c 67 17 1a bc
       0.17572878 0.034720387 0.0094579505 -0.009404994
000130 19 28 2d 3c d0 d6 a8 bd 09 69 63 3d de 25 1a be
       0.010568642 -0.08244097 0.05552009 -0.15053508
000140 74 76 5e bd 18 f1 47 bd 40 dd 2d 3e ad 08 bd 3d
       -0.054312184 -0.04881391 0.16978931 0.092301704
000150 44 e5 3a 3e cd a7 d9 bd 6f 37 4c 3e de 24 aa bd
       0.1825152 -0.106277086 0.19943021 -0.08307813
000160 53 e2 c3 3d 94 56 fa bd 69 cd 39 3e 04 6a ba 3c
       0.09564652 -0.12223545 0.18144764 0.02275563
000170 cd c2 42 bd 14 23 e2 bd 14 06 80 3d 3b f6 49 3e
       -0.047549058 -0.11041847 0.06251159 0.19722836
000180 40 c4 e6 3d 30 3a bb 3d 01 8e 77 bd 24 df 08 3e
       0.112679005 0.09141958 -0.06043816 0.13366371
000190 a2 67 4e 3d fb 00 9c bd 13 74 9b 3d ad a7 03 3d
       0.0503918 -0.076173745 0.07590499 0.03214233
0001a0 5e b3 50 be 81 6c 27 be 1e 46 80 bd d1 1d 9d bd
       -0.20380923 -0.16349985 -0.06263374 -0.07671703
0001b0 f9 e8 19 3e 37 2d 8a bb 92 f1 30 3d 17 9d c6 bd
       0.15030278 -0.004216816 0.04319913 -0.09697931
0001c0 9d 9c 9c bd 2e a6 02 be 88 d3 03 bc 4c 3a c7 bd
       -0.07647059 -0.12758705 -0.008046038 -0.09727916
0001d0 b8 7e 5a be b4 59 1d 3c 8c 02 25 be 13 53 4d 3e
       -0.21337402 0.009603906 -0.16114253 0.20051222
0001e0 de 36 7c 3d 5c 7b 1d 3e e2 b0 58 3e 4e 85 09 3d
       0.061575763 0.15379089 0.21161225 0.033574395
0001f0 c9 62 23 3b 49 9d a5 3d ee 6a 33 be 3a 37 1d be
       0.0024930707 0.080866404 -0.17521259 -0.15353099
000200 5c b8 b2 3d df 33 41 be c2 19 6a bd c8 85 25 be
       0.0872657 -0.18867444 -0.05715347 -0.16164315
000210 80 3b aa bd 52 bd 42 be 9f da 04 be e5 e1 19 be
       -0.0831213 -0.19017532 -0.12974022 -0.15027578
000220 80 e9 88 bd 05 43 63 bd af 73 c5 bc e7 b0 88 3d
       -0.066851616 -0.055483837 -0.024103014 0.066743664
000230 43 52 11 be c9 19 4f bd 1c 2d 01 3d 0e 7f e7 3d
       -0.14191537 -0.0505617 0.03153716 0.11303531
000240 12 33 0e 3d 7c 39 52 be cb 14 39 be 30 c1 24 bc
       0.034716673 -0.20529741 -0.18074338 -0.010055825
000250 35 a9 8f 3c 3d 85 b5 bb cb e5 00 be ff ac 7e bd
       0.017536739 -0.005539565 -0.12587659 -0.0621767
000260 cd 7e 4e bc 70 4e 14 3e 6d 09 16 bd ae 37 09 be
       -0.012603474 0.14483047 -0.036630083 -0.13400146
000270 4e 2d f2 3b 0b 13 8b 3e 3e 23 32 3e 52 47 b7 3d
       0.0073906546 0.27162966 0.17396256 0.0894915
000280 1a e3 87 bd a6 c2 f1 bd d8 8a 45 3e 5e 14 c8 3d
       -0.06635113 -0.11804704 0.19291246 0.0976951
000290 cc c2 eb bd 57 c9 00 be b3 67 a6 3d 79 d9 0a bc
       -0.11511764 -0.12576805 0.08125248 -0.008474701
0002a0 5c 21 0c 3d 2c 06 1b bd a9 4d 57 be 12 46 13 be
       0.0342115 -0.037847683 -0.21025719 -0.14382198
0002b0 c4 8c dd 3c 3b 53 30 3e 13 08 46 3e 47 12 98 bc
       0.027044661 0.1721925 0.19339018 -0.018563403
0002c0 14 9f 52 3e 61 8f 17 3e 24 91 a7 bd b9 8e 33 3b
       0.20568496 0.14800788 -0.0818198 0.0027398302
0002d0 d4 a8 93 bd 31 a2 d1 3d f0 d1 e1 bb 45 19 23 3e
       -0.07209936 0.10236014 -0.0068914816 0.15927608
0002e0 de 9c da bd 8e 06 b3 3d 44 37 b9 bd a5 7f e2 3d
       -0.10674451 0.087414846 -0.09043744 0.110595025
0002f0 ee 1d 40 be 7a ab 3b be 11 92 e8 3d 01 7f 02 3e
       -0.18761417 -0.18327132 0.11355985 0.1274376
000300 eb 4d 0d be 6e b1 a6 3c 2a 1d 20 be 11 00 03 be
       -0.13799255 0.020348277 -0.15636125 -0.12792994
000310 44 ad b1 bd 99 21 0e 3e 1a c5 7e bd 06 98 f6 3d
       -0.08675626 0.13880004 -0.06219969 0.12040715
000320 a3 a2 fd 3c 01 12 3e bd 99 63 6b 3d 4a 52 e9 3d
       0.03096134 -0.04640389 0.05746803 0.113926485
000330 b4 f0 41 be e0 80 c5 3d 87 ea 48 3c f1 4a ea 3c
       -0.18939477 0.096437216 0.012262947 0.028600188
000340 95 93 f0 bd 08 72 24 be cc 0d 02 be 07 16 0c 3e
       -0.11746899 -0.16059124 -0.12700576 0.13680278
000350 5b 89 f4 3d b4 66 07 3e f5 8d a9 bd d1 06 0e 3e
       0.11940261 0.13222772 -0.08279029 0.13869788
000360 9f 08 62 be f1 b3 e6 bc cc bb 82 be 2d 6b 11 be
       -0.22073601 -0.028161975 -0.25533903 -0.1420104
000370 da 0b 0c be 24 fb c0 bd 58 d2 41 be 40 33 8f 3b
       -0.13676396 -0.09422901 -0.18927896 0.004370123
000380 36 eb 02 3e 74 9b 09 3d d3 80 ab 3d 52 dc 00 be
       0.12785038 0.033595517 0.08374181 -0.12584046
000390 72 8c 42 3e fb d7 99 3c 8a ce 2c 3e fa fe aa bd
       0.18998888 0.018779745 0.16875663 -0.08349414
0003a0 ee e1 ee bd 51 92 80 3d df 09 0f 3b 7b ef ab bc
       -0.116641864 0.06277908 0.0021825952 -0.020988217
0003b0 5b ee d4 3d 49 15 46 3c c2 b7 ee 3d c4 a0 32 3e
       0.10397025 0.012090036 0.11656143 0.1744414
0003c0 1b 41 9d bc f2 61 37 bc 6b a9 1c bd 40 27 19 3e
       -0.019196084 -0.011192786 -0.038247507 0.14956379
0003d0 82 77 18 be 95 6d 6e bd ac cc b5 ba 5e 1a fe 3d
       -0.14889339 -0.058209974 -0.0013870201 0.12407373
0003e0 66 3b 6a 3e 22 58 b5 3d 2e 56 d1 bd 72 6c 3f 3e
       0.22874221 0.088547006 -0.102215156 0.18693712
0003f0 5b 9c db 3d 75 17 39 3e 12 fa af 3d 48 65 cd bd
       0.10723182 0.18075354 0.08592619 -0.100290835

bias f4 [10]
000000 ad a9 8a 3e 21 d9 ba bc c1 04 82 be a6 e1 81 3e
       0.27082577 -0.022808613 -0.25394252 0.2536747
000010 51 56 6b 3e 94 6f 80 be e4 7d 33 3e d4 62 51 3e
       0.22982146 -0.25085127 0.17528492 0.20447856
000020 b6 dc 63 3d 40 06 88 be
       0.05563041 -0.26567268

weight f4 [10, 10, 3]
000000 9d 8b 22 bc a7 90 60 3e a9 82 5e 3e 17 63 b6 bd
       -0.009920982 0.2193018 0.2172953 -0.08905619
000010 23 01 86 3d 51 a2 2c be 5e 84 99 bd fc 0e b1 3c
       0.065431856 -0.16858794 -0.0749595 0.02161359
000020 82 47 79 be 73 75 2a 3e 5f fd f2 3c 87 16 41 3e
       -0.24343684 0.16646366 0.029661832 0.1885625
000030 b2 47 6a 3d 8c cb 2a 3e 12 c0 23 3e be 90 0d 3d
       0.05719728 0.1667921 0.15991238 0.034561865
000040 68 ec e6 bd 3b e6 85 be 7b de 05 be 85 22 36 3e
       -0.1127556 -0.26152214 -0.13073151 0.17786606
000050 f8 d7 cf 3d fa bf 35 3e 9a c0 4f bd a0 28 08 3d
       0.10148615 0.17749014 -0.05072079 0.033241868
000060 30 ef 0c be 9f cf 04 3d b7 58 69 be a2 31 28 be
       -0.13763118 0.032424565 -0.22787748 -0.16425183
000070 dd 2a 91 bd ff 56 c9 bd c7 61 fd 3c e2 96 87 be
       -0.07088254 -0.09831046 0.030930413 -0.26482302
000080 7a 85 a1 bd f4 68 29 bb 6a af 94 3e d4 6b ad 3d
       -0.07886787 -0.002584991 0.2904008 0.08467832
000090 42 41 cc bd 10 04 e9 3d 39 0d 24 3e b9 3e fe bd
       -0.099733844 0.11377728 0.16020669 -0.12414307
0000a0 ae 4f 16 be d5 8d 31 be ab bf 73 3d b0 97 4e 3c
       -0.14678833 -0.17339261 0.05950896 0.012609407
0000b0 6e 3a a3 be ec a0 cd 3d 87 69 43 3e e0 10 9a 3e
       -0.31880516 0.10040459 0.19083224 0.30091
0000c0 9d 43 4f 3c 97 ee 76 3d cb ee a1 be 06 35 4a be
       0.012650398 0.06028613 -0.31627497 -0.1974679
0000d0 ad 6f 54 bd 55 d8 20 be 94 2f 51 3e 62 42 05 3d
       -0.051864315 -0.15707524 0.20428306 0.03253401
0000e0 c4 1d 85 3e d8 1d 66 3e d8 34 7f 3e 68 a2 9f 3e
       0.25999272 0.22472322 0.24922502 0.31178594
0000f0 ac f0 e4 3d dc ec 4f 3d d3 e9 3c 3d ee 54 34 3e
       0.11178717 0.050762996 0.04612143 0.17610523
000100 14 56 48 3e 18 41 46 3e db d7 bc 3d 4e c5 34 3e
       0.19564086 0.19360769 0.09220859 0.17653391
000110 04 3b 3d 3d d5 ea 8d bd 53 a9 17 3e 81 01 1c be
       0.04619886 -0.06929556 0.14810686 -0.15234949
000120 56 15 7a bd 15 bf 72 bd 6b d2 1e be 51 d3 2e 3c
       -0.061055504 -0.05926426 -0.15509956 0.010670499
000130 f5 99 e4 3c e3 b5 9d ba 80 40 cb bd 69 7d 98 3d
       0.027905444 -0.0012032356 -0.09924412 0.07445795
000140 9b 71 dc bc 1d ac a9 bd 45 c2 90 bd 2f dc 02 3e
       -0.02690964 -0.08284781 -0.07068304 0.12779306
000150 ce d2 07 3e e4 90 d6 bd 29 e3 19 3e 82 b0 f1 bc
       0.1326401 -0.104768544 0.15028061 -0.02950311
000160 a8 fc f3 bd d2 4f 57 3d 4d 48 7b bd 9b 6c 02 be
       -0.11913425 0.052566357 -0.06134825 -0.12736742
000170 ee 6d 13 be 80 ac c1 bd 18 99 3f 3e 36 04 7a bd
       -0.14397404 -0.0945673 0.18710744 -0.061039172
000180 07 d0 ab 3c 8b 7e 35 3e 81 9b 76 bd f3 d2 1a 3e
       0.020973219 0.17724054 -0.060206894 0.15119533
000190 4b db 35 be 7f 23 05 3e 89 c5 80 bd ba fd ab bd
       -0.17759435 0.13001822 -0.06287677 -0.08398004
0001a0 1f a9 1c be 1d 3e a9 bc e9 78 08 3e 7f fb 3b bd
       -0.1529889 -0.0206595 0.13327374 -0.045894142
0001b0 67 d8 b5 bd 6c 96 76 bd 56 0a c0 3d ae 57 10 bd
       -0.08879166 -0.060202047 0.093769714 -0.035239868
0001c0 8d e1 b0 3d 11 35 03 be 45 c9 99 bc 94 02 a9 3d
       0.086367704 -0.12813212 -0.01877273 0.08252445
0001d0 3c d1 dd bb 2d d9 40 3e 30 4c 2c bc a8 4e 54 bd
       -0.0067693274 0.18832846 -0.010516211 -0.051832825
0001e0 f1 52 e1 bc 27 04 ac bd eb 58 4f 3d 97 1e 94 bd
       -0.02750537 -0.083992295 0.05062191 -0.07232397
0001f0 c5 90 ea 3c 76 9a 04 3e c6 ed 51 bd 89 1e 7d 3d
       0.028633485 0.12949547 -0.05125215 0.0617967
000200 b1 96 c0 3d e4 6f 96 bd a8 89 be 3d 83 e1 3e bd
       0.09403742 -0.0734556 0.093035996 -0.046601783
000210 9e 41 3f bc aa c9 eb bb 3a a5 14 3e ec e7 c2 3d
       -0.011673359 -0.007195671 0.14516154 0.09516892
000220 0e 61 36 bd e8 72 08 3e 9c 33 23 be ca a0 22 3d
       -0.044526152 0.13325083 -0.15937656 0.03970412
000230 b0 1f 14 3e 39 a1 2b bd ca 20 34 be 10 0b 00 be
       0.14465213 -0.0419018 -0.17590633 -0.1250422
000240 4b 4d a7 bd e4 ee 36 3e aa 7a 48 3e 9a 72 57 bd
       -0.08169039 0.17864567 0.19578043 -0.052599527
000250 7b 4b 05 3e e6 fc 8e bd 10 5f 7b 3d 85 01 94 bc
       0.13017075 -0.0698183 0.061369956 -0.01806713
000260 fa b0 f0 bc 34 51 0a 3e a0 db ce 3d e2 f5 fd bd
       -0.029381264 0.13507539 0.10100484 -0.12400414
000270 45 07 a2 3d 80 e4 03 be b3 1c aa 3d 4e 9a 0b be
       0.07911543 -0.12880135 0.08306255 -0.13633081
000280 03 3b f5 bd 5d a5 59 be b2 f0 d6 3c 2c 5a 78 bd
       -0.11974146 -0.21254487 0.02623782 -0.06063287
000290 9b 80 da bd b6 50 77 bd a1 c9 0b be 46 3c f6 3d
       -0.10669061 -0.060379706 -0.13651134 0.12023215
0002a0 7f ff 96 3d 57 50 5b bd fa 3c 8b bb 4e 00 89 bd
       0.07372951 -0.053543415 -0.0042492123 -0.06689511
0002b0 8c 51 1e 3e 2e 01 43 be 6b ce eb 3d eb 94 c7 bd
       0.15460795 -0.19043419 0.115139805 -0.09745201
0002c0 9e d3 b0 3d 59 88 ad 3d 49 c2 c8 bd 7e 7f fd bd
       0.08634113 0.08473272 -0.09802682 -0.12377833
0002d0 1a ca 2f 3d 06 ba 7f 3d 83 8f b2 3d 35 1a d2 3d
       0.04291735 0.062433265 0.08718779 0.10258905
0002e0 29 11 bc 3d 9c 5f 00 be f9 80 0c be 19 02 bd bd
       0.091829605 -0.12536472 -0.13721074 -0.09228916
0002f0 4a c0 1b be 74 28 07 3e ff c6 1b be 39 fb ec 3d
       -0.15210071 0.13199025 -0.1521263 0.115713544
000300 ea 5c f3 bc 45 5e 0f 3e 39 f5 09 3e e0 07 d9 bd
       -0.02970739 0.14000805 0.13472451 -0.10597205
000310 d1 97 ec 3d b6 78 35 bd 42 e6 05 3e b7 8c 16 3e
       0.11552394 -0.044304572 0.13076118 0.14702116
000320 bd f9 24 be 66 75 49 3d 1f c6 f7 bd e8 d9 b3 bd
       -0.16110893 0.049184225 -0.120983355 -0.08781797
000330 5e 89 21 3e 31 5b 0b be a0 59 c3 3c 09 11 1d 3e
       0.15775058 -0.13609006 0.023846447 0.1533853
000340 e0 b9 cd bc d7 27 2e be 61 2d e9 3c 66 cd a4 bd
       -0.025113046 -0.17007385 0.028464021 -0.08046989
000350 00 b0 cb 3d 6f 97 de 3d 85 1d cd bd f8 1c 69 bc
       0.09945679 0.108687274 -0.10015396 -0.014228098
000360 66 3d c7 3d 84 10 9d 3c b7 75 23 be 07 9a 1d 3e
       0.09728508 0.019172914 -0.15962873 0.15390788
000370 33 06 96 bd 85 23 40 3e 12 68 ef bb f3 a5 36 3e
       -0.07325401 0.1876355 -0.0073061073 0.17836742
000380 4f 49 f0 bc 56 b5 ed 3d 90 51 a5 bd f0 67 da bd
       -0.029331831 0.11606853 -0.080721974 -0.10664356
000390 28 3d 81 bc 8f ff ff bd a3 07 0d ba 90 a1 11 be
       -0.015776232 -0.12499916 -0.0005379861 -0.14221787
0003a0 a2 fb 5e 3d 4e 5c e2 3d 24 43 06 be 18 b9 24 3d
       0.054439195 0.11052762 -0.1311155 0.04021558
0003b0 4b 00 08 be b1 9f 98 3d ad 7f 23 be 24 8d 43 be
       -0.13281362 0.07452334 -0.15966673 -0.1909681
0003c0 57 9e 0d be 66 25 3e 3e 78 9e 84 38 bb b0 01 be
       -0.13829933 0.18568954 6.3237676e-05 -0.12665074
0003d0 a6 d8 16 be bd c9 aa 3d 79 6f 1c 3e 62 d2 3a be
       -0.14731082 0.0833926 0.15276898 -0.18244317
0003e0 b5 5c 89 bd 38 0f cd bc 68 18 f8 3d 6a e5 ca bd
       -0.067071356 -0.02503167 0.1211403 -0.099070385
0003f0 39 d7 85 3c b3 eb 49 3e 29 ce 0b 3d 6d 77 ec bb
       0.016337978 0.19718818 0.034132157 -0.007216385

bias f4 [10]
000000 a9 80 b6 3d 28 6b fd 3d 2d a2 11 be 78 0a 97 3d
       0.08911259 0.12373954 -0.14222021 0.07375044
000010 e4 ca 5e be 17 16 e7 bd 83 49 a8 3d 40 68 63 3d
       -0.21757084 -0.1128351 0.08217146 0.055519342
000020 73 5c d2 bc 7e 7d 80 3e
       -0.025678849 0.25095743

weight f4 [1, 100]
000000 3e 74 c6 bc 28 d6 b8 bd b7 f1 91 3c 26 2e 96 bd
       -0.02422535 -0.09025222 0.017815454 -0.07333021
000010 de c1 c4 bc 3a 41 7e bd 69 70 8d bd 76 3a d2 3d
       -0.024018224 -0.062073924 -0.06906206 0.10265057
000020 0f 28 f5 3d d8 ce 0f 3e 61 c0 ca 3c fa 6f 9e bb
       0.11970531 0.14043748 0.024749937 -0.004835126
000030 14 12 52 bd a8 8b 7a 3d c3 d0 b6 3d 43 08 8e 3d
       -0.051286772 0.061168343 0.08926537 0.069351695
000040 5d 11 c7 3c 76 3a a3 bc 44 52 98 bd 79 85 d3 bd
       0.024300272 -0.019925337 -0.07437566 -0.10328192
000050 b5 24 cd bd 9d 0d 23 bd e0 f0 bc bd 24 53 21 3d
       -0.10016767 -0.039807905 -0.09225631 0.03938593
000060 61 f0 71 bd 0f 21 68 3d 55 ff 70 3d f6 0a d2 3c
       -0.059067134 0.056672152 0.058837254 0.025639992
000070 1a 82 14 bd a1 97 06 be 5a 7f 5b bc 8d 3d ab bd
       -0.036256887 -0.1314378 -0.013397062 -0.08361349
000080 2b 7b 6f bd ce e1 27 bb 75 09 fe bc 8c 14 68 bd
       -0.05846707 -0.0025616768 -0.031010369 -0.05666022
000090 b1 25 eb bc a8 a5 be bd 66 38 b4 bd e4 ea fe bd
       -0.028704496 -0.0930894 -0.0879982 -0.124471456
0000a0 cf 76 a8 3c 86 47 4a 3d e9 d9 09 bd 31 f7 ad bb
       0.020564465 0.049384616 -0.03365508 -0.0053090085
0000b0 3d 48 14 3d b1 7a a5 bd b1 dd ad bd 5b 40 67 bd
       0.036201704 -0.08080042 -0.0848955 -0.05645786
0000c0 c4 fa 8d bd 4a 0f 68 bc 7a da 74 bd 5a 5b 14 bd
       -0.06932595 -0.014163801 -0.059778668 -0.036219932
0000d0 af cf 8d 3d 6d a3 bc 3d 8e 32 82 3d 58 41 ab bd
       0.06924378 0.092108585 0.06357299 -0.08362073
0000e0 72 78 8e bd f2 4a 3b bd 3e c2 00 be 3c 20 fc bd
       -0.06956567 -0.04572577 -0.12574098 -0.12310836
0000f0 52 66 96 bd 79 72 97 3d ef 11 8f 3d af 11 71 bd
       -0.07343735 0.07394881 0.069858424 -0.058854755
000100 5d b4 1a bc a8 ff f1 3c ae 3d 9e 3d b8 5d b6 3b
       -0.009442416 0.029540852 0.07726608 0.0055653714
000110 0e ec df 3d 96 4e cb bb c7 63 39 3c c0 7a cf 3d
       0.10933696 -0.0062044365 0.011315293 0.101308346
000120 e0 74 9c 3d 99 a3 1f bd 41 f6 00 3d 88 ba b0 bc
       0.0763948 -0.03897438 0.031484846 -0.02157332
000130 e9 28 d7 3d 8c 7a ca bc 70 a1 b5 3d 43 c4 1b 3e
       0.1050585 -0.024716638 0.088686824 0.15211587
000140 43 24 97 bc 9d cf ae 3d 24 6e 42 3d bc df a1 bd
       -0.018449908 0.08535693 0.04746832 -0.07904002
000150 17 5e 90 bd a9 50 a4 3d 60 44 85 bc 00 bb b2 3d
       -0.07049196 0.08023197 -0.016267955 0.08727074
000160 e9 e6 75 bd f4 fa 0d 3e bd e0 a1 3d 6b 34 77 bc
       -0.060034666 0.13865262 0.079041936 -0.015088181
000170 30 94 5f 3c f8 ce 0f 3d 5f 3d 84 3d c6 b0 23 bd
       0.0136461705 0.03510949 0.06457018 -0.039963506
000180 97 d6 15 3d 1c 51 3f bd 25 9f 83 bd 29 fe 5e 3d
       0.036581602 -0.04670821 -0.06426839 0.054441605
