Model/gru.pth (torch, 9191 bytes, 7 tensors)

weight f4 [10, 11, 3]
0.03508996 0.26188317 0.00823665 0.11385087 -0.09817067 -0.19816121 0.006714184 -0.07007176
0.008671095 -0.054404795 0.23265526 0.12008844 -0.022392048 0.060786825 -0.02639945 -0.12996094
-0.06561918 -0.058130745 0.11049631 0.04492987 0.14782584 0.044131916 0.1518667 0.13987114
-0.0002667126 0.0943717 -0.064175874 -0.023827309 0.017363157 0.33060747 0.021953043 -0.07990807
-0.050295033 -0.0350967 -0.14389136 -0.0017462329 0.14990565 -0.1334563 -0.09988196 -0.0056040348
-0.009417601 0.2649828 -0.03795318 -0.11105123 0.1399608 0.25609812 0.08186054 -0.013868583
0.08525924 0.032327954 -0.06319193 -0.08710265 0.058570523 -0.007489907 -0.11862495 -0.02205651
0.087612376 -0.055577423 -0.23645844 -0.042607978 0.08239744 -0.0011745689 -0.049567793 0.09400775
0.18032496 0.13954367 -0.0843477 -0.045232985 0.07403738 -0.020557933 -0.109179184 -0.102373675
-0.0676407 0.07641586 -0.06860664 -0.21790436 -0.0936573 0.06586345 0.08020889 -0.03712668
-0.10560792 0.18094781 -0.14074723 0.014440144 0.026266161 -0.040067066 0.01833105 0.021306127
-0.16049159 -0.08905149 -0.048240826 0.054262966 -0.021216014 0.17384633 -0.11207931 -0.2586706
-0.13092718 0.03658415 0.10920587 -0.22975652 -0.22371083 0.16396496 0.09595714 0.16186093
0.22252847 -0.08504529 0.053517327 0.20998155 -0.22724596 -0.108475655 0.11520048 -0.09962896
0.14838706 -0.17871284 -0.007971298 -0.005590817 0.0074126697 -0.12140454 -0.08082053 -0.15844506
-0.18347868 0.11403316 0.149829 -0.1518113 0.024774063 -0.13654849 -0.19079842 -0.21139324
-0.15775746 0.023262186 0.14040585 0.13004464 0.043483265 0.037900444 0.17763051 0.073960476
0.08391214 -0.08301309 0.09691917 0.11892708 -0.07854402 0.23986521 0.16779235 0.18333718
0.057197113 0.00811289 0.1191721 -0.05852241 0.054040004 0.16243018 0.078817286 -0.06718933
-0.046753626 0.22124667 0.112859465 -0.11489209 0.17875542 0.07842113 0.11279461 0.0577019
-0.11984671 0.067876846 0.030725317 -0.079948835 -0.055201035 -0.11750713 -0.005637414 -0.040234547
-0.02532315 0.08187442 0.12059319 -0.18899389 0.037537552 -0.05865661 -0.19706751 -0.082369916
-0.094413616 -0.0033809708 -0.06845275 0.064578176 0.08951999 -0.1693152 0.10870571 -0.07122363
-0.12837298 0.014822438 0.05005068 -0.005030632 -0.112319365 -0.09072268 -0.13694933 -0.24972676
0.043783747 -0.091434225 -0.3577846 0.11961445 0.120252796 -0.046373602 0.22127649 0.18756375
0.09184507 0.047659837 -0.06687123 -0.03778587 -0.010572643 0.061366033 -0.20517403 0.2394173
-0.08476097 0.13768542 0.027425656 -0.13021189 0.16761641 0.0852686 0.07868432 -0.04862347
0.14506972 0.122665204 0.05264066 0.096752845 0.17025062 0.090763584 0.13889366 -0.06825763
-0.108336225 -0.034224298 -0.051655687 0.28508887 -0.09219146 -0.17142017 0.08640803 0.26643035
0.1858997 -0.020665033 0.15217331 -0.1476111 0.12050236 0.106285326 -0.09239102 -0.053821925
0.17612462 -0.008290029 -0.10670804 -0.027109638 0.056660034 0.12912828 0.0042013624 -0.093344204
-0.041684493 0.0070504285 -0.18965311 0.08166276 -0.07352288 0.11554473 -0.1695944 0.092282355
00000000: 7dba 0f3d 8d15 863e 04f3 063c a52a e93d
00000010: b40d c9bd c6ea 4abe a802 dc3b c881 8fbd
00000020: 3511 0e3c 90d7 5ebd 2e3d 6e3e eef0 f53d
00000030: 876f b7bc 9bfb 783d a943 d8bc 7b14 05be
00000040: 5963 86bd 811a 6ebd e44b e23d 6208 383d
00000050: a85f 173e abc3 343d f282 1b3e 613a 0f3e
00000060: 8fd5 8bb9 f345 c13d a46e 83bd 7d31 c3bc
00000070: 2e3d 8e3c 6245 a93e ded6 b33c d8a6 a3bd
00000080: 2a02 4ebd 8fc1 0fbd 4258 13be dae1 e4ba
00000090: de80 193e c5a8 08be ea8e ccbd 0da2 b7bb
000000a0: 484c 1abc d3ab 873e cb74 1bbd d46e e3bd
000000b0: e251 0f3e 4b1f 833e 80a6 a73d 0e39 63bc
000000c0: 659c ae3d 516a 043d c56a 81bd e062 b2bd
000000d0: a5e7 6f3d e56d f5bb a3f1 f2bd dbaf b4bc
000000e0: 1e6e b33d 27a5 63bd 2922 72be b485 2ebd
000000f0: fdbf a83d fef3 99ba 9907 4bbd 2387 c03d
00000100: 1ba7 383e 89e4 0e3e 7dbe acbd 3946 39bd
00000110: e9a0 973d 1c69 a8bc 5699 dfbd 4aa9 d1bd
00000120: 3587 8abd eb7f 9c3d a381 8cbd 5222 5fbe
00000130: 66cf bfbd 6be3 863d 8f44 a43d 2512 18bd
00000140: f748 d8bd 624a 393e 0b20 10be 5b96 6c3c
00000150: 222c d73c 5d1d 24bd 002b 963c 308a ae3c
00000160: e857 24be a160 b6bd 2c98 45bd d842 5e3d
00000170: 35cd adbc c604 323e d689 e5bd 7970 84be
00000180: c611 06be 43d9 153d 54a7 df3d 4b45 6bbe
00000190: 7414 65be 6ee6 273e 2d85 c43d dfbe 253e
000001a0: 81de 633e 3a2c aebd fc34 5b3d 6705 573e
000001b0: 2ab3 68be 7c28 debd 3bee eb3d 450a ccbd
000001c0: c7f2 173e 8000 37be 0c9a 02bc 2c33 b7bb
000001d0: fbe5 f23b f2a2 f8bd 3c85 a5bd 6c3f 22be
000001e0: d6e1 3bbe 388a e93d c66c 193e 6c74 1bbe
000001f0: faf2 ca3c 5ed3 0bbe a960 43be 7877 58be
00000200: 2c8b 21be 5790 be3c 8dc6 0f3e 6c2a 053e
00000210: 821b 323d 7f3d 1b3d c6e4 353e 9778 973d
00000220: 21da ab3d c402 aabd 8f7d c63d 0a90 f33d
00000230: b0db a0bd 3a9f 753e c2d1 2b3e bebc 3b3e
00000240: 8547 6a3d edeb 043c 8110 f43d 32b5 6fbd
00000250: 0d59 5d3d 1954 263e f56a a13d 8f9a 89bd
00000260: bb80 3fbd 7d8e 623e dd22 e73d 8b4c ebbd
00000270: a90b 373e 429b a03d dc00 e73d d458 6c3d
00000280: 3172 f5bd 0403 8b3d a9b3 fb3c 37bc a3bd
00000290: 7b1a 62bd 94a7 f0bd 0eba b8bb fbcc 24bd
000002a0: 7f72 cfbc c7ad a73d 90f9 f63d 9d87 41be
000002b0: fac0 193d ea41 70bd 11cc 49be 8fb1 a8bd
000002c0: ed5b c1bd 4793 5dbb f530 8cbd 9041 843d
000002d0: 4256 b73d f760 2dbe 19a1 de3d b2dd 91bd
000002e0: 3574 03be d0d9 723c f101 4d3d 00d8 a4bb
000002f0: b207 e6bd d0cc b9bd 723c 0cbe 5fb8 7fbe
00000300: 9656 333d de41 bbbd 8b2f b7be 6cf8 f43d
00000310: 1947 f63d 3ff2 3dbd 4e96 623e b610 403e
00000320: 4519 bc3d f636 433d c9f3 88bd 5bc5 1abd
00000330: e138 2dbc f35a 7b3d 2419 52be cf29 753e
00000340: 2997 adbd 68fd 0c3e c5ab e03c 4456 05be
00000350: a3a3 2b3e 4ea1 ae3d 3f25 a13d 6729 47bd
00000360: 288d 143e e537 fb3d bc9d 573d 5b26 c63d
00000370: 2e56 2e3e 42e2 b93d 243a 0e3e a8ca 8bbd
00000380: 62df ddbd c72e 0cbd ea94 53bd 2bf7 913e
00000390: e0ce bcbd c588 2fbe b1f6 b03d 8f69 883e
000003a0: 7e5c 3e3e b749 a9bc 52d3 1b3e 5d27 17be
000003b0: f1c9 f63d 1fac d93d 8137 bdbd 6174 5cbd
000003c0: 035a 343e e7d2 07bc bf89 dabd 0815 debc
000003d0: 5a14 683d 343a 043e 95ab 893b 3f2b bfbd
000003e0: 5cbd 2abd 4807 e73b 6d34 42be ce3e a73d
000003f0: 2a93 96bd b7a2 ec3d 28aa 2dbe 88fe bc3d

bias f4 [10]
-0.18805988 0.21012193 0.18689583 -0.0029594905 -0.1798283 0.14241263 -0.18829484 -0.111023046
-0.23059717 -0.12396489
00000000: c592 40be 342a 573e 9f61 3f3e 03f4 41bb
00000010: e924 38be 9ed4 113e 5dd0 40be 0d60 e3bd
00000020: aa21 6cbe 4ee1 fdbd

weight f4 [10, 10, 3]
0.0759704 -0.14914858 -0.037725814 -0.16518748 0.003386876 -0.086685844 -0.093567275 0.0020682681
-0.40545693 -0.16178371 0.07614333 -0.13023989 -0.01350633 0.09000166 0.106740184 -0.016035762
-0.15851285 -0.08013212 -0.10764688 0.044758696 0.06964845 -0.062083773 -0.004250083 0.22390608
0.18726577 -0.05215438 0.037788734 0.17043988 0.15748717 0.2441985 0.008963316 -0.0017466052
-0.12794763 0.15807316 -0.09088384 -0.1538804 -0.070924014 -0.00617335 -0.17653388 -0.008952063
0.07967606 0.07797112 0.08812815 0.14556664 0.06472861 0.09357976 0.13515294 -0.12731126
0.100358024 0.0013166454 0.080983944 0.019330341 0.19796152 0.10866911 -0.01741406 0.2072735
0.12846301 -0.10300157 0.07672468 -0.051693026 -0.11223406 0.0894885 0.1932116 0.027529452
-0.18674505 0.08605052 -0.32724166 -0.15478843 -0.5117267 0.040751293 -0.16647564 -0.03750952
0.011171101 0.10382823 0.11000817 -0.042275283 -0.082518734 -0.040783487 0.05142415 -0.20066497
0.10018564 0.22589351 -0.1036363 0.090080984 0.17488603 0.06574736 0.2554593 0.111322716
0.1785861 0.03467753 -0.20325209 -0.07018841 -0.09403346 -0.06853827 0.13165697 -0.1267125
0.22391932 0.34499303 0.13274378 -0.026648216 0.06714734 0.1833641 -0.21183272 -0.016852805
0.0938051 -0.06271492 0.17481914 -0.07750461 0.10783096 -0.05507652 0.03410721 -0.1329672
0.006189708 -0.017657932 0.027916042 -0.05560621 -0.08785374 0.036981694 -0.13489856 -0.21405782
0.01271046 -0.06745286 0.11478016 -0.10657243 -0.043317467 0.0032095155 0.068463676 0.28322777
0.10286443 -0.031028684 -0.09192524 -0.095764086 -0.010947719 -0.2084735 0.09942 0.13856645
-0.037293795 0.0102270255 0.11702459 0.02801841 0.16575705 -0.12089547 0.020884935 -0.048840433
0.04294665 0.11149874 -0.10975142 0.012104221 -0.22428676 -0.16774936 -0.11082396 -0.13743211
-0.14209905 -0.11359074 -0.047873866 0.18271808 0.26323527 0.043309513 0.44839936 -0.15922692
0.08348381 0.025216186 -0.039111573 -0.05980824 0.10103235 0.08888441 0.11057099 -0.17177981
0.116015606 -0.15087906 -0.121739104 -0.12210779 -0.021192305 -0.21492359 -0.13993676 -0.050572228
0.087547794 -0.14926413 -0.18126649 0.008605965 -0.13663243 0.107366234 0.0999469 -0.017091157
0.16398604 0.14563362 0.014929776 0.29820803 0.110479556 -0.08357287 -0.11355664 -0.08116583
0.014977293 0.12974098 0.021614669 0.044553425 -0.045055006 0.115286075 -0.045390047 -0.05825654
0.18826836 -0.18977296 0.11193489 -0.25718233 0.12070611 -0.10152181 -0.14863111 0.10443205
-0.071818694 0.026684264 -0.1269858 0.12266821 0.13250425 -0.013408461 -0.1769763 0.1100142
-0.3525378 -0.22279109 -0.33607638 -0.17907283 0.09419615 -0.21339047 -0.017347611 0.009187338
0.041164774 -0.09791912 -0.1378093 0.08563795 0.13363124 -0.21169974 -0.1685573 -0.026326355
0.10566184 0.23157324 0.065239415 0.17036144 0.10768254 0.17981833 0.19001822 0.26963666
-0.011191659 -0.06197231 0.16428518 -0.10355353 -0.07297896 -0.024176644 -0.051836237 -0.35440847
-0.1698478 0.15135323 -0.08836993 -0.21315259 0.06891165 -0.05432059 -0.051796235 -0.06552654
00000000: 5e96 9b3d 68ba 18be 6286 1abd e826 29be
00000010: 5af6 5d3b 5988 b1bd 33a0 bfbd c88b 073b
00000020: 0d98 cfbe a1aa 25be 09f1 9b3d 9b5d 05be
00000030: a749 5dbc ca52 b83d 999a da3d 6e5d 83bc
00000040: 3151 22be 4f1c a4bd f875 dcbd e554 373d
00000050: d9a3 8e3d 8e4b 7ebd 4844 8bbb a347 653e
00000060: 99c2 3f3e d59f 55bd 5cc8 1a3d cb87 2e3e
00000070: 5144 213e 2c0f 7a3e dfda 123c 58ee e4ba
00000080: b404 03be eedd 213e 4f21 babd d392 1dbe
00000090: 9c40 91bd d049 cabb 4cc5 34be acab 12bc
000000a0: 342d a33d 53af 9f3d 887c b43d 6c0f 153e
000000b0: 6f90 843d bfa6 bf3d 8865 0a3e e25d 02be
000000c0: 8288 cd3d 4a93 ac3a e9da a53d aa5a 9e3c
000000d0: 6db6 4a3e e98d de3d eea7 8ebc 813f 543e
000000e0: cf8b 033e 7df2 d2bd d421 9d3d 11bc 53bd
000000f0: f9da e5bd bf45 b73d 43d9 453e 7285 e13c
00000100: 183a 3fbe 413b b03d 388c a7be dc80 1ebe
00000110: 8500 03bf d4ea 263d 9778 2abe 95a3 19bd
00000120: fe06 373c e5a3 d43d f74b e13d d928 2dbd
00000130: 95ff a8bd 960c 27bd 21a2 523d 1e7b 4dbe
00000140: 212e cd3d a150 673e 453f d4bd 617c b83d
00000150: 5315 333e 8da6 863d 90cb 823e 2afd e33d
00000160: 46df 363e 070a 0e3d 5121 50be f1be 8fbd
00000170: 9d94 c0bd cb5d 8cbd 16d1 063e ecc0 01be
00000180: 1b4b 653e eda2 b03e fced 073e 5c4d dabc
00000190: 8b84 893d ccc3 3b3e adea 58be e50e 8abc
000001a0: e31c c03d ae70 80bd ca03 333e bdba 9ebd
000001b0: 7ad6 dc3d eb97 61bd 00b4 0b3d 8e28 08be
000001c0: 09d3 ca3b 5ea7 90bc 2fb0 e43c 56c3 63bd
000001d0: a9ec b3bd 1e7a 173d d922 0abe f931 5bbe
000001e0: 893f 503c ba24 8abd dc11 eb3d a542 dabd
000001f0: a86d 31bd bc56 523b af36 8c3d 3b03 913e
00000200: 96aa d23d de2f febc 4d43 bcbd f61f c4bd
00000210: 105e 33bc 147a 55be b79c cb3d 5de4 0d3e
00000220: 61c1 18bd 418f 273c 97aa ef3d dd86 e53c
00000230: 37bc 293e 0b98 f7bd e216 ab3c e80c 48bd
00000240: d4e8 2f3d 7459 e43d 5ac5 e0bd c850 463c
00000250: 6eab 65be 7dc6 2bbe acf7 e2bd 01bb 0cbe
00000260: 6a82 11be 43a2 e8bd 6317 44bd 731a 3b3e
00000270: c6c6 863e 5165 313d 9a94 e53e 620c 23be
00000280: 8ff9 aa3d 2d92 ce3c 7533 20bd 7cf9 74bd
00000290: 0cea ce3d 0809 b63d 0b73 e23d 0ce7 2fbe
000002a0: 9799 ed3d 0a80 1abe 5a52 f9bd a613 fabd
000002b0: 7c9b adbc ee14 5cbe 954b 0fbe d324 4fbd
000002c0: 424c b33d b2d8 18be ec9d 39be 0900 0d3c
000002d0: 5fe9 0bbe d4e2 db3d f6b0 cc3d c102 8cbc
000002e0: f5eb 273e fb20 153e 059c 743c b9ae 983e
000002f0: 1b43 e23d 4128 abbd 6290 e8bd 453a a6bd
00000300: 5263 753c d2da 043e 3f11 b13c a77d 363d
00000310: 998b 38bd 1b1b ec3d eaea 39bd 699e 6ebd
00000320: 6cc9 403e d853 42be 1f3e e53d 67ad 83be
00000330: c434 f73d abea cfbd c132 18be 78e0 d53d
00000340: ae15 93bd f598 da3c 9108 02be 7839 fb3d
00000350: 32af 073e 29af 5bbc 4639 35be 204f e13d
00000360: d67f b4be 5923 64be 3412 acbe de5e 37be
00000370: e9e9 c03d 0883 5abe 941c 8ebc 7d86 163c
00000380: 659c 283d d289 c8bd e21d 0dbe f362 af3d
00000390: a1d6 083e d1c7 58be 499a 2cbe 5eaa d7bc
000003a0: 3c65 d83d 8921 6d3e 3e9c 853d 3b73 2e3e
000003b0: aa88 dc3d 4c22 383e 2394 423e d10d 8a3e
000003c0: 385d 37bc add6 7dbd 603a 283e e013 d4bd
000003d0: fe75 95bd 190e c6bc 3c52 54bd 0775 b5be
000003e0: 95ec 2dbe 57fc 1a3e 4bfb b4bd ac44 5abe
000003f0: 8d21 8d3d 447f 5ebd 4a28 54bd c732 86bd

bias f4 [10]
-0.24338722 -0.053185306 -0.2657208 0.052617706 0.07002127 -0.01507375 0.25776935 0.001559319
-0.22822765 -0.12955883
00000000: 803a 79be d6d8 59bd 8f0c 88be aa85 573d
00000010: 5067 8f3d e4f7 76bc 58fa 833e 1062 cc3a
00000020: 82b4 69be 12ab 04be

weight f4 [10, 10, 3]
0.020728605 -0.006155283 -0.032458108 -0.04875493 -0.008925064 0.08875272 -0.08759276 -0.08836302
-0.09575877 -0.0542517 -0.0579445 0.1629309 0.1248118 -0.14695294 0.19271961 0.06547003
-0.1332744 -0.1095831 0.0025102443 -0.07324022 0.085880935 0.05661074 -0.12994526 -0.21340667
0.04718829 -0.13664055 -0.15073733 -0.038305655 -0.12199241 0.11248988 -0.13655151 -0.10638766
0.069445655 0.16617286 -0.09068056 -0.111885205 -0.08306751 0.12583673 -0.07797598 -0.0015542515
0.0035954549 0.043819845 -0.029980378 -0.004563972 -0.085502274 -0.020590434 -0.15656911 -0.23882058
0.03321406 -0.13262545 -0.174937 -0.047868147 0.023598516 0.24557883 0.1973664 0.07504361
0.27398637 -0.15960795 0.09181191 0.10912676 -0.12007789 -0.12345795 -0.17544687 -0.16438225
-0.1998974 -0.19361965 -0.035767354 0.032434005 -0.032168437 -0.081339255 0.055820722 0.07358428
-0.13279049 0.1719474 0.17377482 0.071721695 0.13024625 0.120480224 -0.020942641 0.18143062
-0.15617475 -0.08711538 -0.22169037 -0.13960317 0.13485828 0.059327878 -0.260943 0.034282785
-0.14087333 -0.13725697 0.09798528 -0.13376942 -0.10648878 0.043981366 0.017894115 -0.17114817
0.03781579 -0.17870428 0.030303081 0.089504085 0.16629393 0.19771034 -0.059788264 0.13036312
-0.082636766 0.11132243 0.08703857 0.22599171 -0.0053406814 -0.13202761 0.028382227 -0.13135558
-0.14746743 -0.0816587 0.05226486 -0.1983715 -0.16079696 0.09158042 -0.030914078 0.03422143
0.01324874 -0.05255372 0.24759027 0.053423297 0.14884052 0.205212 -0.02853194 0.19582112
-0.041095007 0.09206554 -0.12077862 -0.1512351 -0.13623865 0.031228995 0.12916444 0.15582259
-0.1219374 -0.30150986 0.047562737 -0.16068977 0.09803249 0.1860925 0.21560706 0.28375968
0.06882387 -0.039961986 0.19966921 0.108060986 0.16322586 0.026169196 0.10194377 0.17075747
-0.08793613 -0.04302902 0.12131958 0.1920348 -0.07158379 0.1422493 -0.06661986 0.17780274
-0.027142856 -0.19377914 0.09794942 -0.1320782 0.012727619 -0.15921941 -0.061962623 -0.21906686
0.1924206 -0.014149421 -0.17815916 -0.14271975 -0.012034393 0.21382336 0.0044620405 -0.11471231
0.052787185 0.13267866 0.17163172 -0.10967969 -0.031057136 -0.111389086 -0.023904124 0.094667085
-0.1565155 -0.019733295 -0.15039438 -0.017491462 -0.16916592 0.039355855 0.13116632 0.11551113
0.11282477 0.05612894 0.19077723 -0.002611144 -0.007032297 0.077634834 0.032460816 -0.05143167
0.08010345 -0.063733205 0.00069538585 -0.025623765 -0.008345211 -0.20151004 -0.18669422 -0.16314276
0.084026165 0.08225226 -0.18970247 0.13116099 -0.035135772 0.089504324 0.029197333 -0.17598408
0.091093875 -0.14639635 0.029156573 0.17327015 -0.02756334 0.24244146 -0.15947694 0.13899904
0.12283442 -0.006435801 0.17773218 0.15731752 0.12724349 0.124193385 0.062421262 0.098541304
0.105558954 -0.037329596 0.117627315 -0.1855653 -0.007548484 0.16893488 -0.05401017 -0.19083525
0.049296558 -0.11719434 0.092895985 0.14638378 0.09413668 -0.056101065 -0.01992631 0.096317306
0.24000347 0.08099771 -0.058320966 -0.047197666 -0.00037594658 0.11122626 -0.16753304 -0.12112972
00000000: 09cf a93c 42b2 c9bb cbf2 04bd 40b3 47bd
00000010: 6e3a 12bc fcc3 b53d d563 b3bd acf7 b4bd
00000020: 2d1d c4bd 0837 5ebd 3657 6dbd 5cd7 263e
00000030: 549d ff3d d57a 16be 4a58 453e 2715 863d
00000040: 1679 08be 1b6d e0bd e982 243b f8fe 95bd
00000050: 58e2 af3d aae0 673d 5f10 05be 4787 5abe
00000060: 8248 413d 80eb 0bbe e35a 1abe 64e6 1cbd
00000070: 28d7 f9bd 1861 e63d 29d4 0bbe c6e1 d9bd
00000080: 8639 8e3d 3829 2a3e bbb6 b9bd 1224 e5bd
00000090: 4c1f aabd 58db 003e dfb1 9fbd 07b8 cbba
000000a0: b9a1 6b3b 707c 333d 6999 f5bc 5f8d 95bb
000000b0: d11b afbd 45ad a8bc a753 20be 628d 74be
000000c0: 770b 083d f7ce 07be af22 33be 6411 44bd
000000d0: ad51 c13c 0479 7b3e 6b1a 4a3e 77b0 993d
000000e0: f147 8c3e 4470 23be e207 bc3d da7d df3d
000000f0: 66eb f5bd 86d7 fcbd 58a8 33be d253 28be
00000100: e7b1 4cbe 3b44 46be ca80 12bd 85d9 043d
00000110: 0dc3 03bd 3295 a6bd 45a4 643d 5bb3 963d
00000120: 3bfa 07be fb12 303e 07f2 313e d3e2 923d
00000130: 465f 053e 56be f63d e78f abbc f3c8 393e
00000140: 46ec 1fbe 8c69 b2bd cd02 63be 22f4 0ebe
00000150: 4a18 0a3e ca01 733d 529a 85be 1b6c 0c3d
00000160: 1941 10be 178d 0cbe 82ac c83d dafa 08be
00000170: ca16 dabd ce25 343d ae96 923c 7741 2fbe
00000180: bbe4 1a3d 41fe 36be 2b3e f83c eb4d b73d
00000190: f548 2a3e 9474 4a3e 8ae4 74bd e97d 053e
000001a0: 773d a9bd 04fd e33d 4741 b23d 5f6a 673e
000001b0: e200 afbb 3f32 07be d881 e83c 1482 06be
000001c0: b401 17be ad3c a7bd ae13 563d e621 4bbe
000001d0: f5a7 24be 848e bb3d 853f fdbc c52b 0c3d
000001e0: 3e11 593c 9242 57bd 4e88 7d3e 63d2 5a3d
000001f0: a669 183e 1823 523e d1bb e9bc 5585 483e
00000200: 3d53 28bd dc8c bc3d c85a f7bd 60dd 1abe
00000210: 2582 0bbe f3d3 ff3c af43 043e f58f 1f3e
00000220: 51ba f9bd 805f 9abe 25d1 423d dc8b 24be
00000230: 42c5 c83d 088f 3e3e 19c8 5c3e f348 913e
00000240: 87f3 8c3d 2eaf 23bd 1676 4c3e 144f dd3d
00000250: ae24 273e c860 d63c e5c7 d03d 0cdb 2e3e
00000260: dc17 b4bd 333f 30bd 6676 f83d c5a4 443e
00000270: 869a 92bd cda9 113e fe6f 88bd ec11 363e
00000280: b25a debc 0a6e 46be b599 c83d 823f 07be
00000290: 8187 503c 6a0a 23be 85cc 7dbd 1053 60be
000002a0: e809 453e f9d2 67bc 5b6f 36be 2025 12be
000002b0: e72b 45bc 83f4 5a3e 4f36 923b 4aee eabd
000002c0: 6037 583d eadc 073e 3ac0 2f3e bf9f e0bd
000002d0: 896b febc f61f e4bd 95d2 c3bc d1e0 c13d
000002e0: 9945 20be b8a7 a1bc fc00 1abe 414a 8fbc
000002f0: d539 2dbe 9b33 213d 7750 063e 1991 ec3d
00000300: ac10 e73d 76e7 653d 1b5b 433e ba1f 2bbb
00000310: 2f6f e6bb 03ff 9e3d a2f5 043d 04aa 52bd
00000320: 470d a43d 8e86 82bd 8e4a 363a eee8 d1bc
00000330: 5aba 08bc a658 4ebe c52c 3fbe e50e 27be
00000340: e915 ac3d df73 a83d 5d41 42be 114f 063e
00000350: 87ea 0fbd 0b4e b73d 3f2f ef3c 2c35 34be
00000360: 6d8f ba3d ede8 15be c4d9 ee3c bb6d 313e
00000370: 83cc e1bc 9342 783e ec4d 23be c455 0e3e
00000380: 9d90 fb3d 69e3 d2bb 6dff 353e d817 213e
00000390: 1e4c 023e 1a59 fe3d 70ad 7f3d 06d0 c93d
000003a0: 4b2f d83d ebe6 18bd 97e6 f03d d404 3ebe
000003b0: 4659 f7bb 44fd 2c3e c539 5dbd 516a 43be
000003c0: 30eb 493d 9603 f0bd 4040 be3d a1e5 153e
000003d0: bbca c03d 3bca 65bd 803c a3bc 0242 c53d
000003e0: 78c3 753e 21e2 a53d f7e1 6ebd 5752 41bd
000003f0: b21a c5b9 98ca e33d c88d 2bbe dc12 f8bd

bias f4 [10]
-0.074542664 -0.30797994 0.21302141 0.27750528 -0.029942516 -0.3383649 0.34125382 0.20808424
-0.19227171 0.012044724
00000000: d3a9 98bd 8caf 9dbe 4922 5a3e 2c15 8e3e
00000010: 024a f5bc 2a3e adbe d2b8 ae3e 0914 553e
00000020: e0e2 44be 3c57 453c

weight f4 [1, 100]
-0.08617644 -0.07803579 -0.065958805 -0.071484864 -0.02770622 -0.044333704 -0.120348886 0.056739073
-0.070679866 0.17537582 -0.035069354 -0.03155737 0.10632107 -0.03677011 -0.01191992 0.0027892245
0.09844597 -0.096931115 -0.22841594 -0.24224856 -0.07258883 -0.03501406 0.025817761 0.050131183
0.091559336 -0.027593372 -0.06268661 0.035320923 0.0595014 0.19145231 0.08304588 -0.011094741
-0.089766346 0.054114994 0.010516964 -0.030328808 0.020182004 -0.029206846 0.02686278 0.13244468
-0.07055063 0.052239433 0.074847616 0.035796706 0.018606069 0.070117116 -0.08566561 -0.088733666
-0.036885235 -0.13573614 -0.0040624794 -0.06080493 -0.07655276 0.04510081 -0.04893331 0.0401081
-0.0017993256 -0.093360946 -0.010093056 -0.1231983 0.09386946 0.09662944 0.106777884 0.081149004
0.06855315 0.017279642 0.020268688 -0.004896062 0.071237676 0.18641531 0.07086409 -0.09801463
0.073625505 -0.023856426 -0.032829847 0.030219633 0.023509068 0.07472417 0.088598184 0.18578254
-0.06313517 0.08925299 0.033194225 -0.0036155854 -0.0076776487 -0.0550225 -0.034531966 -0.061758414
-0.16836232 -0.12789267 0.024934141 -0.05150811 0.021317944 0.06912808 -0.02442779 -0.031949542
-0.06412883 0.05918208 0.14404067 0.115891136
00000000: 467d b0bd 3ad1 9fbd 6915 87bd a866 92bd
00000010: 28f8 e2bc 4297 35bd 7a79 f6bd 3b67 683d
00000020: 9bc0 90bd b895 333e e2a4 0fbd 4d42 01bd
00000030: dcbe d93d 419c 16bd c54b 43bc 6ccb 363b
00000040: 0a9e c93d d283 c6bd dee5 69be 0210 78be
00000050: 74a9 94bd e76a 0fbd c57f d33c 5b56 4d3d
00000060: 7683 bb3d 7f0b e2bc d661 80bd acac 103d
00000070: bdb7 733d 130c 443e f513 aa3d b7c6 35bc
00000080: 6bd7 b7bd afa7 5d3d 584f 2c3c 1f74 f8bc
00000090: bb54 a53c 3243 efbc 550f dc3c 949f 073e
000000a0: d97c 90bd 04f9 553d b549 993d 919f 123d
000000b0: c16b 983c 9099 8f3d 7471 afbd ffb9 b5bd
000000c0: f914 17bd 6afe 0abe 8c1e 85bb 970e 79bd
000000d0: b2c7 9cbd a0bb 383d 4b6e 48bd 6448 243d
000000e0: 59d7 ebba 0634 bfbd 585d 25bc 644f fcbd
000000f0: a23e c03d a8e5 c53d 5dae da3d 7331 a63d
00000100: 9865 8c3d 098e 8d3c 850a a63c 256f a0bb
00000110: 0fe5 913d a8e3 3e3e 3121 913d e5bb c8bd
00000120: f8c8 963d 8d6e c3bc 9778 06bd 2a8f f73c
00000130: 1796 c03c fc08 993d f772 b53d c73d 3e3e
00000140: 034d 81bd 46ca b63d abf6 073d 75f3 6cbb
00000150: c994 fbbb 465f 61bd 6471 0dbd 64f6 7cbd
00000160: 2c67 2cbe 4cf6 02be af42 cc3c 2bfa 52bd
00000170: f8a2 ae3c 0693 8d3d ca1c c8bc 86dd 02bd
00000180: fa55 83bd e968 723d 667f 133e 5558 ed3d
