Model/Informer.pth (torch, 40399 bytes, 43 tensors)

in_proj_weight f4 [33, 11]
0	0xbd60a7d2	-0.054847546
1	0xbeabc0f0	-0.33545637
2	0xbdb82b3e	-0.08992623
3	0x3ea3947e	0.31949228
4	0x3ceac9cc	0.028660677
5	0xbeac405b	-0.3364285
6	0xbe9fbe2e	-0.31199783
7	0x3e4f0c27	0.2021948
8	0x3dbf6f4b	0.09347399
9	0x3d68fe3f	0.056883093
10	0x3e75f104	0.24017721
11	0x3e5cfec0	0.21581554
12	0xbd1bb6f7	-0.038016286
13	0x3eb47807	0.35247824
14	0x3e86a518	0.26297832
15	0xbe58ae20	-0.21160173
16	0x3d617f16	0.05505284
17	0xbd9ff826	-0.078110024
18	0x3cc6a54a	0.024248738
19	0x3e673b86	0.225813
20	0x3e2855ca	0.16438976
21	0x3e85aa85	0.2610666
22	0x3e2ff6e9	0.17184032
23	0x3bd80fdd	0.006593688
24	0xbd8d6dc3	-0.06905701
25	0xbe6883bf	-0.22706507
26	0xbe004394	-0.12525779
27	0xbdb01fd6	-0.08599822
28	0x3e18b3bd	0.14912315
29	0xbeb2f9f2	-0.34956318
30	0x3e6776b6	0.22603878
31	0x3ae454bd	0.0017420274
32	0xbdcefe40	-0.10107088
33	0xbdad9238	-0.08475155
34	0x3e91b33f	0.28457066
35	0xbe70aad8	-0.23502672
36	0x3ca3fa0e	0.020016696
37	0xbe9cad10	-0.30600786
38	0x3ea1a268	0.3156922
39	0xbe6d7ce0	-0.23192167
40	0xbd5f564d	-0.054525662
41	0x3eb9b4d0	0.3627076
42	0x3eab898a	0.3350337
43	0xbb6f8464	-0.0036547417
44	0xbea19683	-0.31560144
45	0x3dec0920	0.11525178
46	0xbeb48062	-0.35254198
47	0x3e8b7140	0.2723484
48	0xbe6b5ce9	-0.22984661
49	0x3c8d8021	0.01727301
50	0xbd20bcc0	-0.039242506
51	0x3db496cd	0.088178255
52	0xbe57b677	-0.21065699
53	0x3ebc28b1	0.36749795
54	0xbe9171c4	-0.2840711
55	0xbe29c32c	-0.16578358
56	0x3bbe6e4a	0.0058114873
57	0xbeab6daf	-0.3348212
58	0xbeaf90ae	-0.3429007
59	0x3ebad07a	0.3648718
60	0x3d9989a4	0.07496956
61	0xbce0fcb6	-0.027464252
62	0x3df7248c	0.12067518
63	0x3d9a3c31	0.07531012
64	0xbe8568b4	-0.26056445
65	0x3eb1f96f	0.34760615
66	0xbe4fb79d	-0.20284887
67	0xbeb81f9a	-0.3596161
68	0x3ea1edf3	0.31626853
69	0xbe92f400	-0.28701782
70	0xbd98dd31	-0.07464064
71	0xbe3b27f3	-0.18276958
72	0x3de9d72e	0.114179954
73	0x3e2ffe27	0.17186795
74	0x3d93510a	0.07193191
75	0xbe78262a	-0.24233308
76	0x3d8cd29c	0.06876108
77	0x3da78d2f	0.081812255
78	0xbe8f5d0c	-0.28000677
79	0x3e1814a3	0.14851622
80	0xbdb28ba4	-0.087180406
81	0xbe1987c6	-0.149932
82	0x3ea80e35	0.3282334
83	0x3eb3b749	0.35100773
84	0x3e88d5f9	0.26725748
85	0xbeac5934	-0.33661807
86	0x3e8266d5	0.2546908
87	0xbe62c318	-0.22144735
88	0x3c7c4190	0.015396491
89	0x3e34b61b	0.17647593
90	0x3e3196aa	0.1734263
91	0xbe695ef4	-0.22790128
92	0x3ea23fd4	0.31689322
93	0xbe9222c2	-0.28542143
94	0x3dcd72f5	0.10031692
95	0x3d237e5b	0.039915424
96	0xbe418f35	-0.18902285
97	0x3e1259bf	0.14292048
98	0xbe694a47	-0.22782241
99	0xbe8b6e4b	-0.27232584
100	0xbe02ee14	-0.12786132
101	0xbd548402	-0.051883705
102	0xbd43f7d1	-0.047843758
103	0xbe5949ed	-0.21219607
104	0x3d38ebe6	0.045146845
105	0x3c3606b8	0.01111
106	0xbdc756ce	-0.097333536
107	0x3e6b71ca	0.22992626
108	0xbe37374d	-0.1789219
109	0x3e2c8561	0.16847755
110	0xbc0e1f42	-0.008674445
111	0x3dc38181	0.09546185
112	0xbdc60032	-0.09668006
113	0xbe77447d	-0.2414722
114	0xbea991fe	-0.33119196
115	0xbd8c8210	-0.06860745
116	0xbcf9514e	-0.030434277
117	0x3ea33761	0.31878188
118	0xbd910ee3	-0.070829175
119	0xbda9ea4b	-0.08296641
120	0x3e24d9f1	0.16098763
121	0x3e9703bd	0.2949504
122	0xbe049490	-0.12947297
123	0xbe5313b0	-0.20612979
124	0x3e2e4b82	0.17020991
125	0xbe76f9a0	-0.24118662
126	0xbe8be188	-0.27320504
127	0x3dbe660f	0.0929681
128	0xbe542044	-0.20715433
129	0x3e7b9ffd	0.2457275
130	0x3e48e95f	0.19620274
131	0x3d3a3af9	0.045466397
132	0x3e887698	0.2665298
133	0x3e554728	0.20827925
134	0xbe141078	-0.14459407
135	0xbd946520	-0.072458506
136	0xbd7616bb	-0.06008027
137	0xbe31d8ac	-0.1736781
138	0x3ce7ce7b	0.0282967
139	0xbe12b3c5	-0.14326389
140	0xbe5c5f67	-0.21520768
141	0x3dafd1d4	0.085849434
142	0x3dd44049	0.10363824
143	0x3d702528	0.058629185
144	0xbe45fb9a	-0.1933426
145	0x3d2ef8d8	0.042717785
146	0xbd88e126	-0.06683569
147	0x3e543709	0.20724119
148	0x3e0f2f65	0.13982923
149	0x3cebb84a	0.0287744
150	0xbe23ede3	-0.16008715
151	0xbe06f651	-0.131799
152	0x3e3e0b01	0.18558885
153	0xbdfbc070	-0.12292564
154	0xbea17c4e	-0.3154015
155	0x3cdedee8	0.0272059
156	0x3e66bea0	0.22533655
157	0x3d8a2f5d	0.06747315
158	0x3e246bdd	0.16056772
159	0x3ea9820c	0.3310703
160	0xbd9c6ebc	-0.076383084
161	0xbeb9e701	-0.36309054
162	0xbe210eb5	-0.15728267
163	0xbd9cca1c	-0.07655737
164	0xbea6084b	-0.32428202
165	0x3ec71d07	0.38889334
166	0x3e0dcb5b	0.13847105
167	0x3e983e55	0.29735056
168	0x3dede231	0.11615408
169	0x3db780e4	0.08960131
170	0xbe7f2283	-0.24915509
171	0xbe5707b0	-0.20999026
172	0xbe24e311	-0.16102244
173	0x3ea1e9e5	0.3162376
174	0xbe2236b9	-0.15841188
175	0xbe44ce56	-0.19219336
176	0x3e735ada	0.23765126
177	0xbe365b83	-0.17808346
178	0xbd2985e4	-0.041387454
179	0x3e375d5e	0.1790671
180	0x3e759301	0.23981859
181	0x3e9e3d7b	0.3090628
182	0x3decb7f1	0.115585215
183	0x3e921bad	0.2853674
184	0xbc4fe577	-0.012688986
185	0xbe4ebc5c	-0.20189041
186	0xbeb3627a	-0.3503607
187	0x3e9bd712	0.30437523
188	0x3c6c525a	0.014423931
189	0x3e5b258f	0.21401046
190	0x3e6bfbb7	0.2304524
191	0x3e58deb8	0.2117871
192	0xbe47d587	-0.19515048
193	0xbe2cefec	-0.16888398
194	0xbe9caadf	-0.30599114
195	0x3e1814ce	0.14851686
196	0xbe6cf26b	-0.2313935
197	0xbddc44a1	-0.107552774
198	0x3e291f2d	0.16515799
199	0xbc84afe4	-0.016197152
200	0x3e9961fc	0.2995757
201	0x3d5fb9c8	0.054620534
202	0xbe878cda	-0.2647465
203	0x3ddf1a56	0.10893695
204	0x3d0471e3	0.032335173
205	0x3e1a5ea8	0.15075171
206	0xbcd9c804	-0.026584633
207	0xbdd93100	-0.10605049
208	0xbe99aa61	-0.300128
209	0xbe5c1f0d	-0.2149622
210	0xbeba8172	-0.36426884
211	0xbe909750	-0.28240442
212	0xbe2a14c3	-0.16609482
213	0x3d8e3e51	0.0694548
214	0xbea209b4	-0.31648028
215	0xbc97b993	-0.018521106
216	0xbd88df13	-0.06683173
217	0x3eb4f17c	0.35340488
218	0x3d907ec6	0.0705543
219	0x3e4656e5	0.19369085
220	0xbec689bb	-0.38776955
221	0xbeab6de2	-0.3348227
222	0x3ebfee25	0.37486377
223	0xbea6f88d	-0.32611504
224	0xbe8ad8d5	-0.27118555
225	0x3e46ab1f	0.19401215
226	0x3eb86df0	0.36021376
227	0x3e642ef2	0.22283533
228	0x3e52ba2f	0.20578836
229	0xbd264b07	-0.040598895
230	0x3c5c2bc4	0.013438169
231	0xbe0b5bec	-0.13609284
232	0x3e9225df	0.28544518
233	0xbe50d9c3	-0.2039557
234	0xbdfcc2ad	-0.12341819
235	0x3e51f03c	0.20501798
236	0xbeaa3795	-0.3324553
237	0xbdb4b46b	-0.088234745
238	0xbe083a3f	-0.13303469
239	0xbe9dcc24	-0.3081981
240	0x3dfc6c23	0.12325313
241	0xbd82ae54	-0.06380907
242	0x3ee12dca	0.43980247
243	0xbe7f5a16	-0.24936709
244	0x3e9e91dd	0.3097066
245	0x3e97d235	0.29652563
246	0xbd1aaf78	-0.037764996
247	0xbe7f03c0	-0.24903774
248	0xbe1cc5ca	-0.15309826
249	0xbdacfc17	-0.0844652
250	0x3e853cdb	0.26022992
251	0xbc983d4a	-0.018583912
252	0x3e602371	0.2188852
253	0xbdd8cab9	-0.10585541
254	0xbea4db33	-0.32198486
255	0x3e8e5cc5	0.27805153

in_proj_bias f4 [33]
0	0xbca821fc	-0.020524018
1	0xbd1fc8c9	-0.039009843
2	0x3d4e049b	0.05029736
3	0x3d443da0	0.047910333
4	0x3d05c2ef	0.032656606
5	0x3d167823	0.036735665
6	0x3cc7ae07	0.024374975
7	0x3d282092	0.041046686
8	0xbd166370	-0.036715925
9	0xbbca28f9	-0.006169435
10	0x3d3ef84a	0.046623506
11	0x3b8e252a	0.0043379264
12	0x3b9ca8b6	0.004780854
13	0xbbb6cd3f	-0.0055786665
14	0x398f3e0b	0.0002732131
15	0xbb95f513	-0.0045763343
16	0x3b693a3e	0.0035587694
17	0x3b7517a4	0.0037398124
18	0xbb980406	-0.0046391515
19	0xbb8ed888	-0.0043593086
20	0x3b786a2b	0.0037905078
21	0x3b99a503	0.0046888604
22	0xbe336d08	-0.17522061
23	0x3d4af2e7	0.049548056
24	0x3d16d5a1	0.036824826
25	0x3d8f5185	0.069979705
26	0xbdcc0022	-0.09960963
27	0xbd92834d	-0.0715395
28	0x3c9aa69f	0.01887828
29	0x3e06a069	0.13147129
30	0xbe471124	-0.19440132
31	0xbda5613a	-0.08075185
32	0x3e09115d	0.1338553

weight f4 [11, 11]
0	0xbe8381fb	-0.25685105
1	0xbe8179cb	-0.25288233
2	0xbe8fd908	-0.2809527
3	0x3e221456	0.1582807
4	0x3e453897	0.19259869
5	0x3e81bed2	0.25340897
6	0xbe1ecc9b	-0.15507738
7	0xbe7ffac2	-0.24998
8	0x3daae677	0.08344739
9	0x3e549309	0.20759214
10	0xbe51af32	-0.20476988
11	0x3e4b8144	0.1987353
12	0xbe94a9e9	-0.2903588
13	0xbc8858fd	-0.016643995
14	0xbe39f4c6	-0.1815978
15	0x3e596ee3	0.21233706
16	0xbdbe347f	-0.092873566
17	0x3e3cfcb7	0.18455778
18	0xbe9be4f5	-0.30448118
19	0x3e106c7a	0.1410388
20	0xbda58c31	-0.0808338
21	0xbd3dafc9	-0.04631022
22	0x3e533197	0.20624386
23	0x3d9cf1a5	0.076632775
24	0xbe3345c5	-0.17507084
25	0x3e05cc6e	0.13066265
26	0xbcc8bfbc	-0.024505489
27	0x3de28174	0.110598475
28	0xbe119ecb	-0.14220731
29	0x3c0c91e8	0.008579709
30	0x3d7097fe	0.0587387
31	0x3e94954f	0.29020163
32	0x3c55f2af	0.013058349
33	0x3c7e9e1b	0.015540625
34	0xbe9505ae	-0.29105896
35	0xbce2e0b6	-0.027695041
36	0xbd2c7c50	-0.04211074
37	0xbe43d745	-0.19125088
38	0x3e04ba72	0.12961748
39	0x3e155ce9	0.14586224
40	0xbe4fa996	-0.20279536
41	0x3da02e42	0.07821323
42	0xbdfa5a14	-0.12224212
43	0xbe7ff594	-0.24996024
44	0xbe2e2c31	-0.17009045
45	0xbdbb3abd	-0.09142063
46	0xbe4af4cf	-0.1981995
47	0xbdc4c0fb	-0.096071206
48	0xbd127e45	-0.03576495
49	0x3eb21277	0.34779713
50	0x3d1dbe09	0.03851131
51	0x3d84084e	0.064468965
52	0xbe323ec3	-0.17406754
53	0xbe2fb132	-0.17157438
54	0x3e596022	0.21228078
55	0xbe40601a	-0.1878666
56	0xbd9a417a	-0.0753202
57	0x3e42bff7	0.19018541
58	0x3e9a59d3	0.30146655
59	0x3db52887	0.088456206
60	0x3c87c001	0.016571047
61	0x3d8e1969	0.0693844
62	0xbe485bc4	-0.19566256
63	0xbe30fbc1	-0.17283536
64	0x3e331d91	0.17491747
65	0xbd5bc08b	-0.05365042
66	0xbdbfa1dc	-0.09357044
67	0x3ea89b02	0.32930762
68	0xbd3ac904	-0.04560186
69	0xbba5a219	-0.005054724
70	0x3e3e03ae	0.18556091
71	0xbe490b41	-0.196332
72	0x3e960bc7	0.2930586
73	0x3d393175	0.04521318
74	0xbd7127c2	-0.058875807
75	0x3c533cb6	0.012892893
76	0xbe4c39d5	-0.19943936
77	0xbe393a8f	-0.18088745
78	0xbe9b0311	-0.30275777
79	0xbe228163	-0.1586967
80	0xbe8de065	-0.27710262
81	0xbdde1562	-0.10843922
82	0x3e0e5d2d	0.13902731
83	0xbcc44158	-0.02395694
84	0x3e578b30	0.2104919
85	0x3e85ae4b	0.26109537
86	0xbe26be1d	-0.1628346
87	0xbda47e75	-0.08031932
88	0x3dce47bd	0.10072277
89	0xbe73ee06	-0.23821267
90	0xbe7475f2	-0.23873118
91	0x3e9bfecf	0.3046784
92	0x3dc8757f	0.097880356
93	0xbe4c39c3	-0.1994391
94	0x3db93080	0.09042454
95	0x3d89bc1f	0.067253344
96	0x3e068aa3	0.13138823
97	0x3dea0bad	0.11428008
98	0xbe372d2c	-0.17888325
99	0x3e60e078	0.21960628
100	0x3d86e831	0.06587256
101	0x3de6c47e	0.11267947
102	0xbda153a1	-0.07877279
103	0xbe348e2a	-0.17632356
104	0xbe888d16	-0.2667014
105	0xbe8f1f66	-0.27953643
106	0x3e85822e	0.26075882
107	0x3d91d944	0.07121518
108	0xbe376ba6	-0.17912158
109	0x3e4b2ddc	0.19841713
110	0x3e8e0cfa	0.27744275
111	0xbe04465f	-0.1291747
112	0x3a4be256	0.0007777562
113	0x3e8265c9	0.2546828
114	0x3e26d9a7	0.16293965
115	0xbdc22cc5	-0.09481195
116	0x3e0d00a5	0.13769777
117	0xbcd13605	-0.025538454
118	0x3e8639c0	0.26215935
119	0xbc9a9636	-0.018870454
120	0x3e3f6602	0.18691257

bias f4 [11]
0	0xbe658059	-0.22412242
1	0xbd1ff5ad	-0.039052654
2	0xbde64634	-0.11243859
3	0xbe58c4a6	-0.21168765
4	0x3da9b01b	0.082855426
5	0x3e896fe8	0.2684319
6	0x3e5814f6	0.21101746
7	0xbd2a40bd	-0.041565645
8	0x3e3c7a27	0.18405972
9	0x3d817add	0.063222624
10	0xbe5393d9	-0.20661868

weight f4 [32, 11]
0	0xbd3dbc6f	-0.046322282
1	0xbcf8092b	-0.03027781
2	0xbd3cfd9c	-0.0461403
3	0xbe6eac15	-0.23307832
4	0x3e673f4e	0.22582743
5	0x3cf5f5ba	0.030024398
6	0xbd16b07e	-0.03678941
7	0xbe7dd6c2	-0.24788955
8	0xbe08565b	-0.13314192
9	0x3e032227	0.12805997
10	0xbd654d88	-0.055982143
11	0xbdc0671c	-0.093946666
12	0x3de8681e	0.11347984
13	0xbe9f643f	-0.3113117
14	0xbd36d282	-0.04463435
15	0x3d977e43	0.073971294
16	0xbe83343a	-0.25625783
17	0xbe9a663b	-0.3015612
18	0x3d6b0e64	0.05738677
19	0x3e4515e3	0.1924663
20	0xbd52a647	-0.051428106
21	0x3da744d6	0.08167426
22	0xbe89cfb3	-0.26916274
23	0xbdf59919	-0.11992092
24	0x3e3154c3	0.1731749
25	0x3e6cb6b9	0.23116578
26	0x3ea754ad	0.3268179
27	0xbe08afae	-0.13348266
28	0xbe292537	-0.16518103
29	0x3dcd7e33	0.10033836
30	0xbdb3f032	-0.08786048
31	0x3dc7ae73	0.097500704
32	0x3e089235	0.13337024
33	0x3eb27661	0.3485594
34	0xbe1d011a	-0.15332451
35	0x3e572fb4	0.21014291
36	0xbe869cfa	-0.2629164
37	0xbe5a94d1	-0.21345831
38	0xbe393ce1	-0.1808963
39	0xbe616952	-0.22012833
40	0x3d846d4f	0.064661615
41	0x3d6d404f	0.057922658
42	0xbe856cc9	-0.2605956
43	0xbdcc4d18	-0.09975642
44	0xbdd8aa2e	-0.10579334
45	0x3eaba39a	0.33523256
46	0x3e3dedb0	0.18547702
47	0x3e763b03	0.24045949
48	0x3dc387c9	0.09547383
49	0x3e8e995b	0.27851376
50	0xbe5631e7	-0.20917474
51	0x3ce2ba04	0.02767659
52	0xbe3676db	-0.17818777
53	0x3d2f55f4	0.04280658
54	0xbd7380ed	-0.059449125
55	0x3e9e5109	0.309212
56	0xbede8678	-0.43461967
57	0x3d84682d	0.064651825
58	0x3d3c4283	0.045961868
59	0xbdfa3476	-0.122170374
60	0xbeae3835	-0.34027258
61	0x3e002549	0.12514223
62	0x3ea60a3d	0.32429686
63	0x3e801dc8	0.2502272
64	0xbe0eccdc	-0.13945335
65	0x3dbcfccb	0.09227904
66	0x3c849be5	0.016187618
67	0xbe0d6651	-0.13808562
68	0x3cb5e277	0.022202713
69	0xbe58a87a	-0.21158019
70	0xbe055ca8	-0.13023627
71	0xbe88b311	-0.26699117
72	0x3ebcab09	0.3684924
73	0xbd4fe77f	-0.05075788
74	0x3d992fd5	0.07479826
75	0xbd18b356	-0.037280403
76	0xbd9122ed	-0.0708674
77	0xbe0e0343	-0.13868432
78	0x3da83555	0.08213297
79	0x3e22de7a	0.1590518
80	0xbe569aa6	-0.20957431
81	0x3e62f365	0.2216316
82	0xb8f6c817	-0.00011767464
83	0xbb9aad49	-0.004720364
84	0x3d845573	0.06461611
85	0x3de7ca15	0.11317841
86	0x3e25e44d	0.16200371
87	0xbca7ad8b	-0.020468494
88	0xbe80851b	-0.2510155
89	0x3dc92cc2	0.0982299
90	0x3e15f620	0.1464467
91	0xbdb15c25	-0.08660153
92	0xbcb61c94	-0.022230424
93	0x3e44ff04	0.19237906
94	0x3dfea4c9	0.12433774
95	0x3d8c127d	0.06839464
96	0x3ea3e18f	0.32008025
97	0xbe6cc16c	-0.2312066
98	0x3dd04dbc	0.10171077
99	0x3cb5395d	0.02212208
100	0xbdab276d	-0.08357129
101	0x3ea29215	0.31752077
102	0xbd826d07	-0.063684516
103	0x3d3a4520	0.04547608
104	0xbe67b85e	-0.22628924
105	0xbe824709	-0.2544482
106	0x3c725b5c	0.01479229
107	0x3c2ab0c4	0.010418121
108	0x3e79b1d1	0.24384238
109	0x3c445766	0.011983728
110	0xbda0b9ff	-0.07847976
111	0xbe88875b	-0.26665768
112	0xbe66d0eb	-0.22540633
113	0x3d6ed465	0.058308024
114	0xbe229f8d	-0.15881176
115	0x3e6f5134	0.2337082
116	0x3e03b998	0.12863767
117	0x3e517d58	0.20457971
118	0x3de50ce9	0.11184103
119	0x3db98bd0	0.0905987
120	0x3de3c6df	0.11121916
121	0x3dff5d29	0.12468941
122	0xbe580197	-0.21094356
123	0xbe465856	-0.19369635
124	0xbe576bdc	-0.21037239
125	0x3e8e55d6	0.27799863
126	0xbe453223	-0.19257407
127	0xbe857080	-0.26062393
128	0x3df7c1f9	0.12097544
129	0xbe761a83	-0.24033551
130	0x3e1766fe	0.14785382
131	0xbd0eca2d	-0.03486078
132	0xbe2525ed	-0.16127749
133	0x3e05ba98	0.13059461
134	0xbe8d8bb9	-0.27645662
135	0xbdd196ae	-0.10233818
136	0xbe218c83	-0.15776257
137	0x3edf039a	0.43557435
138	0xbecf5672	-0.4049564
139	0x3e3bc7aa	0.18337885
140	0xbe2b28fa	-0.1671485
141	0xbe47b2c4	-0.19501787
142	0xbc175464	-0.009236429
143	0xbea90e81	-0.33018878
144	0xbd2913fb	-0.04127882
145	0xbead022a	-0.33790714
146	0xbe23f79e	-0.16012427
147	0x3d1ba2a4	0.037996903
148	0x3d3710c8	0.04469374
149	0x3ec81e35	0.39085546
150	0xbe1db573	-0.15401249
151	0xbe2fed27	-0.1718031
152	0x3debc9a6	0.11513071
153	0xbe237a06	-0.15964517
154	0xbdcd7ec3	-0.100339435
155	0xbdb177b2	-0.08665408
156	0x3e6d4c0f	0.23173545
157	0xbdb00128	-0.085939705
158	0xbde773ab	-0.11301359
159	0xbe50a132	-0.20373991
160	0xbe87b8fe	-0.26508325
161	0xbe04535c	-0.12922424
162	0xbdeeea03	-0.11665728
163	0x3d7d7f32	0.06188888
164	0xbe740d1e	-0.23833129
165	0xbe70e346	-0.23524198
166	0x3d8d375b	0.06895324
167	0xbc5936b7	-0.013257674
168	0xbe8fefdf	-0.28112695
169	0x3ea271f3	0.3172756
170	0x3dc80340	0.09766245
171	0x3e027023	0.1273809
172	0x3d9d97a4	0.07694939
173	0x3e8a78ae	0.27045196
174	0x3d07a6b3	0.03311796
175	0xbabdcdf4	-0.0014480934
176	0xbd04994f	-0.03237277
177	0x3d933f3a	0.07189794
178	0xbd198a5c	-0.037485465
179	0xbe8d5580	-0.27604294
180	0x3dd85e1f	0.10564827
181	0xbd2152b9	-0.03938553
182	0x3df4e017	0.11956804
183	0xbe3ff242	-0.18744758
184	0x3b947e31	0.0045316448
185	0xbe9e8825	-0.30963245
186	0xbe84b093	-0.25915965
187	0x3e8f978f	0.28045318
188	0x3bd1db8c	0.006404346
189	0x3dd526a4	0.10407761
190	0xbe0d8e40	-0.13823795
191	0xbdf6c6a9	-0.1204961
192	0x3e93c3d7	0.2886035
193	0xbdf927fc	-0.121658295
194	0xbe8d7598	-0.2762878
195	0xbdc58332	-0.09644164
196	0x3e24a016	0.16076693
197	0xbe323b50	-0.17405438
198	0xbecb0e36	-0.3965928
199	0xbe13952c	-0.14412373
200	0x3e2a5801	0.16635133
201	0xbe0e5672	-0.13900164
202	0x3c93d127	0.018044068
203	0x3e3586a5	0.17727144
204	0x3e9aee23	0.3025981
205	0xbdd48376	-0.10376637
206	0xbbd70c4d	-0.0065627457
207	0x3d9276f2	0.07151593
208	0xbe7857fe	-0.24252316
209	0xbd10ed91	-0.03538281
210	0xbd6ca9cd	-0.057779122
211	0x3e41e2b1	0.18934132
212	0xbe4edef0	-0.20202231
213	0x3d6f85b0	0.058477104
214	0xbd23e1d8	-0.040010303
215	0xbbc2b34a	-0.005941783
216	0xbd24d50a	-0.040242232
217	0x3e42aecb	0.1901199
218	0x3e817b11	0.25289205
219	0x3e1e9c8f	0.1548941
220	0x3d61f725	0.055167336
221	0x3ed4e5ea	0.4158166
222	0xbdd15482	-0.10221197
223	0x3d8560fa	0.065126374
224	0xbe538cfc	-0.2065925
225	0xbe8f6c25	-0.28012195
226	0xbe1bd37b	-0.15217392
227	0x3d14fe5b	0.036375385
228	0x3d0c7490	0.03429085
229	0xbe51c022	-0.20483449
230	0x3d7a000a	0.061035194
231	0xbd2bc152	-0.04193241
232	0x3c7cce78	0.015430085
233	0xbeaa19ef	-0.3322291
234	0x3e09595d	0.13412996
235	0x3e63c7b5	0.22244151
236	0xbdfc462c	-0.12318072
237	0xbe5da2c6	-0.21644124
238	0xbd0d5888	-0.034508258
239	0x3c8d6b83	0.01726318
240	0xbe2961e0	-0.16541243
241	0x3d888051	0.066650994
242	0xbe638edd	-0.22222467
243	0xbb6c3e84	-0.0036048004
244	0xbce7ff03	-0.028319841
245	0x3e725e0c	0.23668689
246	0x3e385cc0	0.18004131
247	0x3e6984d6	0.22804579
248	0x3dc80585	0.09766678
249	0x3ea355af	0.3190131
250	0xbe0123eb	-0.12611358
251	0x3c97b779	0.018520104
252	0x3d15624f	0.036470708
253	0xbe065522	-0.13118413
254	0xbef91428	-0.4864819
255	0x3e63bc7b	0.22239868

bias f4 [32]
0	0xbe4a096a	-0.19730154
1	0xbc8b6117	-0.01701407
2	0x3dec4eb1	0.11538447
3	0x3da0de9f	0.078549616
4	0xbca625bf	-0.02028167
5	0x3e17820f	0.14795707
6	0xbda02389	-0.07819278
7	0x3e6e1248	0.23249161
8	0xbe5bb0de	-0.21454188
9	0x3dc7d54f	0.09757482
10	0xbd5efeaf	-0.054442104
11	0xbe3b84c3	-0.18312363
12	0xbe94d764	-0.2907058
13	0xbc68569d	-0.014180806
14	0x3e3cd298	0.1843971
15	0x3d8e0c8a	0.069359854
16	0xbe712fba	-0.23553362
17	0x3e955e55	0.29173532
18	0x3dcfb225	0.101414
19	0xbd15a7e2	-0.03653706
20	0xbe730418	-0.2373203
21	0x3d999127	0.07498389
22	0x3d7372f8	0.059435815
23	0x3e7246bc	0.23659796
24	0xbe815afc	-0.25264728
25	0xbe61f207	-0.22064982
26	0x3d7ac80c	0.061225936
27	0x3ea6a468	0.32547307
28	0x3dbd65a7	0.09247904
29	0x3dfae791	0.12251199
30	0xbe4ed311	-0.20197703
31	0xbdbe43e7	-0.09290295

weight f4 [11, 32]
0	0x3e1045b6	0.14089093
1	0xbbb44a25	-0.005502003
2	0x3e01c2bb	0.1267194
3	0xbe8dde0e	-0.27708477
4	0x3e04ed66	0.12981185
5	0xbddf85de	-0.10914205
6	0xbe048bb7	-0.12943922
7	0x3dea2dad	0.11434493
8	0x3e1133c1	0.14179899
9	0xbd208cbf	-0.039196726
10	0xbdafb0b0	-0.08578622
11	0x3db1e99d	0.08687136
12	0xbd311dec	-0.043241426
13	0x3e8279e1	0.2548361
14	0x3dc15570	0.09440124
15	0x3d4922dc	0.04910551
16	0xbe2856c9	-0.16439356
17	0xbe44cc1a	-0.19218484
18	0x3e3f70fe	0.18695447
19	0x3d8e5a11	0.069507726
20	0xbe72af32	-0.23699644
21	0xbd0a7d22	-0.033810742
22	0xbce8b5d4	-0.028407015
23	0x3d528563	0.05139674
24	0xbc59bae6	-0.013289189
25	0x3e1f85d0	0.15578389
26	0xbd064200	-0.032777786
27	0xbe46afca	-0.19402996
28	0x3e28de1b	0.16490977
29	0x3da21b9e	0.07915424
30	0x3d07b512	0.033131666
31	0xbd71db3d	-0.059046973
32	0xbd3b9b80	-0.045802593
33	0x3ca0b56a	0.019617755
34	0xbda8aa99	-0.08235664
35	0x3d510412	0.051029272
36	0x3b750e32	0.0037392494
37	0x3ddd8233	0.10815849
38	0xbe2e14cf	-0.17000125
39	0xbe007e17	-0.125481
40	0xbdd7cc29	-0.10536987
41	0x3d082a19	0.033243272
42	0xbdafd96b	-0.08586391
43	0x3db5dd08	0.08880049
44	0xbe485cb7	-0.19566618
45	0xbe2f59b1	-0.17124058
46	0x3da28802	0.07936098
47	0xbe8061e2	-0.2507468
48	0xbe170613	-0.14748411
49	0xbda093c7	-0.07840686
50	0xbe40be19	-0.18822517
51	0x3d7ffe62	0.062498458
52	0xbe233c11	-0.15940882
53	0xbd9e4e75	-0.07729808
54	0xbd2aefbd	-0.04173254
55	0x3d157c41	0.03649545
56	0xbd985d07	-0.074396186
57	0xbd33af3f	-0.0438683
58	0xbdba3167	-0.09091454
59	0xbe59cfa9	-0.21270622
60	0x3c95fef9	0.018310057
61	0xbd78f2c5	-0.060778398
62	0xbdd4bdca	-0.10387762
63	0xbdfd4622	-0.123668924
64	0xbd14a918	-0.036294073
65	0x3db5bf02	0.088743225
66	0xbddc1f89	-0.10748202
67	0xbdb3edc8	-0.087855875
68	0xbd14bdbf	-0.03631377
69	0xbcc7fb35	-0.024411777
70	0xbdb7a4da	-0.0896699
71	0xbe2c6456	-0.1683515
72	0xbd9cb5db	-0.07651874
73	0xbd5ee469	-0.054417048
74	0x3b913ff6	0.0044326736
75	0xbd9dc5d4	-0.07703748
76	0xbd6345c3	-0.05548645
77	0x3c59d919	0.013296389
78	0xbdc9c889	-0.09852702
79	0xbe20a384	-0.15687376
80	0xbe13964d	-0.14412804
81	0xbe5a0076	-0.21289238
82	0xbebcd4e1	-0.36881164
83	0xbe1679cc	-0.146949
84	0x3e73de35	0.23815234
85	0x3dae436b	0.08508953
86	0xbe4cc719	-0.19997825
87	0xbd7a76c1	-0.06114841
88	0xbdcb225c	-0.09918663
89	0x3e23f92b	0.16013019
90	0x3d852581	0.06501294
91	0xbe093699	-0.13399734
92	0x3d3c0f0f	0.0459128
93	0xbe3eb9d1	-0.18625571
94	0xbd4e1aa5	-0.05031838
95	0xbdea2c16	-0.1143419
96	0x3e5c67ed	0.2152402
97	0x3da90cb9	0.0825438
98	0x3c288a45	0.010286872
99	0x3e4a40de	0.19751307
100	0x3c2c2199	0.010506057
101	0x3d9865ec	0.07441315
102	0xbd3d979c	-0.046287164
103	0x3d8e9fed	0.06964097
104	0x3d741e27	0.059599068
105	0xbe147563	-0.14497904
106	0xbc364e78	-0.011127107
107	0x3b065d3f	0.0020502356
108	0x3d8323c8	0.06403309
109	0xbdacefcc	-0.08444175
110	0x3e0c7372	0.13715914
111	0xbcf9defd	-0.030501837
112	0xbc5a3e59	-0.013320529
113	0xbcdc2351	-0.026872309
114	0xbe5cbffc	-0.21557611
115	0x3d7e4853	0.062080692
116	0xbdb74b0a	-0.089498594
117	0x3e0ecd08	0.139454
118	0xbcede726	-0.029040884
119	0x3de1aa0a	0.110187605
120	0x3dea4ea4	0.11440781
121	0xbdae8628	-0.08521682
122	0x3c2577c4	0.010099355
123	0x3e244092	0.16040257
124	0x3d2b63f5	0.041843373
125	0xbe2152df	-0.15754269
126	0xbd72b3bf	-0.05925345
127	0xbdcfd410	-0.101478696
128	0xbd9a1cc0	-0.07525015
129	0xbd7a4ba6	-0.0611073
130	0xbdc186d3	-0.09449544
131	0xbd85be8d	-0.06530485
132	0xbc91c016	-0.017791789
133	0xbd1698c1	-0.03676677
134	0x3e0be5cb	0.13661878
135	0xbd9f9b39	-0.07793278
136	0x3e22831d	0.15870328
137	0xbdcc989f	-0.09990048
138	0x3df3e7c6	0.11909442
139	0x3d4e02b5	0.05029555
140	0x3d877a29	0.06615097
141	0x3c9dcd6c	0.019262992
142	0xbd10c8e6	-0.03534784
143	0xbc537aef	-0.012907728
144	0xbe3d9073	-0.18512134
145	0x3ea0dbbd	0.31417647
146	0x3d219fc5	0.03945901
147	0x3c032328	0.008003987
148	0xbba754c4	-0.0051065404
149	0xbdf5afa9	-0.11996395
150	0x3d920556	0.07129924
151	0x3e4d6e85	0.20061691
152	0xbca6e549	-0.020373004
153	0xbd2aef45	-0.04173209
154	0xbd9dbeeb	-0.0770243
155	0x3d928c4e	0.07155667
156	0x3e125555	0.14290364
157	0x3d911e68	0.07085878
158	0x3d04908c	0.032364413
159	0x3e553f42	0.20824912
160	0x3d35e46f	0.044407304
161	0x3b678f09	0.0035333058
162	0xbe21aa4e	-0.15787622
163	0xbda4adb4	-0.08040944
164	0x3e184346	0.14869413
165	0xbcc8f42e	-0.024530496
166	0x3e12820a	0.14307418
167	0xbdc23dbc	-0.09484431
168	0xbd182adc	-0.03715025
169	0x3e39b234	0.18134385
170	0xbd87e1e5	-0.06634883
171	0xbd91ff2c	-0.07128748
172	0xbe098f48	-0.13433564
173	0xbd3b55af	-0.04573601
174	0xbd9c07ff	-0.07618713
175	0x3e4ffbfd	0.2031097
176	0x3d8709e6	0.06593685
177	0x3dc02af7	0.09383195
178	0x3de0d928	0.10978919
179	0xbc96deed	-0.018416846
180	0x3df3fb0c	0.11913118
181	0xbe22ba63	-0.15891413
182	0x3e5c6472	0.21522692
183	0x3be8b4cf	0.007101632
184	0x3e345793	0.17611532
185	0x3d486116	0.048920713
186	0x3e202e78	0.15642726
187	0xbdd5c4bc	-0.10437915
188	0xbdbe02cb	-0.092778765
189	0x3e314bf0	0.17314124
190	0x3dbdfe97	0.09277075
191	0x3e1ee38f	0.15516494
192	0xbb9c63ea	-0.004772653
193	0x3d31be32	0.043394275
194	0xbd27cef2	-0.040968843
195	0xbc351906	-0.011053329
196	0x3e5c539d	0.21516271
197	0xbd2bbd29	-0.041928444
198	0xbd8c24c2	-0.068429485
199	0xbcfa3bd3	-0.030546105
200	0x3c396dff	0.011317729
201	0x3e81d9fe	0.25361627
202	0xbd9c67e3	-0.07637002
203	0xbe2530b2	-0.16131857
204	0xbce76b82	-0.028249506
205	0xbe138729	-0.14407028
206	0x3e421e1b	0.18956797
207	0xbde1af60	-0.11019778
208	0x3b0cc602	0.0021480327
209	0x3c873bf0	0.016508073
210	0xbe32bfe5	-0.17456014
211	0x3c14a59f	0.00907269
212	0x3e2875bb	0.1645116
213	0xbc1dca9c	-0.009630825
214	0xbd914e7c	-0.07095048
215	0x3da976d2	0.08274616
216	0x3e324d6c	0.17412347
217	0xbe53bfc2	-0.20678619
218	0x3d4f5509	0.050618205
219	0x3e1de572	0.15419558
220	0xbd8e9cde	-0.06963514
221	0xbc4511c0	-0.012028158
222	0x3d1858f5	0.03719421
223	0x3ca56e79	0.020194279
224	0x3da3df5d	0.080015875
225	0xbc4c504c	-0.012470316
226	0xbd554138	-0.05206415
227	0xbc902f0b	-0.017600557
228	0xbd4796ea	-0.048727907
229	0xbbae6d93	-0.005323121
230	0xbd55ade3	-0.052167784
231	0xbe38c4e2	-0.18043855
232	0xbd0ba10d	-0.034089137
233	0xbe16dca0	-0.147326
234	0xbd5a2e95	-0.05326708
235	0x3e1bf5c7	0.15230475
236	0xbe26ca8e	-0.16288206
237	0xbe5ec60c	-0.21755236
238	0xbd8301f3	-0.06396856
239	0xbe12c310	-0.14332223
240	0xbc6d0510	-0.014466539
241	0x3db8056f	0.089854114
242	0xbd8c9e3b	-0.068661176
243	0xbd8c7d2b	-0.068598114
244	0x3d98d04d	0.07461605
245	0xbe1b1d33	-0.15147857
246	0xbe07d7ae	-0.13265869
247	0xbc1430b9	-0.0090448195
248	0xbcc9be96	-0.024627011
249	0xbb14eb75	-0.002272335
250	0xbde01065	-0.10940627
251	0x3c2c6978	0.010523193
252	0x3c0acb17	0.008471272
253	0x3e0314aa	0.12800851
254	0xbd7bcc68	-0.061474234
255	0xbcf515ce	-0.029917624

bias f4 [11]
0	0x3c3ad656	0.011403641
1	0x3d632975	0.05545946
2	0x3d75a69a	0.059973337
3	0xbd818306	-0.06323819
4	0xbc505db4	-0.012717653
5	0x3dafea97	0.08589666
6	0xbc92c099	-0.017914103
7	0x3db668c3	0.089067005
8	0x3d309e6e	0.04311984
9	0x3d606576	0.05478426
10	0xbe891900	-0.26776886

weight f4 [11]
0	0x3f8f973a	1.1218026
1	0x3f4ceb9a	0.80047
2	0x3f4a695e	0.7906703
3	0x3f8b74d1	1.0895025
4	0x3f8cc299	1.0996886
5	0x3f6d3b31	0.92668444
6	0x3f62faf6	0.88664186
7	0x3f57f81a	0.8436295
8	0x3f84af36	1.036597
9	0x3f97e7ef	1.1867656
10	0x3f1164cb	0.5679442

bias f4 [11]
0	0xbe565f44	-0.20934778
1	0x3e85bfaf	0.26122805
2	0x3e741921	0.23837711
3	0xbe25c196	-0.16187128
4	0xbe84ca1e	-0.25935453
5	0x3e24a8f0	0.1608007
6	0x3e9284a9	0.28616837
7	0x3e1a3bd2	0.15061882
8	0xbe30dff1	-0.17272927
9	0xbe77be05	-0.2419358
10	0xbed12bc9	-0.40853718

weight f4 [11]
0	0x3f833edd	1.0253559
1	0x3f927379	1.144149
2	0x3f84835f	1.0352591
3	0x3f6c5fb0	0.9233351
4	0x3f7cf8df	0.9881725
5	0x3f8387a4	1.0275769
6	0x3f840c63	1.031628
7	0x3f805c4a	1.0028164
8	0x3f7cb26c	0.9870975
9	0x3f8652b8	1.0493994
10	0x3f1a41b4	0.60256505

bias f4 [11]
0	0xbe3ab884	-0.1823445
1	0x3e4bc709	0.19900145
2	0x3e1e880d	0.15481587
3	0xbe0f57ad	-0.1399829
4	0xbe4e1c34	-0.20127946
5	0x3e3dafb7	0.18524061
6	0x3e83526a	0.25648814
7	0x3e1b0bd7	0.15141235
8	0xbe0669fe	-0.1312637
9	0xbe5a5311	-0.2132075
10	0xbebbc942	-0.36676985

in_proj_weight f4 [33, 11]
0	0xbd42954b	-0.047505658
1	0xbeb9199f	-0.3615236
2	0xbe1167a8	-0.14199698
3	0x3e9d285f	0.30694863
4	0x3d7be428	0.061496884
5	0xbeadb2d1	-0.3392549
6	0xbe95746d	-0.29190388
7	0x3e34bd4e	0.17650339
8	0x3e163660	0.1466918
9	0x3e47da68	0.19516909
10	0x3e8f8ae4	0.28035653
11	0x3e218f42	0.15777305
12	0x3c708547	0.014680213
13	0x3ed35aa1	0.41280082
14	0x3e767f6f	0.2407205
15	0xbe63f0cf	-0.2225983
16	0xbcfbd72b	-0.030742249
17	0xbd926388	-0.0714789
18	0x3a0f60a2	0.00054694165
19	0x3e1e66bc	0.15468878
20	0x3e896c8e	0.26840633
21	0x3ebaa0e1	0.36450866
22	0x3e45b565	0.19307478
23	0x3d4d3827	0.05010238
24	0xbe0bdb67	-0.13657914
25	0xbe20aa0b	-0.15689866
26	0xbdf3d4b8	-0.11905807
27	0xbd87a7cb	-0.06623801
28	0x3e33109c	0.17486805
29	0xbeb20f66	-0.34777373
30	0x3e9635c2	0.2933789
31	0x3b8097ae	0.0039243316
32	0xbe3df41a	-0.18550149
33	0xbd7a3a43	-0.06109072
34	0x3e820f8f	0.25402495
35	0xbe68f22c	-0.22748631
36	0x3d261c8a	0.04055456
37	0xbeb32af4	-0.34993708
38	0x3ec8844f	0.39163443
39	0xbe646f33	-0.22308044
40	0xbd477192	-0.048692293
41	0x3ec6f9a2	0.3886233
42	0x3e9e791f	0.30951783
43	0xbdbad369	-0.091223545
44	0xbe4620a6	-0.19348392
45	0x3d97db17	0.07414835
46	0xbec52dfd	-0.3851165
47	0x3ec8da45	0.39229026
48	0xbe46ccfa	-0.1941413
49	0xbd1cc6ca	-0.038275518
50	0xbe28c32e	-0.16480705
51	0x3c9c5533	0.019083595
52	0xbe201640	-0.15633488
53	0x3eb63f58	0.35595202
54	0xbecbd37d	-0.3980979
55	0xbdeb91c8	-0.11502415
56	0xbde60d18	-0.11232966
57	0xbedae88a	-0.42755538
58	0xbe8d029e	-0.2754106
59	0x3ee159bc	0.44013774
60	0x3d9cbb3e	0.07652901
61	0xbd36efe5	-0.044662375
62	0x3dd4cf3f	0.103910916
63	0x3e308ad9	0.17240466
64	0xbe78305f	-0.24237202
65	0x3e56e517	0.20985828
66	0xbd91acdf	-0.07113051
67	0xbeb442cb	-0.3520721
68	0x3ea42acb	0.32063898
69	0xbe402310	-0.18763375
70	0xb9ee6963	-0.00045473417
71	0xbe8e470f	-0.27788588
72	0xbc12a5d2	-0.008950667
73	0x3dc9fa5d	0.09862206
74	0x3d807bf6	0.06273644
75	0xbeb11891	-0.34589055
76	0xbc8b939b	-0.017038157
77	0x3db9db52	0.09075035
78	0xbe7c89a4	-0.2466188
79	0x3e5ca52b	0.21547382
80	0xbd7d82c3	-0.061892282
81	0xbe8e01e3	-0.27735814
82	0x3eb36fc9	0.35046223
83	0x3ead3263	0.33827505
84	0x3eaf267d	0.34209052
85	0xbead9b89	-0.33907726
86	0x3e352005	0.17687996
87	0xbe8261c9	-0.2546523
88	0x3c36ca99	0.0111567015
89	0x3e0fbdd5	0.14037259
90	0x3d81f25a	0.06345053
91	0xbe7f5afa	-0.24937049
92	0x3ed6fca2	0.4198962
93	0xbe78cbf5	-0.24296553
94	0x3e10f6fa	0.14156714
95	0x3bb523e2	0.005527959
96	0xbe17244a	-0.14759937
97	0x3e468521	0.19386722
98	0xbe7441d2	-0.23853233
99	0xbeaa5310	-0.33266497
100	0xbe13f710	-0.14449716
101	0xbdf66360	-0.12030673
102	0xbdc0c6ea	-0.0941294
103	0xbe91e8df	-0.2849798
104	0x3e5df7cd	0.2167656
105	0x3d973d96	0.073847935
106	0xbc1b3b1e	-0.009474544
107	0x3e8fab3f	0.28060338
108	0xbe4ba19a	-0.19885865
109	0x3e1bfe28	0.15233672
110	0xbcf78fd8	-0.030219957
111	0x3e523647	0.20528518
112	0x3c99517d	0.018715614
113	0xbe8d1c85	-0.2756082
114	0xbea26b0a	-0.3172229
115	0xbdefde57	-0.1171233
116	0x3d385664	0.045004264
117	0x3e867d5d	0.2626752
118	0xbe239b87	-0.15977298
119	0xbdf96026	-0.12176542
120	0x3e45faca	0.1933395
121	0x3ed3c27f	0.41359326
122	0xbddbd0a3	-0.10733154
123	0xbe52f087	-0.20599566
124	0x3e526464	0.20546108
125	0xbe5a9036	-0.21344075
126	0xbe88e003	-0.26733407
127	0x3d425b0a	0.047450103
128	0xbe471b65	-0.19444044
129	0x3e97cb34	0.2964722
130	0x3e4bf189	0.19916357
131	0x3dbc1fb5	0.09185735
132	0x3eb6a816	0.35675114
133	0x3ed199b0	0.40937567
134	0xbcc49a37	-0.023999317
135	0x3da6ccf4	0.081445605
136	0xbe0a6457	-0.13514839
137	0xbe2ec10f	-0.17065834
138	0xbdbf7fcb	-0.093505464
139	0xbc215a88	-0.0098482445
140	0xbe52dc13	-0.20591764
141	0x3c82a256	0.015946548
142	0x3e0bb847	0.13644515
143	0x3d0f61bc	0.035005316
144	0xbe632b1a	-0.2218441
145	0x3ddf360d	0.10898981
146	0xbdcf91e5	-0.10135249
147	0x3e5275a2	0.20552686
148	0x3e048d68	0.12944567
149	0x3e36a185	0.17835052
150	0xbe8a82a4	-0.27052796
151	0xbd6926b6	-0.056921683
152	0x3dc7923f	0.09744691
153	0xbe4e7f3b	-0.20165722
154	0xbe92c356	-0.28664654
155	0xbe0331ac	-0.12811917
156	0x3e9a0e3d	0.30088988
157	0xbe0c2b6d	-0.1368844
158	0x3d9b77bc	0.07591197
159	0x3ef73abb	0.48286995
160	0x3caba9ae	0.020954933
161	0xbec29c1e	-0.38009733
162	0xbc8b5615	-0.01700882
163	0x3db521f3	0.08844366
164	0xbef449c6	-0.47712535
165	0x3efb4d1e	0.49082273
166	0x3d8456fd	0.06461904
167	0x3ea086a6	0.3135273
168	0xbd46fb11	-0.04857928
169	0x3c8d58e4	0.0172543
170	0xbe4703e5	-0.1943508
171	0xbdc1af25	-0.09457234
172	0xbea3143c	-0.31851375
173	0x3e9b3531	0.3031402
174	0xbde2928a	-0.11063106
175	0xbe9b5ccf	-0.30344245
176	0x3e7b26d9	0.24526538
177	0xbecab13b	-0.3958834
178	0xbe5fc500	-0.21852493
179	0x3de3cd2a	0.11123116
180	0x3eb9a8e4	0.36261666
181	0x3e90b21b	0.28260884
182	0x3d3ff025	0.04685988
183	0x3e8bd71c	0.27312553
184	0x3d9bbf93	0.07604899
185	0xbdc2c5ca	-0.095103815
186	0xbe50790e	-0.20358679
187	0x3e8d928b	0.27650866
188	0x3d840c6a	0.0644768
189	0x3e33c32c	0.17554921
190	0x3ea01d1c	0.3127221
191	0x3e46e7d0	0.19424367
192	0xbe5deaa7	-0.21671544
193	0xbe798251	-0.24366118
194	0xbe0e4692	-0.13894108
195	0x3dee66e8	0.116407216
196	0xbe614977	-0.22000681
197	0xbd84acb1	-0.06478251
198	0x3dca35b2	0.09873523
199	0x3c178b3c	0.009249505
200	0x3e70d62d	0.23519202
201	0x3d0616cd	0.03273659
202	0xbeb8fb7d	-0.3612937
203	0x3e60d970	0.21957946
204	0x3d7410e7	0.05958643
205	0x3e473942	0.19455436
206	0xbc995dd7	-0.018721504
207	0xbdf1ffe1	-0.11816383
208	0xbef7c8b9	-0.48395327
209	0xbe6e4e37	-0.23272024
210	0xbecb05e0	-0.3965292
211	0xbece5de9	-0.40306023
212	0xbe442c43	-0.1915751
213	0x3e5dc066	0.21655425
214	0xbecc12c5	-0.3985807
215	0x3e0901c0	0.13379574
216	0xbe831333	-0.25600585
217	0x3e58120c	0.21100634
218	0x3d632552	0.055455513
219	0x3e2fccd2	0.17167976
220	0xbed41d9d	-0.41428843
221	0xbebdee3e	-0.37095827
222	0x3eab927d	0.335102
223	0xbeb2bf06	-0.34911364
224	0xbe99fb6a	-0.30074626
225	0x3e6e9b4c	0.23301429
226	0x3ea78932	0.3272186
227	0x3eb50e97	0.35362694
228	0x3e5202a4	0.2050882
229	0x3d774a68	0.060373694
230	0x3d0e42c6	0.03473165
231	0xbe390977	-0.18070017
232	0x3e949090	0.29016542
233	0xbe4d963c	-0.20076841
234	0xbdb2f3de	-0.0873792
235	0x3e409302	0.18806079
236	0xbeb703a4	-0.35744965
237	0xbe11c550	-0.14235425
238	0xbbc8eeea	-0.0061319964
239	0xbeb57a2e	-0.35444778
240	0x3e49f799	0.19723357
241	0x3bc8e350	0.0061306134
242	0x3ea588ed	0.3233103
243	0xbeab24eb	-0.33426604
244	0x3e44fdce	0.19237444
245	0x3e4e975f	0.20174931
246	0xbe0d61e9	-0.13806881
247	0xbe909a38	-0.2824266
248	0xbe197ecd	-0.14989777
249	0xbe1fb47e	-0.15596196
250	0x3e6ff76a	0.23434225
251	0xbd5add21	-0.05343354
252	0x3e95094e	0.2910866
253	0xbccbf5f7	-0.024897559
254	0xbe31d7a9	-0.17367424
255	0x3eb2f3ae	0.34951538

in_proj_bias f4 [33]
0	0x3a37778d	0.00069987105
1	0x3cc581e3	0.024109786
2	0xbc249abc	-0.010046657
3	0x3bf135e6	0.0073611615
4	0xbdda3bc9	-0.10655934
5	0xbd9d0f83	-0.07668974
6	0xbdbea966	-0.09309654
7	0x3a723f23	0.00092409755
8	0xbb84088b	-0.0040293387
9	0x3d41cde5	0.047315497
10	0x3d6fb118	0.0585185
11	0x3bf801bb	0.0075685657
12	0x3a3eba8b	0.0007275722
13	0x3bb4e9b3	0.005521023
14	0x3bcd11c1	0.00625822
15	0x3ba81c65	0.005130338
16	0xbaeeb8bd	-0.0018213015
17	0xbbdabe05	-0.006675484
18	0xbb9a9d6a	-0.0047184722
19	0x3b5a42cd	0.0033303977
20	0xbba702c2	-0.0050967643
21	0xbb8aaf9d	-0.0042323605
22	0xbc83a67e	-0.0160706
23	0xbc96c487	-0.018404258
24	0xbc439eac	-0.011939686
25	0x3d003b6b	0.031306665
26	0xbcae49e1	-0.021275463
27	0xbd18cfb5	-0.03730746
28	0x3d3d81ce	0.04626637
29	0xbc7fbcb2	-0.015608953
30	0xba4b2829	-0.000774982
31	0xbb92193a	-0.0044585736
32	0x3d376141	0.044770483

weight f4 [11, 11]
0	0xbeac31de	-0.33631796
1	0xbe46530b	-0.19367616
2	0xbe48eaf3	-0.19620876
3	0x3e9598de	0.2921819
4	0x3dd84df3	0.10561743
5	0x3e473207	0.19452678
6	0xbe1080f3	-0.1411169
7	0xbe8a82a3	-0.27052793
8	0x3dd22acc	0.10262069
9	0x3e736b6b	0.23771445
10	0xbdec2a56	-0.115315124
11	0x3e754621	0.23952533
12	0xbe640197	-0.22266231
13	0x3d983e1b	0.07433721
14	0xbddecf23	-0.10879352
15	0x3e7df6df	0.24801205
16	0xbc05dd60	-0.008170456
17	0x3dc69070	0.09695518
18	0xbe5dce26	-0.2166067
19	0x3d876ac8	0.06612164
20	0xbdccc51a	-0.09998532
21	0xbdc41134	-0.09573594
22	0x3e926518	0.28592753
23	0xbca89e60	-0.020583332
24	0xbd98447a	-0.07434936
25	0x3e420433	0.18946914
26	0x3d80be55	0.06286303
27	0x3be50993	0.0069896667
28	0xbe58c80e	-0.21170065
29	0x3da08bb4	0.07839146
30	0xbce29bde	-0.027662214
31	0x3e6bfc3a	0.23045436
32	0xbdc8b7b1	-0.09800661
33	0xbd587aee	-0.05285161
34	0xbe3c4658	-0.18386209
35	0xbd23d5f5	-0.039998967
36	0xbc3bb513	-0.011456746
37	0xbe4c3217	-0.19940983
38	0x3e3efdc4	0.18651491
39	0x3da33d7e	0.07970713
40	0xbe1bffc4	-0.15234286
41	0x3cc23bb1	0.023710104
42	0xbdf739bb	-0.12071558
43	0xbe7b04fe	-0.24513623
44	0xbe7cf096	-0.24701151
45	0xbd6b2fad	-0.057418514
46	0xbeb1889e	-0.34674543
47	0xbe31a944	-0.17349726
48	0xbdea275a	-0.11433287
49	0x3eb5496b	0.35407576
50	0x3dfb3f28	0.122679055
51	0xbd3632e4	-0.044482127
52	0xbda7bc45	-0.081902064
53	0xbe0f13df	-0.13972424
54	0x3e9be15f	0.30445382
55	0xbe2e813b	-0.17041485
56	0xbd9886ac	-0.074475616
57	0x3dcb2fff	0.09921264
58	0x3e2d48fb	0.16922371
59	0x3dc323c0	0.09528303
60	0x3c973619	0.018458413
61	0x3dfac298	0.12244147
62	0xbe63933e	-0.22224137
63	0xbe16f152	-0.14740494
64	0x3e28f2a7	0.16498815
65	0xbd67af54	-0.05656369
66	0x3ce9a037	0.02851878
67	0x3e52545b	0.20539992
68	0x3cb37eb3	0.021911
69	0x3ca8324d	0.020531798
70	0x3e56a601	0.20961763
71	0xbe696425	-0.22792108
72	0x3ea799af	0.3273444
73	0x3d0fd684	0.035116687
74	0xbc9a2578	-0.018816695
75	0x3cb7adb1	0.02242169
76	0xbe5d4e11	-0.21611811
77	0xbe327ff9	-0.1743163
78	0xbe643453	-0.22285585
79	0xbe40142d	-0.18757696
80	0xbe8dd732	-0.27703243
81	0xbe28fef5	-0.16503508
82	0x3e20d8c6	0.15707693
83	0x3b86b6b6	0.0041111363
84	0x3e2b0799	0.16702117
85	0x3e8d7f36	0.27636117
86	0xbdd4d70f	-0.10392582
87	0xbcd576fd	-0.026057715
88	0xbd3f87f3	-0.04676051
89	0xbe399f9e	-0.18127295
90	0xbed3d522	-0.41373545
91	0x3e8c236c	0.27370775
92	0x3d5c2ae7	0.053751852
93	0xbe1ccc23	-0.15312247
94	0x3da187cb	0.078872286
95	0x3d39a704	0.045325294
96	0x3e233383	0.15937619
97	0x3dbb8655	0.09156481
98	0xbdf6d80e	-0.12052928
99	0x3e2a7a03	0.16648106
100	0xbc9e13c3	-0.019296532
101	0x3d4875f6	0.04894062
102	0xbdd90ab3	-0.10597744
103	0xbe258977	-0.1616572
104	0xbe8b9ce8	-0.27268147
105	0xbe8b236f	-0.2717547
106	0x3e80c18a	0.2514766
107	0x3db8c667	0.09022217
108	0xbe5ba22f	-0.21448587
109	0x3e424a29	0.18973602
110	0x3e294e85	0.16533859
111	0xbdb33685	-0.08750633
112	0xbd9fcd7f	-0.07802867
113	0x3e605599	0.21907653
114	0x3e5149fd	0.2043838
115	0xbe1fb429	-0.1559607
116	0x3dd0c314	0.10193458
117	0x3c60bf15	0.0137174325
118	0x3e6609fc	0.22464746
119	0xbc379c8b	-0.011206756
120	0x3e079497	0.13240276

bias f4 [11]
0	0xbb479ab0	-0.0030457191
1	0x3c26b4b6	0.010174921
2	0xbd1786b5	-0.0369937
3	0x3cebd069	0.028785901
4	0x3ce81d60	0.02833432
5	0x3d075f43	0.033049833
6	0xbcd9de05	-0.026595125
7	0xbcd54e1d	-0.026038224
8	0x3da3fe72	0.08007516
9	0x3ce4739c	0.027887158
10	0xbd0e8dc8	-0.034803182

weight f4 [32, 11]
0	0xbdd0b648	-0.101910174
1	0x3d8a81c8	0.06763035
2	0xbcb45c18	-0.02201657
3	0xbea6b7c5	-0.3256208
4	0x3e22c8bb	0.15896885
5	0x3d466716	0.048438154
6	0x3d8e03b1	0.06934298
7	0xbea5fede	-0.3242101
8	0xbe44a16f	-0.19202207
9	0x3d47939e	0.048724763
10	0x3dfa5b5c	0.12224457
11	0xbe4651b5	-0.19367106
12	0x3e86771e	0.26262754
13	0xbeafe573	-0.34354743
14	0xbd8dbe18	-0.06921023
15	0xbc7001d3	-0.014648872
16	0xbdd2136a	-0.10257609
17	0xbdcda201	-0.100406654
18	0xbd9df4eb	-0.0771273
19	0x3e4bc6f7	0.19900118
20	0xbdd44784	-0.10365203
21	0x3e69f63a	0.22847834
22	0xbe9c21df	-0.30494592
23	0xbe025a30	-0.12729716
24	0x3e59cdad	0.21269865
25	0x3e8128e6	0.25226516
26	0x3e82b460	0.2552824
27	0xbe3b6b4e	-0.18302652
28	0xbe6c426f	-0.23072217
29	0x3e89fb7f	0.2694969
30	0xbdb96dac	-0.090541214
31	0xbd815f90	-0.06317055
32	0x3dcd0039	0.10009808
33	0x3eb3f3a5	0.35146824
34	0xbe21c085	-0.15796097
35	0x3e25113b	0.16119854
36	0xbe93e630	-0.28886557
37	0xbe37bb6d	-0.17942591
38	0xbd1d592e	-0.038415127
39	0xbe482e40	-0.19548893
40	0x3e2bf61f	0.16793106
41	0x3d3d65ba	0.046239592
42	0xbe8cbfb3	-0.27490005
43	0xbd9203a1	-0.071295984
44	0xbdf47dad	-0.11938033
45	0x3e901fda	0.281493
46	0x3dd51ae8	0.104055226
47	0x3e7f0f8c	0.24908274
48	0x3d9bff3f	0.07617044
49	0x3e918f87	0.28429815
50	0xbe91bb56	-0.28463238
51	0xbc217d64	-0.009856556
52	0xbe39555d	-0.1809897
53	0x3e3aea13	0.18253355
54	0x3bb53a9b	0.005530668
55	0x3e830e43	0.25596818
56	0xbebb3d84	-0.3657037
57	0xba43b74e	-0.0007465974
58	0xbcac207c	-0.021011584
59	0xbe13562c	-0.1438834
60	0xbead9d9f	-0.33909318
61	0x3e8b7dca	0.27244407
62	0x3e52505d	0.20538469
63	0x3e2c7757	0.168424
64	0xbe55df78	-0.20886028
65	0x3e7105a8	0.23537314
66	0x3d739494	0.059467867
67	0xbe0c7e2a	-0.13720003
68	0x3d595ddc	0.053068027
69	0xbe578aef	-0.21049093
70	0xbde2e52f	-0.110788696
71	0xbea45c11	-0.3210149
72	0x3e9244ea	0.28568202
73	0xbe037939	-0.12839212
74	0x3d6a80d5	0.05725177
75	0xb92c6a2b	-0.00016442749
76	0xbd9dfdb7	-0.07714408
77	0xbe18675b	-0.14883177
78	0x3d6afd2f	0.05737036
79	0x3e3d8dde	0.1851115
80	0xbe3bad4b	-0.18327825
81	0x3e5f2b0e	0.21793768
82	0xbc834101	-0.016022207
83	0xbdf4bfba	-0.119506314
84	0x3e3d4e5c	0.18486923
85	0x3e2eb0e7	0.1705967
86	0x3e42c6c7	0.1902114
87	0xbe7c322a	-0.24628511
88	0xbe299fb8	-0.16564834
89	0x3d9a22aa	0.07526143
90	0x3e210598	0.1572479
91	0xbd095a8c	-0.033533618
92	0x3d7b8297	0.061403837
93	0x3d0bac8e	0.034100108
94	0xbca2f9ad	-0.019894445
95	0x3d2a572b	0.041587036
96	0x3ef2c40b	0.47415194
97	0xbe53857e	-0.20656392
98	0x3d9d17cf	0.07670557
99	0xbd3fb8b3	-0.046807002
100	0xbd40d296	-0.04707583
101	0x3e96bea1	0.29442313
102	0xbddd6f4c	-0.10812244
103	0x3d23214d	0.03982668
104	0xbe306a08	-0.17227948
105	0xbdc0cd68	-0.09414178
106	0xbdb9fa48	-0.090809405
107	0xbd627bac	-0.055293724
108	0x3ea7fb31	0.3280883
109	0x3d2ebaeb	0.042658728
110	0xbde1592b	-0.110033356
111	0xbe8fcc5b	-0.28085598
112	0xbe4599bd	-0.19296928
113	0x3caa52c9	0.020791428
114	0xbe51f186	-0.2050229
115	0x3e034970	0.12820983
116	0x3e005704	0.12533194
117	0x3dac8d67	0.08425408
118	0x3d9fb29e	0.077977404
119	0x3cb0a1fc	0.021561615
120	0x3dc114b9	0.09427781
121	0x3df03831	0.11729468
122	0xbe6018d4	-0.21884471
123	0xbe83eb44	-0.2576543
124	0xbe616357	-0.22010551
125	0x3e783bb9	0.24241532
126	0xbe2a5394	-0.16633445
127	0xbe9a6013	-0.30151424
128	0x3e22f0a9	0.15912117
129	0xbe66cc5f	-0.22538899
130	0x3e23970b	0.15975587
131	0xbd9cb364	-0.076514035
132	0xbdf72e7b	-0.12069412
133	0x3dc1939f	0.094519846
134	0xbe8caa5b	-0.2747372
135	0xbdbb9e5d	-0.09161065
136	0xbe167e4c	-0.14696616
137	0x3e587444	0.21138102
138	0xbee49dd2	-0.44651657
139	0x3d64f41c	0.055896863
140	0xbe28113e	-0.16412827
141	0xbe6a18ff	-0.22861098
142	0xbaa50b5a	-0.0012591884
143	0xbeabc4e1	-0.33548644
144	0xbe167a73	-0.14695148
145	0xbe80ade4	-0.25132668
146	0xbde053ec	-0.10953507
147	0x3d7edd0f	0.062222537
148	0xbc19c6d9	-0.009385788
149	0x3e8d953f	0.27652928
150	0xbdfaa3ba	-0.122382596
151	0xbe21bab3	-0.15793876
152	0x3e33b9e8	0.17551386
153	0xbebaf126	-0.36512107
154	0xbe07ebbf	-0.13273524
155	0xbe198ff3	-0.14996319
156	0x3e3485ed	0.17629214
157	0xbe1254af	-0.14290117
158	0xbdc0b1ab	-0.094088875
159	0x3c9e1ce4	0.019300885
160	0xbe6270e7	-0.22113381
161	0xbda0998a	-0.07841785
162	0xbdbd7c58	-0.09252232
163	0x3dcda93d	0.10042045
164	0xbe3ee55a	-0.18642178
165	0xbe5ce454	-0.21571475
166	0x3d09dee8	0.033659846
167	0xbc54864b	-0.012971471
168	0xbe8fa654	-0.28056586
169	0x3ea4dd78	0.32200217
170	0xbcacf9a7	-0.021115137
171	0xbd0a6414	-0.03378685
172	0x3dc5bc5f	0.096550696
173	0x3e97d6f9	0.296562
174	0x3c5719d4	0.0131287165
175	0xbd9fcf61	-0.07803226
176	0x3ba9b87c	0.005179463
177	0x3dbfd28f	0.09366333
178	0xbd211f02	-0.039336212
179	0xbe895600	-0.26823425
180	0x3e520a64	0.20511776
181	0xbe16ff60	-0.14745855
182	0x3df387bc	0.11891124
183	0xbe94a398	-0.29031062
184	0xbbbf851e	-0.005844726
185	0xbea10407	-0.31448385
186	0xbe56371e	-0.20919463
187	0x3e983d6c	0.2973436
188	0xbcbddf15	-0.023177663
189	0x3dc11235	0.09427301
190	0xbdb9f084	-0.09079078
191	0xbe267619	-0.16255988
192	0x3e8ca6d4	0.2747103
193	0xbe019074	-0.1265276
194	0xbe440c45	-0.19145305
195	0xbda4ee3b	-0.08053251
196	0x3df5a9b2	0.119952574
197	0xbe8aac67	-0.27084658
198	0xbea533fc	-0.32266223
199	0xbe545b6e	-0.20738003
200	0x3e08f2f4	0.1337393
201	0xbc6f1450	-0.014592245
202	0x3db6865e	0.08912347
203	0x3dc76259	0.09735555
204	0x3e02eea7	0.12786351
205	0xbc4825b3	-0.012216019
206	0x3d353590	0.044240534
207	0x3e28652e	0.16444847
208	0xbefecd2c	-0.4976591
209	0xbddb248f	-0.107003324
210	0x3de887aa	0.11354001
211	0x3df67a50	0.12035048
212	0xbe8eb10d	-0.27869454
213	0x3d80ae67	0.062832646
214	0xbcd05e74	-0.025435664
215	0x3db0e1b4	0.086367995
216	0xbdfb9f21	-0.12286211
217	0x3e4ab555	0.19795735
218	0x3ead956e	0.33903068
219	0x3e670cdb	0.22563498
220	0x3db58348	0.088629305
221	0x3ea3645e	0.31912512
222	0xbd32f1d5	-0.04368766
223	0x3da89a66	0.08232574
224	0xbe32c9cb	-0.1745979
225	0xbe8b3dd5	-0.27195612
226	0xbdefb620	-0.117046595
227	0xbc8312b9	-0.016000139
228	0x3d755edb	0.059904914
229	0xbe5b7f5e	-0.21435305
230	0x3dc7fb4c	0.09764728
231	0xbdf43bfb	-0.11925503
232	0xbd9362db	-0.071965896
233	0xbe3fdb5c	-0.18736023
234	0x3db9578b	0.090499006
235	0x3e727e39	0.23680963
236	0x3df8b18d	0.1214324
237	0x3c742254	0.014900763
238	0x3d991d40	0.07476282
239	0x3bb21ad6	0.005435328
240	0xbe32dbb3	-0.17466621
241	0x3c662a90	0.014048234
242	0xbe632527	-0.22182141
243	0x3c400295	0.011719366
244	0xbe03b00f	-0.1286013
245	0x3e438cb4	0.19096643
246	0x3e80b002	0.25134283
247	0x3deb560e	0.11491023
248	0x3e22522b	0.15851657
249	0x3d07fcf5	0.033200223
250	0xbddba0e5	-0.107240476
251	0x3e0c6e87	0.13714038
252	0x3e0699b4	0.1314457
253	0xbe07a894	-0.13247901
254	0xbf02b73f	-0.5106086
255	0x3dfee6fd	0.12446401

bias f4 [32]
0	0xbe2be9a0	-0.1678834
1	0x3c4cf07c	0.012508508
2	0x3e22759e	0.1586518
3	0x3d5a2d0e	0.053265624
4	0xbcd89a0c	-0.026440643
5	0x3e44532a	0.1917235
6	0xbda1f24e	-0.07907544
7	0x3e6d5ee8	0.23180735
8	0xbe9716b8	-0.2950952
9	0x3e17244b	0.14759938
10	0x3bb29afd	0.005450605
11	0xbe2058a8	-0.1565882
12	0xbe9914cc	-0.2989868
13	0xbc2a86b3	-0.010408091
14	0x3e23f777	0.16012369
15	0x3dc4d67a	0.09611221
16	0xbe82a31b	-0.25515065
17	0x3ea1cb37	0.31600353
18	0x3d4e8709	0.05042175
19	0xbad95f75	-0.0016584235
20	0xbe82de06	-0.25560015
21	0x3ddcb84a	0.10777338
22	0x3d6f37b4	0.058402732
23	0x3e4e94bc	0.20173925
24	0xbe59c6ca	-0.21267238
25	0xbe83aedb	-0.25719342
26	0x3e6599c6	0.22421941
27	0x3e853b91	0.26022008
28	0x3e3b479c	0.18289036
29	0x3dc0ff3c	0.09423682
30	0xbe25df16	-0.16198382
31	0xbde1bfe5	-0.11022929
