Model/lstm.pth (torch, 821332 bytes, 9 tensors)

weight_ih_l0 f4 [512, 11]
000000 8b ca de bc d9 f7 20 3d 20 66 8f bc 09 43 9b bd
       -0.02719619 0.039298866 -0.017504752 -0.07581145
000010 cb 77 da 3d 19 17 58 bd 02 cc 64 bd e2 b2 0f 3d
       0.1066738 -0.052756403 -0.05585862 0.035082705
000020 94 bb d5 bd 64 87 00 3e dc 7a ca 3d c0 18 9f 3d
       -0.10436168 0.12551647 0.09886715 0.077683926
000030 b8 50 ba 3d 54 6f 16 b9 c6 ba 35 3d 04 97 aa bd
       0.09097427 -0.00014346588 0.044367574 -0.08329585
000040 af 4e b3 bd 7b 64 fe 3c 00 0b ed bd e2 01 af 3d
       -0.08755242 0.031053772 -0.11574364 0.08545281
000050 8b c2 64 bd 31 f2 e7 3c fe b5 87 bd 1a 53 97 3c
       -0.055849593 0.028313728 -0.06626509 0.018472243
000060 9b 37 72 3d 40 dd 4e 3d 02 de 86 bd 70 eb dc 3c
       0.05913506 0.05050397 -0.065853134 0.026967734
000070 5e 94 92 3c bb 73 09 bb 71 67 05 be 22 b2 92 3d
       0.017893013 -0.0020973522 -0.13027741 0.071628824
000080 8c b1 08 3e 53 14 f9 bc 57 2a 95 3d 23 61 dc bd
       0.13348979 -0.0304052 0.07283466 -0.10760715
000090 1a 80 00 bc 6e 01 58 3c c8 59 25 bd fd 7a 84 bd
       -0.007843042 0.013183935 -0.040368825 -0.06468771
0000a0 c3 78 01 bd ef 94 1c 3d a8 0c c8 3d fe f0 1e 3d
       -0.031609308 0.03822797 0.09768039 0.038804047
0000b0 c4 45 83 bd 22 6e 97 38 3e ed 51 3d a8 cd 60 3d
       -0.06409791 7.220755e-05 0.051251642 0.05488363
0000c0 f2 0b 81 bd 59 be 6c 3b 09 54 db 3c 76 20 39 bc
       -0.063011065 0.0036124198 0.02677347 -0.011299243
0000d0 e3 ce a4 3d c8 28 fa bc c5 74 ac 3c cd 12 6c bd
       0.08047273 -0.030537024 0.021051774 -0.057635117
0000e0 df ec 1a bd 68 50 a8 bd e3 50 95 bd d6 d6 cc 3d
       -0.037823554 -0.08218461 -0.072908185 0.10001914
0000f0 55 f4 73 3d ac 6e db bd a5 79 fa bc 68 f2 0d 3d
       0.059559185 -0.10714468 -0.030575583 0.034655005
000100 7d f0 32 bd fd ce 01 3e 05 6f 5a bd c4 61 a9 3c
       -0.04368638 0.12676616 -0.053328533 0.020676501
000110 2c 63 1c 3d 81 56 34 bd 7b 9d 72 bd a0 ee 0a bd
       0.038180515 -0.04402781 -0.059232216 -0.033918977
000120 f4 e7 70 bd 38 6a db bd 58 18 1d 3d 3b 15 5e 3c
       -0.058814958 -0.10713619 0.038353294 0.013554866
000130 5f 11 23 3d 77 6c d0 bd 8c 7f 90 bd 0b b9 f2 3c
       0.03981149 -0.10176938 -0.07055578 0.029629251
000140 b7 ce 32 bd d2 9e 73 bd 07 3a fb bc 61 41 05 3d
       -0.04365417 -0.059477635 -0.030667318 0.032533053
000150 c5 a8 87 3c 79 09 57 b9 e3 12 ed bd fe 73 0b 3e
       0.016559968 -0.00020507527 -0.11575868 0.13618466
000160 ee 9d 45 bd b4 b2 c8 3c 84 cb 7f bd 68 e9 1a 3d
       -0.048246317 0.024499275 -0.062449947 0.03782025
000170 f5 24 e1 3b ca 71 d3 bb d8 fb 02 3d aa fe a2 bd
       0.0068708607 -0.0064527737 0.03197846 -0.079587296
000180 ff 67 b3 bc ab 34 9c 3d 6d 6b d5 3d bb ef b2 3d
       -0.021900175 0.07627233 0.104208805 0.08737131
000190 1d 58 4a bd 0f 51 1d 3e c3 7a 16 3c 8a 3e 6d bd
       -0.049400438 0.15362953 0.009184542 -0.05792097
0001a0 45 b5 dc bd ae 54 48 3d 7b a6 ef bd be 7a de bd
       -0.10776762 0.04890888 -0.117016755 -0.10863255
0001b0 e4 f2 60 bc ec e9 71 3d 42 54 72 bd f9 57 1c bd
       -0.013729785 0.059060976 -0.059162386 -0.038169835
0001c0 64 16 e1 bc 8e b8 4d 3d 25 f3 56 bd e2 40 74 3c
       -0.027476497 0.050224833 -0.052477974 0.014908047
0001d0 c4 e6 79 3d 3d dc a6 3b a5 10 86 bd 96 59 37 bd
       0.06101109 0.0050921724 -0.065461434 -0.04476317
0001e0 15 9e 45 3d 24 6f 48 bb 06 ef bf bc e0 5f e2 3c
       0.048246462 -0.0030583823 -0.023429405 0.027633607
0001f0 a8 6c 4e bd 56 49 8c bb 3b b6 9b 3b 90 ce 4e 3d
       -0.05039659 -0.0042812033 0.004751948 0.050489962
000200 b1 a3 a2 bb 13 7e 6f 3c b6 fb a8 bb 5b 27 e7 3d
       -0.004963361 0.014617461 -0.0051569594 0.11286803
000210 67 5b 1d 3d 27 e4 af 3d 09 88 42 3c aa d4 ce 3d
       0.038417246 0.085884385 0.011873254 0.10099156
000220 93 94 13 bd ab 05 34 3c 15 1a 8b bc 80 ec 88 3a
       -0.036030363 0.0109876795 -0.01698021 0.0010446459
000230 60 87 d1 bd 72 d0 0f bc 49 04 2a 3d 59 88 3b bc
       -0.10230899 -0.008777725 0.041507993 -0.011446082
000240 48 e3 7e bd 4e f3 a1 3c 7d a4 03 be 1c 40 59 bd
       -0.06222847 0.019769337 -0.12855716 -0.053039655
000250 b9 d6 de 3c 03 8b 4f bd c2 1d 87 bb d9 28 43 bd
       0.027201997 -0.05066968 -0.0041234205 -0.047646377
000260 83 9c 09 3c a6 6e 59 3d df e2 16 3d 03 b8 63 3d
       0.008399132 0.05308404 0.036837455 0.05559541
000270 32 b4 18 3d 74 28 89 3c 33 66 28 bd 14 0a 86 bd
       0.037281223 0.016742922 -0.04111309 -0.06544891
000280 40 58 82 3d 5f 7e e3 ba d7 e1 96 3d e5 a3 91 3c
       0.063644886 -0.0017356387 0.07367294 0.017778346
000290 13 01 60 3e 79 5f d6 3d 93 57 a4 3c 97 9c c9 3c
       0.2187541 0.10467429 0.02006129 0.0246108
0002a0 53 3e 7f bd 5b 24 af bd 93 13 ad bd 78 2b b3 3d
       -0.062315296 -0.08551856 -0.08450999 0.087485254
0002b0 ad 82 36 3d 2a 1d 9f 3d ff f9 48 bd d7 d8 91 3c
       0.044558216 0.077692345 -0.04906654 0.017803593
0002c0 79 d8 81 bd 92 1e 11 3d 5a cf a7 3d ba 90 ef bc
       -0.06340117 0.035429545 0.08193846 -0.029243816
0002d0 bd bf ad bc 12 db f0 bd db 93 c0 3b 91 43 3f bd
       -0.021209592 -0.11760534 0.0058770007 -0.046695296
0002e0 e4 ae de bc 8a b6 9a bd d7 a7 16 3e dc af a0 3a
       -0.027183004 -0.07554348 0.14712463 0.0012259441
0002f0 15 6e 1a bd 8f f5 4d 3c 5b eb 82 3c 80 13 f7 bd
       -0.03770264 0.012570753 0.015981367 -0.12064266
000300 3f 28 f2 3c 95 2c 55 3d 40 4e da bd ab cb 75 3c
       0.029560206 0.05204447 -0.10659456 0.0150021715
000310 80 57 1b bd 49 88 9c 3d 01 7f 40 3d 9a 1b ee bc
       -0.037925243 0.07643182 0.04699612 -0.029065896
000320 ba 80 b7 3d 31 5f fc 3c e0 31 c3 bd 04 df 80 bd
       0.089600995 0.03080711 -0.09530997 -0.06292537
000330 67 51 a3 3d 44 57 33 bc 39 be 10 3c 1d 77 f0 bc
       0.07974511 -0.010946099 0.008834415 -0.029353673
000340 59 c3 0b 3e 56 65 80 bd 01 6c 5a bd 89 27 2d 3c
       0.13648738 -0.06269328 -0.053325657 0.010568508
000350 b4 b9 ce ba 1c 47 e6 3b 98 30 47 3c 19 ad bc 3c
       -0.0015771897 0.00702752 0.012157582 0.023031758
000360 a6 21 6d bb ec 26 2f bc 69 8f 49 bd 5a 14 08 3e
       -0.0036183386 -0.010690432 -0.049209032 0.13289014
000370 40 90 47 bd 9a ad bb 3d 47 e9 2f bd e1 0e d6 bb
       -0.048721552 0.09163971 -0.04294708 -0.0065325354
000380 5a 55 d8 bd 6a bc d8 3c f6 ae 23 3e bc 19 82 bd
       -0.105631545 0.02645703 0.15984711 -0.06352565
000390 0f b1 69 bd cb db 8b bd 64 4c f8 3d 54 a7 4a 3d
       -0.05705362 -0.068290316 0.12123945 0.049475983
0003a0 0b 98 d6 3b cc fb f8 3d 9b 99 1f bc 8b ab 89 bd
       0.0065488867 0.121574014 -0.009741212 -0.06722172
0003b0 73 8d a9 bd d2 7d 2f 3d 98 b6 24 bd ae 13 39 3d
       -0.082789324 0.0428446 -0.040213197 0.045184784
0003c0 f9 61 13 bc c8 71 66 3d d0 a9 1d bd 62 b5 9a 3d
       -0.0089955265 0.056260854 -0.038492024 0.07554127
0003d0 28 8f 53 bd 1f c7 2a bd 22 4a cd 3c ee 12 84 bd
       -0.051650196 -0.041693803 0.025059763 -0.06448923
0003e0 e3 ce 9f 3b b2 ce eb bb 8e fb 06 be 16 52 8a bd
       0.0048769577 -0.007196271 -0.13181898 -0.06753938
0003f0 d3 69 94 3c af e6 60 bd cb 5a 21 3d 60 01 c6 bd
       0.018116867 -0.054907497 0.039393228 -0.09668231

weight_hh_l0 f4 [512, 128]
000000 1a cf 16 bd 82 91 77 3d 82 f1 68 bd 2e eb 06 3d
       -0.0368186 0.0604415 -0.056870945 0.03293913
000010 4c d4 44 bd d8 c0 6d bd 41 39 67 bd 5e a7 5f 3d
       -0.048054025 -0.05804524 -0.056451086 0.054602973
000020 2e 77 7b bd eb c1 b2 bd c2 01 76 3d 4e bc ac bd
       -0.061392955 -0.08728393 0.06006027 -0.08434354
000030 71 9d 8c bd c2 b5 8b bd 20 6a af bc 49 65 a9 3d
       -0.06865967 -0.06821777 -0.021412909 0.08271272
000040 0d 8a 8b bd fb 87 92 3d 54 e0 fd bc 28 a7 d9 3c
       -0.068134405 0.071548425 -0.030990757 0.026568964
000050 0c b0 cb bc 18 93 10 bd 3a 45 33 3d 30 cc 58 3c
       -0.02486422 -0.03529653 0.04376719 0.013232276
000060 b1 3f a1 3d 90 c5 f5 bc b3 82 9d 3d 08 77 40 bc
       0.07873476 -0.030001432 0.076909445 -0.011747129
000070 25 e4 28 bd e4 7e 99 bc 76 e8 4f 3d 64 95 90 3c
       -0.0412332 -0.018737264 0.0507588 0.01764936
000080 49 f3 98 bd 91 b5 21 bd 90 d8 9d bd 20 69 47 3c
       -0.07468278 -0.039479796 -0.07707322 0.01217106
000090 a8 cf fa 3c e5 14 8b 3d 14 30 01 bd 70 40 0c 3c
       0.030616596 0.06791095 -0.03153999 0.008560285
0000a0 68 78 b2 bd d8 7b d5 bc a6 19 65 3d d2 89 89 bd
       -0.08714372 -0.02606003 0.055932663 -0.0671574
0000b0 8c a8 d5 3c 1d a2 0b bd 20 cc b6 bc 5a f1 29 3d
       0.026081346 -0.03409015 -0.022314131 0.041489936
0000c0 60 1b 7d 3b a3 aa 83 3d f0 6d 93 bb 10 26 68 bc
       0.0038621053 0.06429031 -0.0044991896 -0.014169231
0000d0 ba d2 51 bd 7a a5 24 3d da 94 82 bd 19 b1 37 bd
       -0.051226355 0.040196873 -0.063760474 -0.044846628
0000e0 00 e5 2a bc 33 17 9a bd 26 48 2c 3d e2 c7 26 3d
       -0.010430574 -0.07523956 0.042060994 0.040717967
0000f0 f3 75 27 bd 69 2c 95 bd ca df 60 3d 13 ee a2 3d
       -0.04088397 -0.07283861 0.054900922 0.07955565
000100 3c 7a 9f bd 58 ed 4d 3c d8 6e 56 bd 33 32 9f bd
       -0.07786986 0.012568794 -0.052351803 -0.077732466
000110 28 22 b3 bd 66 56 19 3d 74 da 2a bd 7b b2 af 3d
       -0.08746749 0.03743591 -0.04171224 0.08578964
000120 f8 e2 ae 3c ef 10 53 bd ca df b3 bd 72 12 6a 3d
       0.021348462 -0.05152982 -0.08782919 0.057146497
000130 60 70 a7 3b 50 c7 9e bb 02 ca 5e 3d 48 b3 9d 3c
       0.0051098317 -0.0048455372 0.05439187 0.019250527
000140 aa 56 58 3d d6 8a 29 3d 46 a5 2e 3d 28 f4 71 bd
       0.052817024 0.04139217 0.042638086 -0.059070736
000150 99 28 b2 3d 00 4a 95 39 27 54 66 bd c4 39 b7 bc
       0.0869915 0.0002847463 -0.056232598 -0.022366412
000160 be 8b 77 3d 00 2f 1d 3c 2e ce 25 3d 23 6f 83 3d
       0.060436003 0.009593725 0.04047983 0.06417682
000170 95 0a 1c bd a8 13 88 3c c8 86 70 bc 00 d6 8b 3a
       -0.03809603 0.016610935 -0.014680572 0.0010668635
000180 af 76 9e 3d 68 15 6d bc d4 38 c2 3c b8 44 59 3c
       0.07737481 -0.014470436 0.023708738 0.013261013
000190 16 ec 13 3d 50 09 44 bc 66 0c 76 bd 28 7a 8e bc
       0.03611382 -0.011965111 -0.060070418 -0.017392233
0001a0 27 61 b0 3d d3 1f a8 3d e8 48 af bc 5d 9b 8a bd
       0.0861228 0.08209195 -0.02139707 -0.067679144
0001b0 55 8e a3 3d 00 30 5e b9 34 bb cb bc 33 36 0e bd
       0.07986132 -0.00021189451 -0.024869539 -0.034719657
0001c0 8e e4 5b 3d 3c b7 9e bd 69 99 a2 3d 09 a2 89 3d
       0.053684764 -0.07749793 0.07939417 0.06720359
0001d0 b0 59 7f bc fb 1f aa bd 18 6e d0 bc bb d6 8e 3d
       -0.015585348 -0.08306881 -0.025443122 0.0697455
0001e0 0d ae b4 3d 85 3a 16 bd d2 31 45 3d 8b 50 83 3d
       0.0882226 -0.036676902 0.048143215 0.06411847
0001f0 cf fe 3e bd ce 26 2a 3d fc 66 c8 3c 72 19 ac bd
       -0.046629723 0.041540913 0.02446317 -0.08403291
000200 ea 66 3a bd b6 03 a2 bd 5c 23 08 3d 26 bb 7d bd
       -0.045508303 -0.07910864 0.033236846 -0.061946057
000210 50 9c 74 bd a4 4a a8 bd f0 88 22 bc 89 59 86 3d
       -0.059719384 -0.082173616 -0.009920344 0.06560046
000220 85 77 98 bd 1e d9 a6 bd 76 03 68 3d f7 95 a6 3d
       -0.074446715 -0.081468806 0.056643926 0.08134072
000230 d3 71 8b 3d 68 b6 0a 3d ef 46 9d 3d 5a c0 4c 3d
       0.068088196 0.033865362 0.07679545 0.04998813
000240 cb 21 29 bd 02 39 77 3d 00 41 69 3a ee ea a2 bd
       -0.041291993 0.0603571 0.00088979304 -0.079549655
000250 b7 d3 af bd 80 8b fe ba f4 57 80 3c d6 6d 74 bd
       -0.08585303 -0.0019420236 0.01566694 -0.05967506
000260 e9 7b 8e bd 41 06 88 3d 1b ec 22 bd f1 f6 ad 3d
       -0.06957228 0.06641818 -0.03977595 0.08494366
000270 a8 63 77 bc 0d fe 9c 3d 08 6a 17 bc 20 97 92 bc
       -0.0150994435 0.07665644 -0.009241588 -0.017894328
000280 96 4f 76 3d f9 17 8b 3d 9d e0 57 bd be af 29 3d
       0.060134493 0.06791682 -0.052704442 0.041427366
000290 54 6d e0 3c 10 4a c4 bc d4 ca b2 3c 60 d6 78 bd
       0.027395882 -0.023961097 0.021825232 -0.06075132
0002a0 2e 58 29 3d ee cd 58 3d 26 4e ac bd 7a 94 4a 3d
       0.04134386 0.052930765 -0.08413343 0.049458005
0002b0 4b 09 2a bd a1 0b a1 bd dc c4 ec 3c cb 3b 4a bd
       -0.04151277 -0.07863546 0.028902464 -0.04937343
0002c0 40 6d 3d bb 98 ae 8a 3c 2b 3d 1f bd 76 17 27 bd
       -0.002890423 0.016928956 -0.038876694 -0.04079386
0002d0 78 a3 2d bc c0 dc 55 3c 31 d8 a3 bd fc 73 2d bd
       -0.010598056 0.013053119 -0.080002196 -0.04234694
0002e0 e0 36 42 bc c9 e3 31 bd 60 f6 73 bc 80 79 ae 3a
       -0.0118539035 -0.043430123 -0.014890283 0.0013311356
0002f0 da 50 43 3d c7 c2 90 3d be a9 95 bd 5a 33 86 bd
       0.047684528 0.07068401 -0.073077664 -0.06552763
000300 66 84 14 3d 80 b7 b2 ba 8a 27 4d bd 28 8c 00 3d
       0.036259077 -0.001363501 -0.050086536 0.031383663
000310 1a d8 70 3d 66 74 50 bd f4 63 7d bd 7b 83 a4 3d
       0.05879984 -0.050892256 -0.0618629 0.080328904
000320 ec f6 af bc fd c2 85 bd ef 8c a0 bd a8 d1 5f bd
       -0.021480046 -0.06531332 -0.07839381 -0.054643303
000330 36 48 1a 3d 52 8e 19 3d 8b db 84 bd c8 cb 8f bd
       0.037666522 0.037489243 -0.06487187 -0.0702129
000340 04 69 cd 3c 71 e1 03 bd b4 c6 80 bd 1c d9 91 bd
       0.02507449 -0.03219742 -0.062878996 -0.071214885
000350 00 6b 8a ba 10 eb aa 3b 00 18 1c b9 ad ce a0 3d
       -0.0010560453 0.00521601 -0.0001488626 0.0785192
000360 de a2 6d 3d 38 c3 90 bd a8 28 72 bc fc 12 2c bd
       0.05801665 -0.07068485 -0.014780201 -0.042010292
000370 50 e8 73 bc db d5 63 bd ab a0 83 3d 90 ff d2 3b
       -0.014886931 -0.05562387 0.06427129 0.006439157
000380 81 6c 60 bd e0 ef 06 3b 1e bc 4b bd 8b 79 a4 3d
       -0.054790977 0.0020589754 -0.04973995 0.08030995
000390 d8 be 63 bd 48 e0 1d 3c 60 18 56 3c 73 4d ae 3d
       -0.055601925 0.009635992 0.013067335 0.08510866
0003a0 46 98 28 bd 8a 11 37 3d 82 39 0b bd 6b 4c 9f bd
       -0.041160844 0.04469446 -0.03399039 -0.077782474
0003b0 5e be 78 bd 2e 7c 9e bd 2b d6 7c bd 57 1c 84 3d
       -0.060728423 -0.07738529 -0.061727684 0.06450718
0003c0 84 6c bb 3c 84 e1 c0 bc e1 d4 a1 3d 8e 36 ab bd
       0.022878893 -0.023545034 0.079019316 -0.08360015
0003d0 17 3c ae bd a7 8b 95 3d 0d db 85 bd 48 bd 0c 3d
       -0.08507555 0.07302027 -0.06535921 0.0343602
0003e0 32 93 97 bd 2f 04 a7 3d 40 14 d6 3b 64 21 f3 bc
       -0.07401122 0.08155095 0.0065331757 -0.029679008
0003f0 59 45 82 3d 46 36 4f 3d 86 6c 63 3d 00 90 c5 37
       0.06360883 0.05058887 0.055523418 2.3551285e-05

bias_ih_l0 f4 [512]
000000 05 a0 5f 3d b6 cb dd 3d a3 6a 01 3e 8f 79 97 3d
       0.054595966 0.108298704 0.12638335 0.07396232
000010 e7 ec e4 3d 77 df 42 3d 92 d2 36 3d 87 24 95 3e
       0.11177998 0.047576394 0.04463441 0.2912943
000020 7f b2 20 3e c7 41 88 3d 87 bf 56 3d 84 df 83 3e
       0.15693091 0.06653171 0.05242875 0.25756466
000030 6c 92 9b 3d b9 bd 9c 3d a0 1a 8f 3e 69 a0 59 3d
       0.07596287 0.07653374 0.2795 0.053131495
000040 04 b2 3f 3e 9d 3a bf 3d fd ef 54 3e 58 ff 37 3e
       0.18720251 0.093373515 0.20794673 0.179685
000050 b2 40 0e 3e 08 2b cd 3d d3 61 05 3d 47 ba c5 bc
       0.13891867 0.10017973 0.032563996 -0.024136676
000060 34 4c f2 3d d2 1e 82 3e 20 8b a4 3e 68 df 03 bc
       0.11830941 0.2541414 0.32137394 -0.00804887
000070 e7 36 fd 3d b1 cb 20 3d ac 1d 88 3e 2c 1a 0a 3d
       0.123639874 0.039256755 0.26585138 0.033716366
000080 e3 5e 68 3e 83 0e db 3d b3 a7 d9 3d 12 55 4d 3e
       0.22692446 0.10696127 0.10627689 0.20051983
000090 1a 7b 98 3d 5f cc 65 bc 44 0a aa 3c 17 ed e4 3d
       0.07445355 -0.014025777 0.020756848 0.11178034
0000a0 78 e4 10 3e 43 53 f0 3d 6b 24 d6 3d d9 4c 0e 3d
       0.14149654 0.11734631 0.10456165 0.034741256
0000b0 22 54 90 3e 4c 26 ae 3d 65 03 23 3e b2 1f 2e 3e
       0.28189188 0.08503398 0.15919264 0.17004278
0000c0 b1 e2 c6 3d 2a 03 1e 3e 50 f2 2f 3e 2c bb 84 3d
       0.09711207 0.15430894 0.17182279 0.06481013
0000d0 8d e8 ca 3d 1e 53 be 3d 50 49 4a 3e f6 6b 1d 3e
       0.09907637 0.09293197 0.19754529 0.15373215
0000e0 49 84 30 3e 8d 37 38 3e a3 ab b1 3d 68 d6 0b 3e
       0.17237963 0.17989941 0.08675315 0.13656008
0000f0 07 aa 6c 3d b5 77 2f 3c b8 20 cf 3d 57 54 16 3e
       0.05777934 0.010709693 0.101136625 0.1468061
000100 4b 3c 21 3e 38 91 ee 3d 60 41 0e 3c 37 e3 4f 3c
       0.15745656 0.11648792 0.008682579 0.01268845
000110 db a1 1f 3e 75 f1 80 3e 5b ad 75 3d 3d 38 14 3e
       0.15589087 0.25184217 0.059979778 0.14474578
000120 57 a0 3b 3d 58 53 19 3e 49 31 11 3e 01 6f 49 3e
       0.04580721 0.149732 0.14178957 0.19671251
000130 7e 9e cc 3d e9 e2 ad 3d ec 09 17 3e b3 d5 ee 3d
       0.099911675 0.08490545 0.14749879 0.11661854
000140 49 e9 58 3d 15 9f 91 3e 41 4c cc bc 76 54 80 3d
       0.052956853 0.28441682 -0.024938704 0.0626611
000150 af 32 b2 3c 70 1b 9f 3d c8 e6 c3 3d 04 7b a5 3d
       0.021752683 0.07768905 0.095655024 0.08080104
000160 f1 46 98 3d 22 81 6a 3e 2a 05 09 bd 3c 6c cf 3b
       0.07435406 0.22900823 -0.03345219 0.006330041
000170 5a c6 f2 3c c5 7f 79 3e f2 6b e5 3d 75 36 d4 3e
       0.029635597 0.24365146 0.112022296 0.41447797
000180 93 64 ad 3e 94 06 cd 3d 15 54 e7 3b c8 73 80 3d
       0.33865795 0.1001102 0.007059584 0.062720835
000190 7f 05 bc bc 2f d4 ba 3d ce 92 31 3d f8 d6 85 bc
       -0.02295184 0.09122502 0.043352894 -0.016337857
0001a0 5f 7c 34 3e 29 9f 1b 3e 43 f1 b2 3d d4 5e 0d 3e
       0.17625569 0.15197434 0.08737423 0.13805705
0001b0 b3 f6 a5 3d 65 60 e5 3a c6 e1 de 3d eb 7e 82 3e
       0.08103695 0.0017500041 0.108829066 0.25487456
0001c0 a2 3b 2e 3d c1 4b 0d 3e 13 83 b8 3d 39 08 0e 3e
       0.04253734 0.13798429 0.090093754 0.13870324
0001d0 ab 00 84 3e 23 c3 8b 3d be d4 d1 3d a1 bb 02 3e
       0.2578176 0.06824329 0.102456555 0.12766887
0001e0 f0 c7 01 bd 56 7b 58 3e 29 9b 74 3d 31 d2 47 3d
       -0.031684816 0.21140799 0.059718285 0.04878444
0001f0 29 78 0f 3e 4f e8 ae 3c 73 1c ea 3c 3f 07 f2 3d
       0.14010681 0.021351008 0.028578019 0.11817788
000200 65 3d 9d 3d e7 30 9c 3d 5e 24 74 3d 48 ac be bc
       0.07677726 0.07626515 0.059604995 -0.02327551
000210 48 95 94 bc da 83 6a 3d 64 b4 cf bc 38 64 4f bd
       -0.01813759 0.05725465 -0.025354572 -0.050632685
000220 13 dc 8b 3d 80 f6 c9 ba 06 0d af bd 9d 34 b2 bd
       0.06829085 -0.0015408546 -0.08547406 -0.087014414
000230 62 e8 31 3d 90 d0 45 bc bf b5 8c 3d ce cc 82 bd
       0.04343451 -0.012073651 0.06870603 -0.0638672
000240 11 f5 b0 3d 34 46 a3 bc 28 d5 f8 3c 12 66 56 3d
       0.08640493 -0.019930936 0.030375078 0.052343436
000250 6c 6e 81 3c 44 44 a7 bd a7 e1 99 bd 5e f3 62 3d
       0.015799724 -0.081673175 -0.07513743 0.055407874
000260 28 07 3e bd d0 79 4e bd b0 c2 61 bd c0 04 b3 3a
       -0.046393543 -0.05040914 -0.05511731 0.0013658032
000270 4b 8d a3 3d 33 ff 98 3d 4a 43 70 3d 7e 86 0e 3d
       0.07985934 0.074705504 0.05865792 0.03479623
000280 b6 87 1d 3d 43 2d 01 bd a4 1e f6 bc 94 d6 c0 3c
       0.038459502 -0.031537306 -0.030043907 0.023539819
000290 64 02 11 3d d3 0b 99 3d 00 7b e1 3b 40 fc 27 bb
       0.03540267 0.074729584 0.006881118 -0.002563253
0002a0 6a 1f ad bd ee 26 5e bd 14 83 88 bd f3 4f ad 3d
       -0.084532574 -0.054236345 -0.06665626 0.08462515
0002b0 2e f2 67 3d 49 d7 90 3d 27 e3 ae 3d b7 84 aa 3d
       0.056627445 0.070723124 0.085394196 0.083260946
0002c0 78 52 08 3d 82 40 6b 3d 73 cf 8d 3d 48 aa e4 3c
       0.033281773 0.057434566 0.069243334 0.027913228
0002d0 40 f8 6c bb f8 f3 2c 3c 97 22 59 bd e8 40 dd bc
       -0.003615871 0.010556214 -0.053011503 -0.027008489
0002e0 fe ec 17 3d f8 60 60 3c c0 f6 c2 3a a0 71 29 3b
       0.037091248 0.013694994 0.0014874563 0.002585508
0002f0 82 d2 4f 3d 64 cc db 3c 07 d9 9f 3d 40 9e e5 bb
       0.050737865 0.02683086 0.078050666 -0.0070073903
000300 f7 d6 8f 3d 15 b0 81 3d c1 2a 96 3d f9 6d 82 3d
       0.07023423 0.06332413 0.073323734 0.06368632
000310 b6 85 47 3d a6 63 57 3d 60 03 d7 bb 80 11 3d ba
       0.0487115 0.052585267 -0.0065616816 -0.00072123855
000320 b7 a6 28 bd c4 6b ab bd 76 b5 a5 bd 30 a0 cb bb
       -0.041174617 -0.08370164 -0.080912516 -0.006214164
000330 9f 14 ad 3d 80 1b bf bb d9 e4 ad bd 41 a1 67 bd
       0.08451199 -0.0058321357 -0.08490915 -0.056550268
000340 d5 27 2a bd 1d 5d 12 bd b0 76 a0 bc 62 bd 6f 3d
       -0.041541893 -0.03573333 -0.019587845 0.05853022
000350 7c 9f da 3c 90 ac 4f 3c 1e 57 1e 3d a0 db 8c bb
       0.026687376 0.012675419 0.0386573 -0.0042986423
000360 ec 0e 92 bc 7f 17 90 3d f4 fa cf 3c 31 c3 ae bd
       -0.01782938 0.070357315 0.025388218 -0.085333236
000370 56 79 a8 bd a1 6f b3 3d 7e a8 24 bd 83 2d ae 3d
       -0.08226268 0.08761526 -0.04019975 0.085047744
000380 cf 1f 07 bd 0d 77 90 3d fa 2e 86 bd f1 63 60 bd
       -0.03298932 0.07053957 -0.06551929 -0.05478281
000390 3f d8 a2 bd 00 3e 79 39 fc 33 ff 3c 07 49 8e 3d
       -0.07951402 0.00023769587 0.031152718 0.069475226
0003a0 b5 de a7 3d 8f d0 79 bd 8f f1 a2 bd 50 26 ea 3b
       0.08196775 -0.060989913 -0.0795623 0.0071456805
0003b0 33 74 b3 3d ee bd 38 3d 6f 76 41 bd 10 75 99 bc
       0.087623976 0.045103006 -0.047232088 -0.018732578
0003c0 a6 80 db bc 90 c1 fd 3c 88 30 54 bc ec f6 a8 3c
       -0.026794743 0.030976087 -0.012951024 0.020625554
0003d0 00 88 86 39 e4 78 83 bc 92 78 0c 3d 2a 32 3f 3d
       0.000256598 -0.016048856 0.034294672 0.0466787
0003e0 36 df af bd 7c c1 8b bd 80 e7 a6 bd 48 67 90 3c
       -0.08587496 -0.068240136 -0.08149624 0.017627373
0003f0 e1 37 91 bd 07 f1 a7 3d 70 94 27 bc b0 fb 0d bc
       -0.07090736 0.08200269 -0.010228261 -0.008665964

bias_hh_l0 f4 [512]
000000 a5 8e 69 3c 54 af 67 bc 44 2d d3 3d 93 8a ee 3d
       0.0142552005 -0.014140923 0.10311368 0.11647525
000010 78 04 c8 bc ac 8a 79 3c 3a 48 1b 3e 55 42 74 3e
       -0.024416193 0.015230816 0.15164271 0.23853429
000020 9e 14 81 3d 11 cb 4f 3c 46 be 26 3d f5 2a 90 3e
       0.063027605 0.012682692 0.040708803 0.28157774
000030 00 e3 d3 3c 57 0a 05 bd d7 5e 40 3e 91 b5 28 bd
       0.025865078 -0.032480564 0.18786179 -0.04118878
000040 cd b2 2a 3d 9c 9a d0 3d 40 ef 90 3e 2a 0d 37 3e
       0.041674424 0.101857394 0.28307533 0.17876115
000050 23 31 63 3e 99 a5 73 3e 33 44 3e 3d a4 eb e6 3d
       0.22186713 0.23793639 0.04645176 0.11275414
000060 d5 32 4f 3e 33 79 d1 3d 81 70 a3 3e 5d e0 00 3e
       0.20234235 0.10228195 0.3192177 0.12585588
000070 82 c3 04 bd ac 7a bd 3d 85 be f3 3d 8c 0d 75 3d
       -0.032413013 0.092519134 0.11901573 0.059827372
000080 39 fa fa 3d 09 87 41 bb b5 e7 cd 3c 77 7a 32 3e
       0.122547574 -0.002952995 0.0251349 0.17429529
000090 4f e6 90 3d 16 c4 c4 bb 37 de 7a 3d db 3c 40 3e
       0.07075178 -0.0060048206 0.061247077 0.18773215
0000a0 f1 88 83 3e f0 48 1d 3c f8 32 7c 3d 4c a3 93 3d
       0.25690416 0.009599909 0.061572045 0.07208881
0000b0 63 14 2d 3e 3c c7 82 3a ff 30 a0 3d 81 e9 03 3e
       0.16902308 0.0009977589 0.07821845 0.12882043
0000c0 ea d3 ef 3c a8 99 8a 3d e5 a5 46 3d b5 f3 88 3d
       0.029275853 0.06767589 0.048498053 0.066871084
0000d0 8b 71 70 3e 2a 7f d4 3d 39 a4 a8 3d 2a 58 ed 3d
       0.23480813 0.10375817 0.08234448 0.115890816
0000e0 35 ae 29 3e aa 5a bf 3d f6 50 03 3e 11 53 71 3b
       0.16570361 0.09343465 0.12823853 0.0036823193
0000f0 63 84 96 3d 46 9c f1 3c 01 ed 51 3e 82 e1 6a 3e
       0.073494695 0.029493462 0.20500566 0.22937587
000100 ae a0 1b 3e 0b d1 60 3e 7f ed e6 bc c7 87 0f 3d
       0.15198013 0.21954744 -0.028189419 0.035041597
000110 13 fd f5 3d f0 00 80 3e a3 50 07 3a c5 a0 cc 3d
       0.12011161 0.25000715 0.0005161857 0.09991602
000120 ea b5 0e 3d 5b 05 09 3e 9a ad 1d 3e 92 15 16 3e
       0.034841456 0.13380949 0.15398255 0.14656666
000130 13 56 20 3d 7f aa 2e 3d 18 42 11 3d f9 67 2f 3e
       0.039144587 0.042643066 0.035463423 0.17129506
000140 1d 6b 91 3d 36 89 20 3e 31 a7 b2 bc 7e 07 23 3e
       0.07100508 0.15677342 -0.021808239 0.15920827
000150 ee 0a 1c 3e c9 c5 b2 3d a2 9c e8 3d a5 90 cd 3d
       0.15238544 0.08729131 0.11358 0.100373544
000160 99 7a ca 3d 8a ab 97 3e f0 4d fa 3b a1 ab 0d 3e
       0.09886665 0.2962306 0.0076386854 0.13835002
000170 84 29 d7 3b aa 11 e7 3d 0f b5 93 bc 08 f9 af 3e
       0.0065662283 0.11282666 -0.018030671 0.34369683
000180 42 fb 99 3e 6f 9b 2b 3d 67 c4 0a 3e d8 10 2b 3e
       0.30074507 0.04189628 0.13551484 0.16705644
000190 92 df dc 3d 1c 70 2b 3e fe a3 18 3c be db 14 bd
       0.1078483 0.16741985 0.0093164425 -0.036342375
0001a0 37 62 c1 3d 55 91 83 3d ec 52 0c 3e e3 0d bb 3d
       0.09442561 0.06424204 0.13703507 0.09133508
0001b0 b2 29 fa 3d c6 f0 e1 3d ed 70 7e 3e ec 23 1f 3e
       0.12214984 0.11032252 0.24847765 0.15541047
0001c0 e4 86 1c 3d ae 66 23 3d 0c 66 69 3e cc 3d 19 3e
       0.03821458 0.039892845 0.22792834 0.1496498
0001d0 64 bc 35 3e f8 48 a1 b9 8e 9b 9a 3d 53 38 85 3e
       0.17747647 -0.0003076268 0.07549201 0.26019534
0001e0 dd 1e bf 3d 4e b8 6c 3e bf ad c4 3d 7b 96 87 3c
       0.093320586 0.23117182 0.09603452 0.016551247
0001f0 4a 13 36 3d c8 a8 27 3d 90 77 e1 3d 47 60 3f 3e
       0.04445199 0.040932447 0.11009133 0.1868907
000200 ee 8e 6a 3d 70 af 63 3c 40 4f 4f bc 54 2d ad bd
       0.057265215 0.013896808 -0.012653172 -0.08455911
000210 42 ef 74 bd aa 61 6f bd f5 c3 a1 bd b0 15 74 bd
       -0.059798487 -0.05844275 -0.07898704 -0.059590995
000220 f7 97 a0 3d 9f 26 5e bd 89 dc 98 3d fc e2 de bc
       0.07841485 -0.05423605 0.07463939 -0.027207844
000230 4d 49 9d 3d 36 e2 75 3d 48 4d 7b 3c f6 05 a4 bd
       0.07679997 0.060030185 0.0153382495 -0.080089495
000240 00 db 8b 3c 75 89 19 bd 6a a1 1d 3d 10 2e a8 bb
       0.0170722 -0.037484605 0.038484015 -0.005132444
000250 32 c9 2d 3d 61 bb 8d 3d 4f 1e 9a 3d 58 64 d1 bc
       0.042428203 0.06920505 0.07525312 -0.025560543
000260 b9 38 a1 3d 6a 11 72 bd 1f 5d 9a bd 67 8b b4 3d
       0.07872147 -0.05909864 -0.07537293 0.088156514
000270 2e 2b 6e 3d b0 17 a1 bc 18 78 83 3c 7e fe 1f 3d
       0.058146648 -0.019664615 0.016048476 0.039061062
000280 b7 62 9a 3d 50 52 e5 3b 3b 39 11 bd ce aa 3a 3d
       0.075383596 0.006998338 -0.03545497 0.04557305
000290 60 64 b8 bc 2e 88 01 bd 42 3d e2 bc 52 9e 07 3d
       -0.0225088 -0.03162401 -0.0276171 0.03310997
0002a0 b0 c2 65 3c f8 8a 2a bc 12 b7 30 3d d2 66 df bc
       0.014023468 -0.010409109 0.04314334 -0.027270708
0002b0 14 7a ad bc f8 0c c7 3c bf d4 68 bd f6 84 70 3d
       -0.021176375 0.024298176 -0.056843515 0.05872055
0002c0 a2 bc 73 3d a6 7e 45 3d a1 7a 5f bd 95 fc 8f bd
       0.059506066 0.048216484 -0.054560307 -0.07030598
0002d0 40 a4 3a 3c 7a d9 62 3d 90 08 86 bb 9c 21 f3 3c
       0.011391699 0.055383183 -0.004090376 0.029679112
0002e0 a6 66 43 3d 6a 83 6a 3d f8 73 06 bd 6e 94 48 3d
       0.047705315 0.057254232 -0.03282544 0.04896968
0002f0 20 50 5c 3b 8e 1d 8a bd 3c 13 e9 3c 90 88 15 3d
       0.0033617094 -0.06743918 0.028451554 0.03650719
000300 bf e5 ac bd f8 43 de 3c 8e 9d 75 3d 6a 11 61 3d
       -0.08442258 0.02713202 0.05996471 0.054948248
000310 a0 0e 20 3c bc f3 2e bd e8 22 b2 bd 5d f8 a1 3d
       0.009769112 -0.042712912 -0.08698064 0.079087
000320 f8 4f 51 3c 2b ee 14 bd 7f fc 89 3d dd ec 1d bd
       0.012775414 -0.036359947 0.06737613 -0.03855597
000330 30 b7 dd 3c 1e 59 2e 3d d2 a0 39 3d ea c9 7b 3d
       0.02706489 0.042565458 0.045319386 0.061471857
000340 b6 b2 38 3d 88 00 59 bc 58 11 b4 3c cb 11 1b bd
       0.045092307 -0.013244756 0.021980926 -0.037858766
000350 d8 d4 ce bc 96 be 96 bd 7b 70 80 bd 29 e4 a1 3d
       -0.025247976 -0.0736057 -0.06271454 0.07904846
000360 a0 07 e6 3c 58 29 6e bd f8 c7 13 3d 88 88 23 3c
       0.028079808 -0.058144897 0.036079377 0.009981282
000370 ec 5c 6b bd 80 2c 69 ba 38 63 52 bd b8 2d 04 3c
       -0.057461664 -0.00088948756 -0.051364154 0.008067541
000380 67 87 8f 3d 46 56 4a 3d 86 88 2d bd 87 77 9f bd
       0.07008248 0.049398683 -0.042366527 -0.0778647
000390 80 c5 e5 3b 88 82 87 3c a6 ef 90 bd d3 da 9e 3d
       0.007012069 0.016541734 -0.07076959 0.07756581
0003a0 99 e6 9a 3d 63 65 a4 bd 9a 0e 01 bd f8 ef 38 bc
       0.07563514 -0.080271505 -0.031508066 -0.011287682
0003b0 b0 80 b9 bb 40 86 a0 bd b6 ff 8d bd 76 7f 85 bd
       -0.0056610927 -0.07838106 -0.069335386 -0.06518452
0003c0 46 7d 1b 3d 79 61 19 bd b6 35 59 3d 50 5a a3 3b
       0.037961267 -0.037446473 0.05302974 0.0049851313
0003d0 14 aa b2 bc 62 e9 5d 3d 60 5e 3e 3b 9a 2e 7f bd
       -0.021809615 0.05417765 0.002904795 -0.062300302
0003e0 e1 16 8a 3d ee bd 43 3d 08 c1 86 bd 64 48 a3 bc
       0.06742645 0.047788553 -0.065797865 -0.01993198
0003f0 e7 77 67 bd 6b ae b1 3d 58 95 83 3c f8 51 8e 3c
       -0.056510832 0.08675846 0.016062424 0.01737307

weight_ih_l1 f4 [512, 128]
000000 cd 32 b9 3c b5 a0 93 bd 43 5f 34 bd 05 2a 18 3e
       0.022607232 -0.07208387 -0.04403616 0.14859779
000010 b9 d1 2d bd 0b 13 26 bd 67 29 5c 3c 9a a2 27 be
       -0.042436335 -0.040545505 0.013437605 -0.16370621
000020 6f d1 14 bb a3 25 fe bc 1a d7 dd 3b d4 93 5a be
       -0.002270784 -0.031023806 0.006770027 -0.21345454
000030 ca f5 23 3d 87 e4 b2 3d 8b 40 fc 3d 08 0f d1 bd
       0.040029325 0.087349944 0.12316998 -0.10207945
000040 6e 51 b4 3c 84 d1 6c 3b 7a 3e ab 3e 17 eb 0d 3e
       0.022011485 0.0036135623 0.33446103 0.13859211
000050 be 92 c9 3d 5a 6b 3c 3d fe 23 d2 3a c5 c6 1a 3d
       0.09842442 0.046000816 0.0016032455 0.037787218
000060 f8 4b 4e 3e cb 40 71 be 29 94 19 bf e0 6c 09 3e
       0.20146167 -0.23559873 -0.599917 0.13420439
000070 aa 8a ad 3c a3 77 bd bd 03 60 86 3e 58 85 fa 3c
       0.021184284 -0.092513345 0.26245126 0.030581161
000080 4a 7c 2b 3e 43 64 ad 3c 56 e9 86 3c 7c 93 ce bd
       0.16746631 0.021165973 0.016468685 -0.10086724
000090 7a 7e 93 3d bf 61 6b 3d c2 3c ed bd 69 6e 2d bd
       0.07201858 0.057466265 -0.11583854 -0.042341623
0000a0 8d 6b 3f 3e 6a b8 7b 3c a9 76 69 bb 01 ee b6 bb
       0.18693371 0.015363792 -0.0035623705 -0.0055825715
0000b0 ee 3d 95 3e fb 0d 68 3d a4 fa c3 3d 9d 3b ce bd
       0.2914881 0.056653958 0.0956929 -0.10069964
0000c0 d4 c3 4c bd 49 2c a8 3d ac 22 a1 bd 6e e6 16 3d
       -0.049991444 0.08211572 -0.07867941 0.03684085
0000d0 67 e3 c6 bd df 53 64 3d 07 58 cf bd 34 db bc bd
       -0.09711342 0.05574405 -0.10124212 -0.09221497
0000e0 8b 83 f6 3d 53 82 49 ba f6 2c 70 bc 6f ea ae bd
       0.120368086 -0.00076869613 -0.014659157 -0.085408084
0000f0 04 9b 8c bd 78 25 be 3d 02 75 75 3d 71 97 8d 3d
       -0.068655044 0.0928449 0.05992604 0.06913651
000100 45 28 17 bd b4 bf a5 bd 56 f5 f8 3d 63 fa ce 3c
       -0.03690364 -0.08093205 0.12156169 0.025265878
000110 98 60 3f bd 04 88 53 be 1b 4e e0 bc 7a 29 a4 bd
       -0.04672298 -0.20657355 -0.027380994 -0.080157235
000120 23 e2 cb bd 35 69 97 3d 65 e1 80 3c 31 9e a7 3d
       -0.099552415 0.073931135 0.015732476 0.081844695
000130 3a fd 58 be bc d4 1f 3e 07 89 09 3e c1 4d d9 bd
       -0.21190348 0.15608495 0.13431178 -0.106105335
000140 e1 7a d5 3d 86 ae 56 be 3d fc 8e bd d9 99 12 3e
       0.10423828 -0.20965013 -0.069817044 0.143165
000150 cd 6a 04 3e 54 f8 24 3e 71 29 9f 3d ab 4e 49 be
       0.12931366 0.16110355 0.07771576 -0.19658916
000160 e0 5e 8e bd 98 3b 94 3e 86 28 ee bc af 0e af 3d
       -0.0695169 0.28951716 -0.029072057 0.085477225
000170 86 01 0b 3d be bf 3d 3e 1e a1 b3 bc f6 4a d3 be
       0.033937 0.18530175 -0.021927413 -0.41268128
000180 c2 75 b6 be b1 2a da bc 8d 07 cc 3c 1f bd 81 bd
       -0.35636717 -0.026631685 0.024905944 -0.063349
000190 9d 26 06 3d 14 a3 db bc 12 02 df bd 1c f9 ce bb
       0.03275167 -0.02681116 -0.10889067 -0.0063163172
0001a0 91 cf 1b 3c e4 e0 c8 3b 19 c5 66 3e 19 21 62 bd
       0.009509937 0.0061303247 0.22536124 -0.055207346
0001b0 6f 61 89 bd 00 65 98 38 8f 40 25 be 75 cc 32 be
       -0.06708037 7.2667375e-05 -0.16137908 -0.17460807
0001c0 a3 f9 a2 bc 4b 34 46 3d 66 8c cb bd bb 7d 58 be
       -0.019894427 0.048389714 -0.09938888 -0.21141712
0001d0 b9 95 a0 be d0 80 a5 bc 3d a7 a0 bd 7d 21 3c 3e
       -0.3136423 -0.020203024 -0.07844398 0.1837215
0001e0 04 a2 47 bb 75 56 65 be c7 9b 92 bd 68 63 85 3d
       -0.003046156 -0.22396262 -0.071586184 0.06513101
0001f0 e5 39 c3 3d 52 0b 2b be 4c 6a 06 3e 4e 27 ef bd
       0.09532527 -0.16703537 0.13126487 -0.11677419
000200 6a 05 77 bc 08 13 09 bc 37 17 2a 3d 40 fc 29 3e
       -0.015076974 -0.008366354 0.041526046 0.16600132
000210 ee 0c b3 bd a2 fc 05 bc f4 5d 99 3d e5 ea 82 be
       -0.087427005 -0.008177908 0.07488623 -0.25569835
000220 7c 99 b5 3d f7 87 31 bd 16 33 31 bd 27 46 13 be
       0.088671654 -0.043342557 -0.04326161 -0.1438223
000230 c3 16 bf 3d fb d1 99 bb 1e 91 3c 3e d8 e1 fa bb
       0.09330513 -0.004694221 0.18414733 -0.007656317
000240 50 18 05 bd 63 ce d4 3b 26 81 92 3e f1 06 0e 3e
       -0.03249389 0.00649433 0.28614157 0.13869835
000250 06 fc 31 3c 6d f5 48 3e 52 6b b2 3d b1 90 e9 bd
       0.01086331 0.19624873 0.08711876 -0.11404551
000260 17 c0 50 3e 7b a2 02 be 9d 65 05 bf 5a bc 49 3d
       0.20385776 -0.12757294 -0.52108175 0.04925189
000270 f3 df ed 3d b0 92 1f bd 1a 19 76 3e 99 63 d7 3d
       0.116149805 -0.03895825 0.24033013 0.105170436
000280 09 14 33 3e 91 2b 33 3c d4 54 b0 3d ae 1b 1f be
       0.17488112 0.01093568 0.0860993 -0.15537903
000290 fc 61 37 3d 0b 1f 7d 3c 33 17 a3 bb 93 52 dd bd
       0.04477118 0.015449296 -0.004977131 -0.108067654
0002a0 9c b5 54 3d 18 13 fc 3d fc 64 db bc f7 21 c6 3d
       0.05193101 0.12308329 -0.026781552 0.09674447
0002b0 ca 11 57 3e 9b 69 d8 3d dc 52 32 3e d5 34 cc bd
       0.2100288 0.10567018 0.17414421 -0.099710144
0002c0 a4 98 08 bd 3c 5f a4 3d 32 71 0d be c4 2c 00 3e
       -0.033348694 0.08025977 -0.13812712 0.12517077
0002d0 2f ba b6 bd a1 ec 13 bd c6 64 06 be 9f 2d 85 bd
       -0.089222305 -0.03611434 -0.1312438 -0.06502842
0002e0 59 dc bd 3c f7 af e9 3d 80 42 c9 3d cf 3d 11 be
       0.023176359 0.11410516 0.09827137 -0.14183734
0002f0 20 5c 35 be 6f 47 e2 3c 0e 6d 23 3d bb a9 24 3d
       -0.17710924 0.027621953 0.039898925 0.04020093
000300 63 09 8b 3c bc e9 ce 3c 3e 11 3f 3d 07 9c 42 3c
       0.01697225 0.025257938 0.046647303 0.01187802
000310 a2 7e 77 bc 00 e3 86 bd 28 a8 eb bd 18 20 f9 bd
       -0.015105875 -0.065862656 -0.11506683 -0.121643245
000320 2a c2 35 bd de 4c 58 3d 11 d7 7a 3d f5 bb 4a 3d
       -0.044374622 0.05280768 0.06124026 0.049495656
000330 81 66 18 be 08 9b bd 3d 28 13 0a 3e f9 f8 91 bd
       -0.14882852 0.092580855 0.1348387 -0.07127566
000340 a4 2a 42 3d ba e3 84 be d5 85 de bd 5e 0a 13 3d
       0.047403947 -0.25954992 -0.1086537 0.03589856
000350 21 ef 58 3c d8 75 23 3e a4 9f c6 3d 7a 3b 9e bd
       0.0132406065 0.15962923 0.09698418 -0.07726188
000360 1c 28 3c 3d ed f0 6c 3e 40 b0 76 3d bd 97 93 3d
       0.04593669 0.23138781 0.06022668 0.07206676
000370 c7 1c d1 3c 77 50 e3 3d 9f 16 8b bc 38 dc 86 be
       0.025526417 0.11099332 -0.01697856 -0.2633989
000380 2e 15 8b be 34 96 c5 3d 42 d5 9e bd d2 74 03 bd
       -0.27164596 0.096477896 -0.077555194 -0.03209383
000390 73 e7 62 bd 4b 23 97 3d 50 c9 1c bd 37 89 fe bd
       -0.05539651 0.073797785 -0.038277924 -0.124285154
0003a0 94 b7 91 3d 17 a0 ab bd 40 0a dd 3d 8c e9 83 bd
       0.07115093 -0.08380144 0.10792971 -0.0644103
0003b0 57 97 53 bd 06 6d d9 3b c1 4b bf bd bc 32 34 be
       -0.051658 0.006635311 -0.09340621 -0.17597479
0003c0 f4 ef b4 bd 95 04 a3 3b f8 e0 df bd d2 3a 89 be
       -0.0883483 0.0049749115 -0.10931581 -0.2680269
0003d0 a2 3c 80 be f1 ad b5 3c 84 ef 51 3b 4d 98 a3 3d
       -0.2504626 0.022177668 0.0032033632 0.079880334
0003e0 76 51 b1 3d 19 b0 85 be 33 41 18 be 23 85 17 3e
       0.086581156 -0.26110914 -0.14868622 0.14796881
0003f0 84 1c 00 3e 84 34 00 be 4b 84 3e 3d 1d 4d fc bc
       0.12510878 -0.12520033 0.046512883 -0.03079849

weight_hh_l1 f4 [512, 128]
000000 30 a4 f0 3c 72 9d 64 3d a0 ac e3 3c 16 42 16 3d
       0.029375166 0.055814214 0.027792275 0.03668412
000010 c0 f7 ec 3a 08 9f 8f 3c 5f 10 95 3d a2 23 5d 3d
       0.0018079206 0.017531887 0.07278513 0.05398906
000020 20 b0 ba bc 8e b4 06 3d 00 a7 5d ba e4 23 c4 3c
       -0.022789061 0.032887034 -0.0008455366 0.023942895
000030 29 4d af 3d 89 06 5c bd 00 1f 1e 3c d5 64 30 bd
       0.08559639 -0.05371717 0.009650946 -0.04306491
000040 e0 4c 98 bb e8 c4 b3 bd 71 8d 9f bd 11 a8 8f bd
       -0.004647836 -0.08777791 -0.0779065 -0.07014478
000050 9b 95 88 bd 52 43 56 3d 90 99 e5 bc 78 66 44 bc
       -0.0666916 0.052310295 -0.028027326 -0.011987321
000060 82 66 77 3d 58 10 08 3c a0 1a 00 3d 37 ad 18 bd
       0.060400493 0.008304678 0.03127539 -0.037274566
000070 48 c0 0d 3d d7 31 92 bd 8e 06 3d bd 14 9e 95 bc
       0.0346072 -0.071384124 -0.04614883 -0.018263854
000080 08 87 bb 3c 88 a0 34 bc 9f 46 61 bd f0 80 a0 bb
       0.022891536 -0.011024602 -0.05499899 -0.004898183
000090 78 b4 10 bc 1c b7 81 bc d4 24 8a bd e0 d8 80 3b
       -0.00883209 -0.015834384 -0.06745306 0.0039321035
0000a0 e0 16 72 bb c6 12 55 3d e0 fb 02 3b 77 a0 9f 3d
       -0.0036939904 0.052019857 0.0019986555 0.07794278
0000b0 7f ae 97 3d 2b 6c 2e bd 7a 23 23 3d df d1 ac 3d
       0.07406329 -0.042583626 0.039828755 0.08438467
0000c0 de 6e 78 3d 27 96 06 bd e6 4e 50 bd 80 bd cb ba
       0.060652606 -0.03285804 -0.050856493 -0.0015544146
0000d0 22 b3 06 bd d8 2c 07 bd 10 c9 ab 3c 52 92 70 3d
       -0.032885678 -0.03300175 0.020969898 0.058733292
0000e0 66 26 98 bd ea 3a b2 bd 17 28 84 3d 04 3c 93 3c
       -0.07429199 -0.08702643 0.06452959 0.017972954
0000f0 22 c5 4a 3d 30 a0 86 bb ac a8 12 bd 50 0c 8d 3b
       0.049504407 -0.0041084513 -0.03580539 0.0043044463
000100 80 5b ea 3a c0 f3 fa bb d8 67 6a bd 60 ae 4b bd
       0.0017880052 -0.007658452 -0.05722794 -0.049726844
000110 d2 7a 26 3d f4 1b c9 3c ce 43 36 3d 4a 7a 9a bd
       0.040644474 0.024549462 0.044498257 -0.07542856
000120 80 b5 44 bc 24 96 ab 3c 52 1e 02 3d 2e b0 7e 3d
       -0.012006164 0.020945616 0.031767197 0.062179737
000130 c7 97 5c bd 18 19 9a bc 08 d2 68 bc f4 04 56 bd
       -0.053855684 -0.018810794 -0.014210232 -0.052250817
000140 7a eb 64 3d 70 1b 2a bc ea 0d 4a 3d 6a 49 5a 3d
       0.05588863 -0.010382518 0.049329676 0.05329267
000150 7f a9 8f bd d2 d8 61 3d 2c 3d da 3c d2 b4 3a 3d
       -0.07014751 0.055138417 0.026640497 0.0455826
000160 f8 9c d8 bc 00 21 7d bb 37 fb 9b 3d c0 2a 0f 3b
       -0.026442036 -0.0038624406 0.07616275 0.002184555
000170 e8 40 bb bc 87 bd 0b bd 5a 8e 52 3d 40 d1 5b 3c
       -0.022858098 -0.034116294 0.05140529 0.013416588
000180 62 72 56 3d 50 c5 81 3b 3a 10 5f 3d f4 ec a2 bc
       0.052355178 0.003960289 0.054458834 -0.019888379
000190 76 b4 37 3d ba 57 16 3d 42 9b 40 3d 18 14 de bc
       0.044849835 0.036704756 0.047023065 -0.02710919
0001a0 df 66 aa bd 3a 45 26 3d 30 5c 88 3c f0 c4 8a 3c
       -0.08320402 0.040593363 0.01664552 0.01693961
0001b0 98 b2 84 bd e0 67 16 bc e0 b2 50 3b 4a 30 56 3d
       -0.064793766 -0.009180039 0.00318449 0.052292146
0001c0 5c 55 31 bd 90 c7 29 3c 44 e1 9e bd ae 16 57 bd
       -0.043294296 0.010362521 -0.0775781 -0.052511863
0001d0 10 71 5b bc 40 08 f6 bc 54 10 91 bd ac 06 c5 bc
       -0.013393655 -0.03003323 -0.070831925 -0.024051033
0001e0 de 1e 3e bd 40 0c 6c 3c 36 d2 77 3d e6 d8 39 3d
       -0.046416156 0.0144072175 0.060503207 0.045372866
0001f0 30 fb 11 bd 5e 74 25 3d 89 d7 11 bd 40 fe 1b 3b
       -0.03563994 0.04039418 -0.03560594 0.0023802668
000200 36 be 25 3d 58 99 81 bd 20 94 f8 3c 96 34 7c 3d
       0.040464602 -0.06328076 0.030344069 0.061573587
000210 2c 3b c1 3c 7f 22 91 3d 06 31 a8 bd e0 23 c2 bb
       0.023587786 0.07086658 -0.082124755 -0.005924687
000220 20 51 13 3b 45 91 9e bd 40 92 03 bc d4 c1 49 bd
       0.0022478774 -0.07742552 -0.008030474 -0.049257115
000230 10 54 d2 bc 2e 56 60 3d cc 27 a1 bd a1 f7 a1 3d
       -0.02567485 0.054769687 -0.07868919 0.079085596
000240 80 26 8b bc 8a 6d 7f 3d 8f fb b1 bd 38 be ae bc
       -0.016986132 0.062360324 -0.08690559 -0.021330938
000250 68 ec 2e bc 38 f7 1a 3c 37 b4 1b bd 30 a7 cd bc
       -0.010676481 0.009458356 -0.038013663 -0.025104135
000260 00 c1 5f 3c 24 3a 06 3d 80 63 02 ba c3 b8 4f bd
       0.013656855 0.03277029 -0.0004973933 -0.050713312
000270 74 57 8b bc 00 b3 7d bb f8 7d 9e bd d8 ef 6d 3c
       -0.017009474 -0.0038711429 -0.077388704 0.014522515
000280 7e a8 62 3d bf 7d 90 3d 0e 00 65 3d 0f 89 ae bd
       0.055336468 0.07055234 0.055908255 -0.085222356
000290 2d 1e b3 3d da b3 6c 3d 76 a1 64 bd 3c f6 df 3c
       0.0874599 0.057788707 -0.055818044 0.027339093
0002a0 2b 6b 99 3d e8 0e 57 3c 54 0f e0 bc 98 d2 7d bc
       0.07491144 0.0131261125 -0.027351059 -0.015492104
0002b0 80 0e 97 ba 28 0c 1f bd 90 23 1a bd 74 a1 f9 3c
       -0.0011524707 -0.038829952 -0.03763157 0.030472495
0002c0 c0 1b ee 3a 00 7e ef 39 c0 d7 4d 3c 90 f0 5f 3c
       0.0018166229 0.0004567951 0.012563646 0.013668194
0002d0 89 92 33 bd b0 bd 29 bc 10 45 a4 bb 25 8b ad bd
       -0.04384092 -0.010360166 -0.0050131157 -0.08473805
0002e0 29 81 5a bd 3e d2 80 bd e2 81 24 3d 42 6c 55 3d
       -0.053345833 -0.062901005 0.04016293 0.052105196
0002f0 ac 6f b7 bc 96 8b 43 3d f6 90 43 bd 00 34 db ba
       -0.022392116 0.04774054 -0.047745667 -0.0016723871
000300 11 ae 18 bd 80 a8 7d bc a6 28 61 bd 9d c0 b1 bd
       -0.037275378 -0.015482068 -0.054970406 -0.08679316
000310 32 a9 e4 bc 10 a6 24 3c c0 1c a0 bb 63 04 a3 bd
       -0.02791271 0.010049358 -0.0048862398 -0.07959821
000320 5e ea 5f 3d 44 0f 2f bd 39 24 90 3d 71 1f 97 bd
       0.05466687 -0.042739168 0.07038159 -0.07379044
000330 c2 69 a1 bd c0 4d c6 ba 4a eb fc bc 78 c8 c4 3c
       -0.078815 -0.0015129372 -0.030873913 0.024021372
000340 78 75 f0 3c 08 2c 49 3c 68 c4 97 3c fd 92 9a 3d
       0.029352888 0.012278564 0.018526271 0.07547567
000350 23 01 1c bd 52 02 d7 bc e0 e9 0e bb d9 74 07 bd
       -0.03808702 -0.026246224 -0.002180688 -0.03307042
000360 f8 cc ca bc bc ac b1 3c 6e d4 43 3d 54 4d 01 3d
       -0.02475594 0.021688811 0.04781001 0.031567886
000370 56 e0 7f 3d ee 81 8a bd 5e 6a 0b 3d 7a 37 7b 3d
       0.062469803 -0.06763063 0.034036987 0.061332203
000380 ce 66 6a bd c4 1f e9 3c 80 1f f1 3a 86 32 12 3d
       -0.05722695 0.02845753 0.0018396229 0.035692714
000390 b7 6d 89 3d d6 1f 79 3d 38 33 83 3c a9 1a 85 3d
       0.067103796 0.060821377 0.016015634 0.06499226
0003a0 e8 31 6b 3c 9a c5 53 bd c1 e0 91 3d 62 8d b3 bd
       0.01435516 -0.05170212 0.071229465 -0.08767201
0003b0 16 3c 3f bd 14 4b 9b bd 4f 8f 9b 3d 14 32 34 bd
       -0.04668816 -0.075826794 0.07595693 -0.04399307
0003c0 5a 50 55 3d f2 47 71 3d a4 af f5 3c 04 c2 9e bd
       0.052078582 0.058906503 0.029990979 -0.07751849
0003d0 00 45 82 ba 8a a8 9f bd 66 0d 65 3d 30 06 71 bc
       -0.0009938776 -0.07795818 0.05592098 -0.014710948
0003e0 d0 37 e8 bb 40 fd fa 3c 42 ae 22 bd 9e d5 89 bd
       -0.0070867315 0.030638337 -0.039716966 -0.06730197
0003f0 f0 9f 47 3c bc 73 81 3c f6 ca 93 bd 9e e8 56 3d
       0.012184128 0.015802257 -0.07216446 0.052467935

bias_ih_l1 f4 [512]
000000 48 cf 41 bd c9 2f 28 bd 98 0e b7 3d 73 06 25 3b
       -0.04731682 -0.041061196 0.089383304 0.0025180846
000010 c1 43 17 bd 5c a2 58 3c 93 bc 8b 3d 33 16 84 3c
       -0.03692985 0.013222303 0.06823077 0.016123867
000020 a2 7e 87 3d f9 98 52 bb 0a 1d d3 3d d0 a9 f2 bb
       0.0661595 -0.0032134636 0.10308273 -0.007405497
000030 8e 49 45 bc 37 2b c2 3d f4 c3 c1 3d 5b f4 a2 3b
       -0.012041463 0.09480899 0.09461203 0.004972977
000040 00 f5 d8 3d 61 e9 b0 3d a8 d9 cc 3c 90 9a b7 3d
       0.10593605 0.086382635 0.02500613 0.08965027
000050 b0 32 66 3d 5b 6e ab 3d 9b 16 90 3d 80 0d f6 3d
       0.056200683 0.08370658 0.07035562 0.12014294
000060 20 51 e0 3d eb 3c bb 3d b4 1a a3 3d a6 f1 86 3d
       0.10952973 0.091424786 0.079640776 0.065890595
000070 d2 45 d7 ba cf c6 73 3d ed 65 b5 3d b3 9e 1c bd
       -0.0016424006 0.05951577 0.088573314 -0.038237285
000080 21 76 ba 3d ae ce 71 3d 4c 1c cb bc 75 83 8c bd
       0.091045626 0.059034996 -0.024793766 -0.06861011
000090 9e de 91 3c bd 50 d0 3d b2 cf a8 3b b9 c8 49 3c
       0.017806347 0.101716496 0.0051517123 0.012315922
0000a0 c3 f3 b3 bc 4e 2b a8 3d 1f 8c 1c 3d 1f 89 91 bd
       -0.02196682 0.08211385 0.038219567 -0.07106232
0000b0 37 ea 7e 3d 0b e2 05 3e 3b e9 79 bd a5 dd c8 bc
       0.062235083 0.1307451 -0.06101344 -0.02451975
0000c0 73 50 03 3d 9c 7c ad 3d 6f 2b 4e 3d 43 e4 6f 3d
       0.032059144 0.08471033 0.05033439 0.058567297
0000d0 5f 48 c9 3d ff 32 35 3d 21 09 b6 3d 1f 7e ad 3d
       0.09828257 0.044238087 0.0888846 0.08471321
0000e0 d2 87 28 bd 54 76 8c bb 6d 5a 9e bc 1c 90 d5 3d
       -0.041145153 -0.0042865667 -0.019330228 0.10427877
0000f0 ce 6a ea 3d 15 2b 89 3d 4b 2c f3 3c 9d 2d 19 bd
       0.114461526 0.0669767 0.029684206 -0.037397016
000100 36 31 ac 3c 03 97 45 3d 34 d4 9e bb 36 07 d4 3c
       0.02101956 0.04823972 -0.004847074 0.025882345
000110 cf 1c 62 bb 0e 0d f7 bc ac 2b e6 3d a8 6f 7b 3d
       -0.0034502035 -0.030157592 0.112387985 0.06138578
000120 23 49 d9 3c 6a 17 4d 3c 8b 5b 35 3d 65 97 af 3b
       0.026524132 0.012517789 0.044276755 0.005358624
000130 48 5d 60 bc 88 bc 1e 3c d2 f2 cb bc 60 19 3b 3d
       -0.013694115 0.009688504 -0.02489606 0.045678496
000140 90 7d de 3d f1 08 f8 3d be e8 3c 3d 6f 96 f5 3b
       0.10863793 0.121110804 0.046120398 0.0074947397
000150 a1 ea 70 bb 51 8c f8 3c 04 4d da 3d 11 3e c9 3d
       -0.0036760943 0.030340346 0.10659221 0.09826291
000160 b6 b3 28 bd 25 09 22 bd b2 45 9c 3d 6c bf df 3c
       -0.04118701 -0.039559502 0.07630481 0.027312957
000170 39 7a 2f 3d 74 c1 ec 3b 8e e3 61 bd 4a 4a aa 3d
       0.04284117 0.00722521 -0.055148654 0.08314951
000180 fe 89 13 3e 4f 33 18 bd ce 39 86 3d e5 ac 05 3e
       0.14408109 -0.037158307 0.06553994 0.13054235
000190 d8 3a 03 3e 0b 0e d7 3d a8 58 9d bc 8a 4f ec 3c
       0.12815416 0.10500725 -0.019207314 0.02884652
0001a0 d9 cd a6 3d 57 71 4d bc aa 3e a9 3c 27 5e ed 39
       0.08144731 -0.012539229 0.020659763 0.00045274312
0001b0 0c b4 b0 3d b9 b0 1e bd 89 83 8f 3d 6f fa f7 3d
       0.08628091 -0.038742755 0.0700751 0.12108313
0001c0 d5 2d e5 bb 97 25 91 3b 23 38 eb 3d 2d 74 01 3e
       -0.006993989 0.00442953 0.114853166 0.12641974
0001d0 98 d6 3a bc 07 29 1e 3c 77 a8 a6 3c 16 2e ca bc
       -0.011403702 0.009653336 0.020344002 -0.024680179
0001e0 cf 7f 58 3c e3 0b c9 3d c9 df 97 bb ef 01 d8 bc
       0.013214066 0.0981672 -0.0046348316 -0.02636811
0001f0 89 2f 46 3d 67 12 c5 3c 8a b6 92 3d 8c 87 b5 3c
       0.048385177 0.024056626 0.07163723 0.02215936
000200 cd d8 9e 3d 17 91 ae 3d 60 96 ee 3c 02 a5 4e 3d
       0.07756195 0.085237674 0.029124439 0.050450332
000210 5e d3 96 bd c0 95 2e bb 80 cb 3e bd ea 23 63 3d
       -0.07364534 -0.002663955 -0.04658079 0.055454172
000220 9e e2 0a 3d 24 34 87 bc 6c ae e6 bc 50 04 00 bd
       0.033907525 -0.016504355 -0.028159343 -0.031254113
000230 48 74 0e bd 25 95 92 bd 26 42 21 3d d2 91 ec bc
       -0.034778863 -0.07157353 0.039369725 -0.028878126
000240 bb 92 89 3d 18 b1 c1 bc c9 87 9b 3d d4 8d b7 bc
       0.0671744 -0.023644015 0.07594258 -0.022406496
000250 f0 35 42 bd 20 45 f0 bb 88 d8 cd bc 40 af df bc
       -0.04741472 -0.007332459 -0.025127664 -0.027305245
000260 a8 e5 19 bc 90 39 ef 3c d9 ad ab 3d 65 c8 92 3d
       -0.009393133 0.029202253 0.08382768 0.071671285
000270 0e b0 55 bd db e9 aa 3d 00 e0 69 37 48 54 71 bd
       -0.052169852 0.08345386 1.3940036e-05 -0.058918267
000280 2f f5 ac 3d 14 d3 79 bd aa 31 68 3d 1c 3d 14 3d
       0.084452026 -0.060992315 0.05668799 0.03619109
000290 cc b7 f2 3c cc 31 fa bc 58 35 af bd 00 43 b0 3c
       0.029628657 -0.030541323 -0.085550964 0.021516323
0002a0 8c 17 fd 3c 7e d3 4b 3d c2 e5 72 3d 12 74 0a 3d
       0.030895017 0.04976224 0.059301145 0.0338021
0002b0 50 4a 4e 3c 30 ae 80 bb 60 2c a2 bd 59 6b b0 3d
       0.01259096 -0.003927015 -0.0791862 0.08614225
0002c0 4c 92 13 3d 34 5c 12 3d ae 64 23 bd f8 9c 44 bc
       0.03602819 0.035732463 -0.039890938 -0.012000315
0002d0 2f fa 0f bd 10 d7 96 3c 26 42 69 bd 00 fe af bd
       -0.035150703 0.018413097 -0.05694785 -0.085933685
0002e0 b8 da 85 bd 8c fa 8b bd c6 9c 30 3d f0 88 fb 3c
       -0.06535858 -0.068348974 0.04311826 0.030704945
0002f0 16 b0 39 3d 4c 38 c0 bc c0 87 c2 3b ce e5 41 3d
       0.045333944 -0.023464344 0.005936593 0.0473383
000300 74 c0 ae 3c be 2b 74 bd 0a 53 4c 3d 4f f7 a7 3d
       0.021332003 -0.05961203 0.04988388 0.08201467
000310 b0 58 a4 bb 23 03 83 3d a9 0c 44 bd 46 67 73 bd
       -0.005015455 0.06397083 -0.047863636 -0.05942466
000320 12 11 61 3d ad 69 55 bd fb 6a 94 3d e0 eb 5f 3b
       0.05494792 -0.052102733 0.072469674 0.0034167692
000330 66 af a7 bd 91 36 7f bd f0 53 01 bc d2 65 34 3d
       -0.081877515 -0.062307898 -0.007893547 0.044042416
000340 52 f3 23 3d 3e 07 27 bd d2 02 70 3d 4d e0 54 bd
       0.04002697 -0.04077839 0.05859644 -0.051971722
000350 25 9a 53 bd b3 cd b1 3d b5 1f 09 bd d4 65 10 3d
       -0.051660676 0.08681812 -0.033477504 0.03525336
000360 20 70 a0 bb a0 8b 5b bb 1c 2c c2 3c d0 0f c3 bb
       -0.004896179 -0.003349997 0.023702674 -0.0059528127
000370 f0 3a d9 3b 43 46 85 3d 9d 45 1a bd f8 81 e3 3c
       0.0066293404 0.06507542 -0.037664045 0.027771935
000380 74 ee e2 3c 80 9a 9d bc 50 3a 5f bd 20 12 3f 3c
       0.027701594 -0.01923871 -0.05449897 0.011662036
000390 46 b9 a1 bd e6 0b 09 bd ca 6e 44 3d b0 ac 00 bc
       -0.07896666 -0.033458613 0.04795722 -0.007853672
0003a0 c7 27 99 bd b0 79 c7 bb 76 ef 5e bd e8 8d 8b 3c
       -0.0747829 -0.0060875043 -0.054427586 0.01703544
0003b0 bc 6d fd 3c 06 92 12 3d c0 3e 43 bb 93 7e 87 3d
       0.030936114 0.03578379 -0.002979204 0.06615939
0003c0 b0 88 a3 3b 4e 21 18 3d d0 91 32 bd e8 70 0b bc
       0.0049906597 0.037141137 -0.04359609 -0.008510806
0003d0 e5 42 a5 3d 3a 62 30 3d d4 f7 09 3d 8e 64 d8 bc
       0.080694 0.043062426 0.033683613 -0.026415136
0003e0 1f 76 9b 3d 30 46 f0 3b 19 dd 64 bd 91 77 4c bd
       0.07590889 0.0073325858 -0.055874918 -0.049918715
0003f0 f0 df 29 bd e2 d7 1a 3d 30 be 84 bd 5a 63 72 3d
       -0.04147333 0.03780354 -0.06481588 0.05917678
