Model/MLP.pth (torch, 69287 bytes, 7 tensors)

weight f4 [100, 11]
0	0x3e14360d	0.14473744
1	0xbe002217	-0.12513004
2	0xbe922323	-0.28542432
3	0x3e3cae88	0.18425953
4	0xbe3cc894	-0.1843589
5	0xbd174bcd	-0.036937524
6	0x3e1c95e6	0.15291557
7	0x3c9a12b3	0.018807745
8	0xbe6161c7	-0.22009955
9	0x3c6df315	0.014523287
10	0x3d53f614	0.05174835
11	0x3df6fc0a	0.120597914
12	0xbd80c7fa	-0.062881425
13	0xbe83f9e6	-0.25776595
14	0xbe4be672	-0.19912127
15	0xbdc3ffc8	-0.09570271
16	0x3e149580	0.14510155
17	0x3e78110a	0.2422525
18	0xbe981cd6	-0.297095
19	0xbe109ef0	-0.1412313
20	0xbdcd1a7d	-0.10014818
21	0xbcb235c2	-0.02175415
22	0x3e0b1714	0.13583022
23	0xbd636701	-0.055518154
24	0xbd916b18	-0.07100505
25	0xbe3b6ce3	-0.18303256
26	0x3e1c570f	0.15267585
27	0xbc97a976	-0.018513422
28	0xbdf728c4	-0.12068322
29	0x3e97af50	0.2962594
30	0xbe84f961	-0.2597151
31	0x3d9c665a	0.076367095
32	0xbd44d3e0	-0.048053622
33	0x3d7e544c	0.06209211
34	0xbe612101	-0.21985246
35	0xbe80731a	-0.25087816
36	0x3c0e77de	0.008695571
37	0xbe301cd4	-0.17198497
38	0xbe930c50	-0.2872033
39	0x3cdb5d3b	0.026777854
40	0xbe8e41b3	-0.277845
41	0x3e167425	0.14692743
42	0x3d440e80	0.04786539
43	0xbc3d2a24	-0.011545692
44	0xbd3cb748	-0.046073228
45	0x3e1de5cc	0.15419692
46	0x3ddc5fce	0.10760461
47	0x3db58898	0.08863944
48	0x3e708f50	0.2349217
49	0x3e060e53	0.13091402
50	0xbd8b213a	-0.06793447
51	0xbb0f4474	-0.002186087
52	0xbcbb64dc	-0.022875242
53	0x3c8ada7a	0.01694988
54	0x3d0b3140	0.033982515
55	0x3e488e4a	0.19585529
56	0x3d1e6208	0.03866771
57	0x3ddc1bd5	0.10747496
58	0x3c1b4d07	0.009478814
59	0xbdb0fde7	-0.08642178
60	0xbe82b6f6	-0.25530213
61	0x3db0c45f	0.08631205
62	0x3cb948b1	0.02261767
63	0xbd0d2239	-0.034456465
64	0x3e83e0c6	0.25757426
65	0x3d38ea70	0.045145452
66	0xbe00389a	-0.12521592
67	0xbe4ae659	-0.19814433
68	0x3c9e420f	0.019318609
69	0x3de28f4c	0.11062488
70	0x3e6db0ad	0.23211928
71	0x3e3e421e	0.18579909
72	0xbe4f9906	-0.20273218
73	0xbcd5f2fa	-0.026116837
74	0xbe8e74f1	-0.27823594
75	0x3e881b46	0.26583308
76	0x3da9f331	0.08298338
77	0x3df56566	0.11982231
78	0x3e8467bc	0.25860393
79	0x3c1ddd04	0.009635214
80	0xbe882561	-0.26591018
81	0x3db7b5a1	0.0897019
82	0xbe395d4e	-0.18101999
83	0xbc3aaaad	-0.011393231
84	0xbe2b875b	-0.16750853
85	0x3e2d9a6b	0.16953437
86	0x3e306f55	0.1722997
87	0xbd29527e	-0.041338436
88	0x3d99f1b2	0.07516803
89	0xbdb51a95	-0.08842961
90	0xbe6414d4	-0.2227357
91	0x3e76defa	0.24108496
92	0x3e1c05b0	0.15236545
93	0xbd786ffd	-0.060653675
94	0xbde2066e	-0.110363826
95	0xbd0a8f8f	-0.033828314
96	0xbe2dae74	-0.1696108
97	0x3e8ad443	0.27115068
98	0x3e86d8bf	0.2633724
99	0xbd19f39f	-0.03758585
100	0x3dc37d50	0.09545386
101	0x3e571c6c	0.21006936
102	0x3da1f714	0.079084545
103	0xbe2aa36b	-0.16663902
104	0xbe8b9a81	-0.27266315
105	0xbe877a68	-0.26460576
106	0xbe2ab28f	-0.16669677
107	0xbe10e35c	-0.1414923
108	0xbd1f7918	-0.038933843
109	0xbe70b135	-0.23505099
110	0x3e8ededc	0.27904403
111	0x3bb28573	0.0054480373
112	0xbd0c0e2c	-0.034193203
113	0x3e7faf80	0.24969292
114	0xbd284aaf	-0.04108685
115	0xbe82cc5c	-0.2554654
116	0xbe887566	-0.26652068
117	0x3e3c1ef3	0.18371181
118	0xbdaf5e47	-0.08562904
119	0xbd2d89e3	-0.042367827
120	0x3dd78ff0	0.10525501
121	0xbde59d07	-0.11211591
122	0xbe6dbf94	-0.23217613
123	0x3db06432	0.08612861
124	0xbe2e432b	-0.1701781
125	0xbe578c3c	-0.21049589
126	0xbe74960d	-0.23885365
127	0x3e1dcd7d	0.15410419
128	0xbe0bd330	-0.1365478
129	0xbe9279fe	-0.28608698
130	0xbd7db855	-0.06194337
131	0xbe22ce81	-0.15899087
132	0xbd57277c	-0.05252789
133	0x3e8c9a43	0.27461442
134	0x3e357529	0.17720474
135	0xbe81a838	-0.25323653
136	0x3e8605c5	0.26176277
137	0x3d982448	0.07428795
138	0xbe95c321	-0.29250434
139	0x3df45806	0.11930852
140	0xbd8e5a00	-0.0695076
141	0xbd329c1d	-0.043605912
142	0xbda2bdf6	-0.079463884
143	0xbe64fcaf	-0.22362016
144	0x3da6c8ef	0.08143794
145	0x3e963cc6	0.2934324
146	0xbe9557d4	-0.2916857
147	0xbe7b18bc	-0.24521154
148	0xbd8dee5c	-0.06930229
149	0x3e5aa870	0.21353316
150	0x3e748f45	0.23882778
151	0x3c089a86	0.0083376225
152	0xba9ab02c	-0.0011801771
153	0x3db2a08c	0.08722028
154	0xbd8c928b	-0.06863888
155	0xbc0d24c4	-0.008614723
156	0xbe57e0c1	-0.2108183
157	0xbdcfd63e	-0.10148285
158	0xbe5dc785	-0.21658142
159	0xbd8c0c00	-0.06838226
160	0x3e2e45de	0.1701884
161	0xbe876766	-0.26446074
162	0x3e2abd2d	0.16673727
163	0xbc48621c	-0.012230422
164	0x3e525342	0.20539573
165	0x3d0d723f	0.03453278
166	0xbe96f618	-0.2948463
167	0x3db6105e	0.088898405
168	0x3dbedbf9	0.093193
169	0xbb24ea01	-0.0025163891
170	0xbe074600	-0.13210297
171	0xbdb4565e	-0.08805536
172	0xbe06450c	-0.13112277
173	0xbde470ee	-0.11154352
174	0xbe76e813	-0.24111967
175	0x3d509e3e	0.05093216
176	0x3ddf0b0d	0.1089078
177	0x3d42ced4	0.047560528
178	0xbe69d3a9	-0.22834648
179	0x3e84d5f0	0.2594447
180	0x3e81160c	0.25212133
181	0x3d4d0bf0	0.050060213
182	0xbe934746	-0.28765315
183	0xbde80198	-0.11328429
184	0x3e6862ee	0.22693989
185	0x3e57e310	0.21082711
186	0xbe5726eb	-0.2101094
187	0x3e97d097	0.2965133
188	0xbe07d5ac	-0.13265103
189	0xbd15c6c9	-0.03656653
190	0xbdd66e8e	-0.104703054
191	0xbe8525e4	-0.2600547
192	0xbe56a67b	-0.20961945
193	0x3df68de6	0.12038784
194	0x3e60244d	0.21888848
195	0xbe220e50	-0.15825772
196	0x3e543144	0.20721918
197	0x3e94d934	0.29071963
198	0x3dd2f72c	0.103010505
199	0xbe939a33	-0.28828582
200	0xbdc8b536	-0.09800188
201	0xbe26534f	-0.16242717
202	0x3e0817cc	0.13290328
203	0xbe19a921	-0.15005924
204	0x3e92c1f2	0.28663594
205	0xbe929da4	-0.28635895
206	0xbdcfaf18	-0.10140818
207	0xbe5b9a45	-0.21445568
208	0xbe0e7e84	-0.1391545
209	0x3e336110	0.17517495
210	0x3e01ffb5	0.126952
211	0xbe20dd90	-0.1570952
212	0x3de72d0c	0.11287889
213	0xbe38ddeb	-0.18053405
214	0xbe79b012	-0.24383572
215	0x3e744a41	0.2385645
216	0xbe6f70c5	-0.23382862
217	0xbe27c8d3	-0.16385202
218	0x3d9f1001	0.077667244
219	0x3e03333e	0.12812516
220	0x3e5e5ca7	0.21715032
221	0x3d735c51	0.05941421
222	0xbe92f0c8	-0.28699327
223	0xbdfce29c	-0.1234791
224	0x3e2d4457	0.16920601
225	0xbe0bd1aa	-0.13654199
226	0x3e61aa00	0.22037506
227	0x3e41936a	0.1890389
228	0xbe50d7e1	-0.20394851
229	0xbe34665f	-0.17617176
230	0xbe1b0749	-0.15139498
231	0x3e8e231f	0.2776117
232	0x3e5aef16	0.21380267
233	0x3e4acede	0.19805476
234	0x3e43301e	0.19061324
235	0x3e878cbb	0.26474556
236	0xbd86d43b	-0.065834485
237	0xbe296b8f	-0.16544937
238	0xbe6d5997	-0.23178707
239	0x3e91a3ff	0.28445432
240	0xbe0e0da5	-0.13872392
241	0x3d5ec86f	0.054390367
242	0x3cdd66d4	0.027026571
243	0x3dc334da	0.09531565
244	0x3db8e2bb	0.090276204
245	0xbd3913bd	-0.04518484
246	0x3df278b2	0.11839427
247	0xbdf93b09	-0.12169463
248	0x3e3f0980	0.18655968
249	0x3e3da8a6	0.18521366
250	0x3dcf7ddb	0.10131427
251	0xbdbfd4f2	-0.09366788
252	0x3d7e71c0	0.0621202
253	0xbe85447f	-0.2602882
254	0x3e60e19a	0.2196106
255	0x3e8f2060	0.27954388

bias f4 [100]
0	0x3e90bba4	0.28268158
1	0x3c0b995b	0.0085204495
2	0x3dc651ad	0.09683547
3	0x3e4e57e8	0.20150721
4	0xbce6a247	-0.028153552
5	0xbceeb9c0	-0.029141307
6	0xbe6992a3	-0.22809844
7	0x3df3ad9e	0.11898349
8	0xbbc3724d	-0.0059645534
9	0xbe8f78ad	-0.28021756
10	0xbe1c694c	-0.15274543
11	0x3ddee366	0.108832166
12	0xbe665b20	-0.22495699
13	0xbd980c33	-0.07424202
14	0x3d73eab2	0.059549995
15	0x3e8166db	0.25273785
16	0x3e30b936	0.17258152
17	0xbdffb4f0	-0.12485683
18	0xbe14893a	-0.14505473
19	0xbd9b87ac	-0.07594237
20	0xbdcd56c2	-0.10026313
21	0xbe37563b	-0.17903988
22	0xbe3bdd55	-0.1834615
23	0x3aae4991	0.0013297071
24	0xbd06ac16	-0.032878958
25	0x3d07fdd0	0.03320104
26	0x3db318d6	0.087449715
27	0xbe961837	-0.2931535
28	0x3e269de1	0.16271164
29	0x3e0dc52a	0.13844743
30	0xbdc453e2	-0.09586312
31	0xbe4774b9	-0.1947812
32	0x3d0e9a1d	0.034814943
33	0xbe581f2b	-0.2110564
34	0x3e1d073b	0.1533479
35	0xbd8adb72	-0.06780137
36	0xbe8aa63b	-0.2707995
37	0xbdd15ba6	-0.10222559
38	0x3e2fff19	0.17187156
39	0xbd15d128	-0.03657642
40	0x3d7e5651	0.062094036
41	0xbb5567c4	-0.003256307
42	0xba7ae16e	-0.0009570335
43	0xbe5d86b7	-0.21633421
44	0xbdb5e73e	-0.088819966
45	0xbe74cac3	-0.23905472
46	0x3ddbb144	0.1072717
47	0xbe881dab	-0.26585135
48	0x3d92011b	0.07129117
49	0x3e4c6bec	0.19963044
50	0x3e94a76c	0.29033983
51	0xbe8f5c66	-0.28000182
52	0xbe830758	-0.2559154
53	0x3e450069	0.19238438
54	0xbe91225f	-0.28346536
55	0xbe8bd9fc	-0.27314746
56	0x3e066475	0.13124259
57	0xbe7b76f9	-0.24557103
58	0x3e6b5be2	0.2298427
59	0x3e773df0	0.24144721
60	0x3e5c5ada	0.21519032
61	0x3e3ed502	0.18635944
62	0xbe8e0a08	-0.27742028
63	0x3d85c6b4	0.0653204
64	0xbcdd6888	-0.027027383
65	0x3d795635	0.06087323
66	0xbe914533	-0.28373107
67	0x3e01cd93	0.12676077
68	0xbd45b4bd	-0.04826807
69	0xbc031f2d	-0.008003038
70	0x3db99ad3	0.090627335
71	0x3e8a6d5c	0.2703656
72	0x3df99ccd	0.121881105
73	0xbe87857a	-0.26469022
74	0xbe7105f4	-0.23537427
75	0x3ce60be4	0.028081842
76	0xbc42adc2	-0.011882247
77	0xbe80bfa0	-0.25146198
78	0xbe3175e0	-0.17330122
79	0xbc9173de	-0.017755445
80	0x3d4cb2e9	0.04997531
81	0x3e474500	0.19459915
82	0xbe2d34e4	-0.16914707
83	0x3e22d348	0.1590091
84	0xbe0097be	-0.12557885
85	0x3e829a92	0.25508553
86	0xbde5db88	-0.11223513
87	0xbe60eb4c	-0.21964759
88	0x3e8b3e2c	0.2719587
89	0x3dca0298	0.09863776
90	0xbe783aef	-0.24241231
91	0xbdb93404	-0.09043124
92	0xbda7f0be	-0.08200215
93	0xbd8b0e4b	-0.067898355
94	0xbd189374	-0.037249997
95	0xbd1b5cee	-0.03793042
96	0x3dfaa1b6	0.12237875
97	0x3e77f91f	0.24216126
98	0x3e3854d6	0.18001112
99	0x3e595589	0.21224035

weight f4 [100, 100]
0	0xbda592fe	-0.08084677
1	0xbd652c16	-0.055950247
2	0xbce6f41e	-0.028192576
3	0xbd59c346	-0.053164743
4	0xbd62f248	-0.05540684
5	0xbb9a0985	-0.004700842
6	0xbc45f475	-0.012082209
7	0xbda30c41	-0.079613216
8	0x3d84b53c	0.0647988
9	0x3daaaf01	0.083341606
10	0xbd15ec26	-0.03660216
11	0xbb71bb00	-0.0036885142
12	0x3d91d3fc	0.07120511
13	0xbd79dd13	-0.06100185
14	0xbdb55964	-0.088549405
15	0xbd03fb62	-0.03222216
16	0x3ce06c64	0.027395435
17	0xbd9d781c	-0.07688925
18	0x3d899b69	0.06719095
19	0xbd04f4b0	-0.032459915
20	0x3cd0c15c	0.025482826
21	0xbd19d2d0	-0.037554562
22	0x3d23583d	0.039879072
23	0x3d296cf7	0.041363683
24	0xbca65278	-0.020302996
25	0xbdc5baaa	-0.09654744
26	0xbd46d3e5	-0.048541922
27	0x3dc6fe2d	0.09716449
28	0xbd357da6	-0.04430928
29	0xbda9e0e8	-0.082948506
30	0x3d2cd303	0.042193424
31	0xbc5fefbe	-0.013667999
32	0x3d98d481	0.07462407
33	0x3dbab879	0.091172166
34	0x3db32dc9	0.08748967
35	0xbcdf7e2c	-0.027281843
36	0x3d7b3556	0.061330162
37	0x3d8fcf13	0.07021918
38	0xbdb2a31d	-0.08722518
39	0x3da9a9f5	0.0828437
40	0xbdc33ff0	-0.095336795
41	0x3d5604a0	0.052250504
42	0x3da9fdff	0.08300399
43	0x3d1fd90f	0.039025363
44	0xbd44b5ea	-0.04802505
45	0x3dc34c34	0.09536019
46	0xbc834c84	-0.016027696
47	0x3d03740d	0.032093097
48	0x3ae27108	0.0017276118
49	0xbd5a2bd1	-0.053264443
50	0xbd0f1529	-0.03493229
51	0x3cc93290	0.024560243
52	0x3d692d45	0.056927938
53	0x3d9b888b	0.07594403
54	0xbc34c68d	-0.011033666
55	0xba096df3	-0.0005242519
56	0xbcb13f86	-0.021636736
57	0x3d57e90d	0.05271249
58	0x3da17c26	0.078850076
59	0x3d168bdc	0.036754474
60	0xbc1684ef	-0.009186967
61	0xbdc4ed98	-0.0961563
62	0xbdbac6f9	-0.09119982
63	0x3b3e3b30	0.0029026978
64	0x3d84c46d	0.06482778
65	0xbd91f33b	-0.07126471
66	0x3d9d2446	0.07672934
67	0x3d4bc9c9	0.049752984
68	0xbc91d577	-0.017801983
69	0xbdb35379	-0.087561555
70	0xbc03fe35	-0.008056213
71	0xbd669143	-0.056290876
72	0xbdc0ff48	-0.09423691
73	0xbdc47b7c	-0.09593865
74	0xbd01b178	-0.031663388
75	0xbd1d0ce7	-0.038342383
76	0x3d14e7cb	0.036353868
77	0xbd89969c	-0.067181796
78	0xbd08972e	-0.0333473
79	0xbbb14ced	-0.0054107816
80	0x3d7a46b2	0.061102577
81	0xbd8244da	-0.06360789
82	0x3d0ceaea	0.03440372
83	0x3d40ab83	0.047038566
84	0xbda1efa0	-0.07907033
85	0x3d1d76a9	0.03844324
86	0xbd2dc0f7	-0.042420354
87	0x3d9d3e69	0.076779194
88	0x3d565c77	0.052334275
89	0xbd99313f	-0.07480096
90	0x3dada550	0.084787965
91	0xbdba7dc8	-0.09106022
92	0xbc474b65	-0.012163972
93	0x3b4f88df	0.0031667275
94	0xbd16266b	-0.036657732
95	0xbd24b684	-0.040213123
96	0x3da7c3dd	0.08191655
97	0x3d022ffe	0.03178405
98	0xbd51af7c	-0.051192746
99	0x3dbae2e7	0.091253094
100	0xbd172867	-0.036903765
101	0x3cf73984	0.030178793
102	0x3db18971	0.08668793
103	0x3d4a3722	0.049368985
104	0x3db9b51c	0.09067747
105	0x3d343b8a	0.044002093
106	0xbd215bcd	-0.03939419
107	0x3d810645	0.06300024
108	0x3c9b729a	0.018975545
109	0xbd4e25fa	-0.050329186
110	0x3dc2a84f	0.095047586
111	0xbd7995c3	-0.06093384
112	0xbcfc7e07	-0.030821813
113	0xbdc854ba	-0.09781785
114	0xbdaba7e3	-0.08381631
115	0xbca23fec	-0.019805871
116	0xbd4c422b	-0.04986779
117	0x3ca08fef	0.019599883
118	0xbd821ced	-0.063531734
119	0x3d9b5d41	0.07586146
120	0x3d03c392	0.032168932
121	0x3da1b2d2	0.078954354
122	0x3d2a47a1	0.041572217
123	0x3d239a5b	0.039942127
124	0xbda1d75e	-0.07902406
125	0x3c4e8c30	0.0126066655
126	0xbdaa6898	-0.08320731
127	0x3d12a436	0.035801135
128	0x3d90b130	0.07065046
129	0xbd4ac231	-0.0495016
130	0xbd7dca2c	-0.061960384
131	0xbdbb60a6	-0.091492936
132	0x3d013d06	0.031552337
133	0x3ceef35e	0.02916878
134	0xbdca8733	-0.098890685
135	0x3d8d0485	0.06885628
136	0xbda85afa	-0.082204774
137	0x3d32ab2a	0.043620266
138	0x3d91638f	0.070990674
139	0xbcaf004c	-0.021362446
140	0xbcd8fde9	-0.026488261
141	0xbda4ac02	-0.080406204
142	0xbdc0cb92	-0.09413828
143	0xbadf199d	-0.0017021183
144	0xbd1272b0	-0.035753906
145	0x3dcbe6ed	0.09956155
146	0x3b4d6ec0	0.003134653
147	0xbd1342f3	-0.03595252
148	0x3dc1d559	0.09464521
149	0xbd1c307b	-0.038132172
150	0x3c7d07e3	0.015443775
151	0xbdc38b98	-0.0954811
152	0x3d81fa8f	0.063466184
153	0x3d825748	0.06364304
154	0x3cbd2afe	0.02309179
155	0x3cd54288	0.026032701
156	0x3dbec6b2	0.09315242
157	0x3b2f7899	0.0026774763
158	0x3c152fd0	0.009105638
159	0xbd4fcdd4	-0.050733402
160	0xbc98753e	-0.018610593
161	0x3d7a8a50	0.06116706
162	0x3d53ee1e	0.051740758
163	0x3d580334	0.05273743
164	0x3d5af614	0.053457335
165	0x3d72c664	0.05927123
166	0x3c0afec0	0.008483589
167	0xbb0a3f64	-0.0021094913
168	0xbd6b509e	-0.05744993
169	0x3aa140d0	0.0012302641
170	0x3db740ba	0.089478925
171	0xbd23b8be	-0.039971106
172	0xbc9c499b	-0.019078067
173	0xbda2920c	-0.079380125
174	0xbcf82a57	-0.030293627
175	0xbc707424	-0.014676128
176	0x3c1bdcf5	0.0095131295
177	0xbda1d42c	-0.07901797
178	0xbd8a9f21	-0.06768633
179	0xbd0cd0b0	-0.034378707
180	0x3d872515	0.0659887
181	0xbd30a9a0	-0.043130517
182	0x3dc25265	0.09488372
183	0x3c3b6cee	0.011439545
184	0xbcbd5223	-0.023110455
185	0x3aafc0e2	0.0013408924
186	0xbd02f837	-0.031974997
187	0x3cb9a658	0.022662327
188	0xbcfd01bf	-0.030884622
189	0x3d730a7b	0.059336167
190	0xbcfc870a	-0.03082611
191	0xbba5a1e7	-0.0050547007
192	0x3db44548	0.08802277
193	0xbcb092e2	-0.021554414
194	0x3daa496b	0.083147846
195	0xbdc8382d	-0.0977634
196	0xbdbb1325	-0.09134511
197	0xbb5ecb2e	-0.0033995616
198	0xbd3d189b	-0.046166044
199	0xbd41e79e	-0.047340028
200	0x3d94f729	0.072737046
201	0x3d8368d6	0.0641648
202	0x3d838ca1	0.06423307
203	0x3da8e0a1	0.082459696
204	0xbc368b48	-0.011141606
205	0x3c8bee30	0.01708135
206	0x3dc339e0	0.09532523
207	0x3dcb777b	0.099348985
208	0x3d149356	0.036273323
209	0xbd0f14c4	-0.034931913
210	0x3d950f3d	0.07278297
211	0x3db855f9	0.09000773
212	0x3d8f2909	0.06990249
213	0xbdbaedba	-0.09127374
214	0xbbef8174	-0.007309133
215	0x3d86b47f	0.06577396
216	0x3ca277e8	0.019832566
217	0x3d0ba75c	0.034095153
218	0x3d8e4f71	0.06948746
219	0x3b8151ad	0.003946504
220	0xbd53fe37	-0.05175611
221	0x3d362daf	0.04447716
222	0xb9926fe4	-0.00027930655
223	0x3d8ced20	0.068811655
224	0x3d4942f2	0.04913611
225	0xbc4a9aa3	-0.01236597
226	0x3d62c6ea	0.05536548
227	0x3dbf23f5	0.0933303
228	0xbd17be95	-0.037046988
229	0x3ba20d73	0.004945451
230	0xbd1ae77f	-0.037818428
231	0xbd38baf8	-0.045100182
232	0xbc660db7	-0.014041356
233	0x3bcf956b	0.0063349507
234	0xbdcc0ef7	-0.09963792
235	0x3db5d4dc	0.0887849
236	0x3d4f9382	0.050677784
237	0xbdb2daea	-0.08733161
238	0xbd13ec2a	-0.036113895
239	0x3d5bccb2	0.05366201
240	0x3c1392b2	0.009007143
241	0xbdcb2b76	-0.09920399
242	0x3d8a3b4f	0.067495935
243	0x3d185c87	0.037197616
244	0xbcf12103	-0.029434687
245	0xbdaaa303	-0.08331873
246	0xbd2b5dd9	-0.041837547
247	0x39aa7726	0.000325137
248	0x3d1cd89c	0.038292512
249	0x3d0b2ab0	0.033976257
250	0xbda83559	-0.082133
251	0x3d87de08	0.06634146
252	0x3d25e4de	0.040501468
253	0xbd657528	-0.056019932
254	0xbdb04fb5	-0.08608953
255	0xbd4893ea	-0.048969187

bias f4 [100]
0	0xbcb82baf	-0.022481767
1	0xbd4e3165	-0.050340075
2	0xbc8360bb	-0.016037336
3	0xbd8d0b7f	-0.06886958
4	0xbdb69983	-0.08915999
5	0x3c190089	0.0093385065
6	0x3c36d1d4	0.011158425
7	0xbd8fdc53	-0.070244454
8	0xbd9d66a9	-0.076855965
9	0xbb9a1cec	-0.004703155
10	0xbd66b2a0	-0.056322694
11	0xbdb078df	-0.08616804
12	0xbcea23dc	-0.028581552
13	0x3c700c13	0.014651316
14	0x3d799808	0.060936004
15	0x3d784435	0.060611922
16	0x3cdccb4e	0.026952412
17	0xbd729ffc	-0.059234604
18	0xbcb94b2c	-0.022618853
19	0xbb74523f	-0.0037280468
20	0xbbf9ea5b	-0.0076268143
21	0xbcc1200d	-0.023574853
22	0xbda14681	-0.07874776
23	0xbd156403	-0.03647233
24	0x3cb5ee89	0.022208469
25	0xbd06d4d8	-0.032917827
26	0xbd547d77	-0.051877465
27	0x3c0edc39	0.008719497
28	0x3dcc94b9	0.09989304
29	0xbd7c7a8a	-0.0616403
30	0xbdbe76c6	-0.09299998
31	0xbcd3ee93	-0.025870597
32	0xbc14d74e	-0.009084536
33	0xbd925235	-0.07144586
34	0xbd88100a	-0.06643684
35	0x3da38298	0.07983893
36	0xbd196e26	-0.03745856
37	0x3d6ba36c	0.057528898
38	0xbd2f2d5b	-0.042767864
39	0xbcae5333	-0.021279907
40	0xbd26e315	-0.040743906
41	0xbd92fe56	-0.07177417
42	0x3d98b4fd	0.07456396
43	0x3b727a0e	0.003699902
44	0xbbcdb260	-0.0062773675
45	0x3d8d119a	0.06888123
46	0x3c6b0ade	0.014345853
47	0x3c9757fa	0.018474568
48	0xbda10377	-0.07861989
49	0xbdae721f	-0.085178606
50	0x3d864099	0.0655529
51	0x3c2815c0	0.010259092
52	0xbc544126	-0.012954986
53	0xbdad993c	-0.08476493
54	0x3d9c11ce	0.076205835
55	0x3d7c414c	0.06158571
56	0x3d464218	0.048402876
57	0xbdbe2083	-0.09283545
58	0x3d60c0a9	0.054871235
59	0xbd931a19	-0.07182712
60	0xbd8680c4	-0.06567529
61	0xbca216aa	-0.019786198
62	0x3d8ddb47	0.069265895
63	0x3dadee36	0.08492701
64	0x3c84987c	0.016185991
65	0x3db99630	0.09061849
66	0x3d859fa2	0.06524588
67	0x3d1bd8ea	0.038048662
68	0xba876f5e	-0.0010332873
69	0xbc976df1	-0.018485041
70	0x3db0bd59	0.08629865
71	0x3d558215	0.05212601
72	0x3d849449	0.06473596
73	0x3d890e65	0.06692199
74	0xbd16f442	-0.036854036
75	0xb975105f	-0.0002337112
76	0xbd5977b9	-0.053092692
77	0x3d8bd7aa	0.06828244
78	0x3cfe72c1	0.031060578
79	0xbcbd8fa9	-0.023139792
80	0x3d96803b	0.07348677
81	0xbda91c7a	-0.082573846
82	0xbd33db10	-0.043910086
83	0x3d7d1ae8	0.061793238
84	0x3da766fb	0.08173939
85	0xbd97a8ea	-0.07405265
86	0xbd06c00b	-0.03289799
87	0xbd915fc5	-0.07098345
88	0xbd67eb0b	-0.05662064
89	0xbdaa5779	-0.08317465
90	0xbcfc7489	-0.030817287
91	0xbcc548fb	-0.024082651
92	0xbd3b1c67	-0.045681383
93	0xbd989e4e	-0.07452069
94	0xbda56e8f	-0.08077728
95	0xbd5b163a	-0.053487994
96	0xbcccd0a9	-0.02500184
97	0xbd2d67ba	-0.04233525
98	0xbd93fa02	-0.072254196
99	0x3d8cfd30	0.06884229

weight f4 [50, 100]
0	0xbd8689f8	-0.06569284
1	0x3d64d8c2	0.05587078
2	0xbdb5ca4a	-0.08876474
3	0x3d788c3f	0.060680624
4	0x3d431052	0.047622986
5	0xbd8a1863	-0.06742933
6	0xbda1917d	-0.07889078
7	0xbdbd6472	-0.09247674
8	0x3d2bc703	0.04193784
9	0x3d61ff03	0.05517484
10	0xba3adb00	-0.00071279705
11	0x3d881364	0.066443235
12	0x3d32cd76	0.043652974
13	0x3d298ec6	0.041395925
14	0xbd5553dd	-0.05208193
15	0xbd4d0821	-0.05005658
16	0x3b586540	0.0033019334
17	0xbd1ae1b8	-0.03781292
18	0x3dc9f799	0.09861679
19	0xbd21ca1d	-0.03949939
20	0x3d12c1ca	0.035829343
21	0xbc947b48	-0.018125191
22	0x3dc3ee48	0.09566933
23	0xbcbdcd96	-0.02316932
24	0xbd5b6e3b	-0.05357192
25	0x3dcbfa5b	0.09959861
26	0xbd2a6ec7	-0.04160955
27	0xbdb79a47	-0.08964973
28	0xbccb1733	-0.024791336
29	0xbad167dd	-0.0015976388
30	0x3d8627b1	0.06550539
31	0xbc91f5ed	-0.017817462
32	0x3d349a72	0.044092603
33	0xbdbdc937	-0.09266894
34	0xbafef140	-0.001945056
35	0x3da6e4e7	0.081491284
36	0xbd9609e8	-0.07326108
37	0x3dbb8d87	0.091578536
38	0xbdb6d8fb	-0.089281045
39	0xbd863572	-0.06553163
40	0xbdaf693f	-0.08564996
41	0xbd5a66fd	-0.053320874
42	0xbcf2715b	-0.029595068
43	0x3d0ba7c5	0.034095544
44	0xbcccfd20	-0.025023043
45	0xbc4f7f51	-0.012664632
46	0x3db588ce	0.08863984
47	0xbd9e6b9b	-0.07735368
48	0x3b91247f	0.0044293995
49	0x3d9b3009	0.07577521
50	0x3d0b8e65	0.034071345
51	0x3d46e0e6	0.048554324
52	0xbcf0bd90	-0.029387265
53	0x3d2ec7f6	0.042671166
54	0x3daef8a5	0.08543519
55	0xbd4014ce	-0.04689484
56	0xbd50e96d	-0.051003862
57	0xbd571f9b	-0.052520376
58	0xbd891255	-0.0669295
59	0xbcb9ae11	-0.02266601
60	0x3d6ce66a	0.057836927
61	0x3cb14456	0.02163903
62	0xbbe962ca	-0.0071223723
63	0xbdb01f53	-0.085997246
64	0xbbf3127b	-0.0074179745
65	0xbce58ad3	-0.028020298
66	0xbcbdc9a9	-0.023167448
67	0x3d86ab62	0.065756574
68	0x3d8c5864	0.06852797
69	0x3ca57a36	0.020199876
70	0x3d940343	0.072271846
71	0x3da53271	0.080662616
72	0x3c550e30	0.013003871
73	0x3c9111b8	0.017708644
74	0xbd69aa83	-0.05704738
75	0xbdb9f9d3	-0.09080853
76	0x3c603a92	0.013685839
77	0xbdc33d6e	-0.09533201
78	0xbc579f7f	-0.013160585
79	0x3d573c02	0.052547462
80	0xbd428ca3	-0.047497403
81	0xbd0badb7	-0.034101214
82	0xbd97deb4	-0.07415524
83	0x3d202e51	0.03910667
84	0xbcdb8469	-0.026796537
85	0xbda20a56	-0.07912128
86	0xbca805c0	-0.020510554
87	0x3d46481e	0.04840862
88	0x3d5f292c	0.054482624
89	0xbd35e9f3	-0.044412564
90	0xbd932f3e	-0.07186745
91	0x3c413941	0.011793436
92	0xbd9bd57d	-0.07609079
93	0xbc8e22f8	-0.017350659
94	0x3da691f8	0.0813331
95	0x3b88bbd0	0.0041727796
96	0xbcf87934	-0.030331232
97	0xbd04496a	-0.032296576
98	0xbdb4344c	-0.08799037
99	0x3da06d5f	0.07833361
100	0x3dbfc9cb	0.09364661
101	0xbc413e65	-0.011794661
102	0xbd81d596	-0.063395664
103	0x3dc11f42	0.0942979
104	0x3d52e3ce	0.051486783
105	0xbdbd58aa	-0.09245427
106	0x3dc45719	0.09586925
107	0xbc5d2992	-0.013498681
108	0x3d82d07f	0.06387424
109	0xbc763f77	-0.01502978
110	0x3daa9883	0.083298706
111	0xbd8a61ff	-0.067569725
112	0xbcbce547	-0.023058547
113	0x3bc19e64	0.005908774
114	0x3cc123d6	0.023576658
115	0xbda2c72a	-0.07948144
116	0x3d023562	0.03178919
117	0x3c74da94	0.014944691
118	0xbb0432a5	-0.0020171788
119	0xbdc72a92	-0.097249165
120	0xbd571e60	-0.052519202
121	0xbda9622c	-0.08270678
122	0x3d78b944	0.060723558
123	0x3d18b446	0.037281297
124	0x3d6df56d	0.058095384
125	0xbc9f619a	-0.01945572
126	0x3d82beaf	0.06384026
127	0x3b83b11b	0.0040189154
128	0x3cb3d9b9	0.021954404
129	0x3c454c26	0.012042081
130	0xbcbd469f	-0.023104964
131	0x3d411114	0.047135428
132	0x3d208ba6	0.03919568
133	0xbdbe87ad	-0.09303222
134	0xbd27353a	-0.040822245
135	0xbd6cf0f9	-0.057846997
136	0x3ccf5eff	0.025313852
137	0x3d926393	0.071478985
138	0xbc46e175	-0.012138714
139	0x3cdad7fe	0.026714321
140	0xbd933a78	-0.071888864
141	0x3c7b80d8	0.015350543
142	0xbdc25d83	-0.09490492
143	0xbd20d282	-0.039263256
144	0xbcb578e8	-0.02215238
145	0x3d1d27e2	0.038368113
146	0xbccefd49	-0.02526726
147	0xbd61c420	-0.05511868
148	0xbda6bad5	-0.08141104
149	0x3d79c322	0.06097711
150	0xbd30ffa5	-0.04321255
151	0xbce9936d	-0.02851268
152	0x3d573d8f	0.05254894
153	0xbd148514	-0.036259726
154	0x3bd7bc7d	0.006583749
155	0x3cb28bd2	0.021795187
156	0x3b824338	0.0039752983
157	0x3c17f65d	0.009275046
158	0xbd757637	-0.05992719
159	0x3d83b385	0.06430725
160	0xbd83996a	-0.06425746
161	0xbcee731a	-0.02910762
162	0x3c6c3940	0.014417946
163	0xbc10fe3f	-0.0088496795
164	0x3daa2891	0.08308519
165	0xbd6e1689	-0.05812696
166	0x3d7d90a1	0.061905507
167	0xbda4228f	-0.08014404
168	0x3cf42476	0.029802542
169	0xbc5a0a45	-0.0133081125
170	0x3d4d16ab	0.050070446
171	0xbd4b922f	-0.04969996
172	0x3da2fb17	0.07958048
173	0xbce6ddac	-0.028181873
174	0x3d71b7c6	0.05901315
175	0xbd8de9ec	-0.06929383
176	0xbd7657d7	-0.060142364
177	0x3b95ca91	0.004571267
178	0xbd649c71	-0.055813257
179	0x3d84effb	0.06491085
180	0xbd4211a0	-0.04738009
181	0x3dc19ba0	0.09453511
182	0xbced7e10	-0.028990775
183	0x3da8e37d	0.08246515
184	0x3a064b5c	0.0005122924
185	0x3dbd7ca9	0.09252293
186	0xbc88a98c	-0.016682409
187	0x3d587e3e	0.05285477
188	0xbdb64272	-0.08899392
189	0xbceab90e	-0.028652694
190	0x3d6a1288	0.05714658
191	0xbd88c237	-0.066776685
192	0xbcd9d46c	-0.026590548
193	0xbd9e5b7a	-0.077322915
194	0xbd7d4aeb	-0.061839025
195	0x3c709d30	0.014685914
196	0xbcd759d7	-0.026287956
197	0xbd8e42fd	-0.06946371
198	0xbd98f431	-0.07468451
199	0x3d55ee7d	0.052229393
200	0x3daaba7a	0.08336349
201	0x3d5e9400	0.054340363
202	0xbda98fe9	-0.08279402
203	0x3dcc4237	0.09973567
204	0x3d48cad2	0.04902155
205	0xbd94f6c7	-0.072736315
206	0x3da49ab1	0.080373175
207	0x3d63dfd0	0.055633366
208	0xbd6c28a2	-0.057655938
209	0xbd695b4f	-0.056971844
210	0xbd4b71f0	-0.049669206
211	0x3c1bec80	0.009516835
212	0x3cefc404	0.029268272
213	0x3cece420	0.028917372
214	0x3d29df5e	0.041472785
215	0xbd2bb44e	-0.04192
216	0xbd2a6295	-0.04159792
217	0xbcc597f5	-0.02412031
218	0xbc243ac7	-0.010023779
219	0x3b7166a1	0.0036834853
220	0x3c3528a1	0.01105705
221	0x3d853318	0.06503886
222	0xbda5b88d	-0.08091841
223	0xbcee0f62	-0.02906007
224	0x3d9dc5c2	0.07703735
225	0x3b0a14b8	0.0021069478
226	0xbce5c688	-0.028048769
227	0x3d291e91	0.041288916
228	0xbdb2fbe3	-0.0873945
229	0xbba8abb3	-0.0051474213
230	0xbd036220	-0.032076
231	0x3da5afd0	0.08090174
232	0x3dc933a5	0.098243035
233	0xbc9a8702	-0.018863205
234	0xbd60af13	-0.054854464
235	0xbb0409e0	-0.0020147488
236	0x3d30c8de	0.043160312
237	0x3af6ea80	0.0018838197
238	0x3d6e6538	0.058202
239	0xbb850e03	-0.004060508
240	0x3d1072da	0.03526578
241	0x3c5c01b0	0.013428137
242	0xbce46e17	-0.027884526
243	0x3d187b21	0.0372268
244	0x3dc7f7d5	0.09764067
245	0xbd927561	-0.071512945
246	0xbcc87291	-0.024468692
247	0xbd665c31	-0.056240264
248	0x3dcbfcc1	0.09960318
249	0x3d612362	0.054965384
250	0xbdc4d105	-0.0961018
251	0x3d80915d	0.06277726
252	0x3db158d6	0.08659522
253	0x3dc5294e	0.09627019
254	0xbdcc9dbe	-0.099910244
255	0xbc4d361b	-0.012525107

bias f4 [50]
0	0xbd8e7f9b	-0.069579326
1	0x3db952b0	0.090489745
2	0xbd839ba0	-0.064261675
3	0x3d27cae6	0.040964983
4	0xbcfb370f	-0.030665902
5	0x3dc64845	0.09681753
6	0x3d8a5ab1	0.06755579
7	0x3d921c7c	0.07134339
8	0xbd0c5d6d	-0.034268785
9	0xbd810dee	-0.06301485
10	0x3cbeeaad	0.023305262
11	0x3cd1ec2f	0.025625316
12	0x3d11a1b9	0.03555462
13	0xbd189660	-0.037252784
14	0x3d7fc182	0.062440403
15	0x3d751326	0.059832714
16	0x3d972f08	0.073820174
17	0xbd06655a	-0.0328115
18	0xbcce2a39	-0.025166618
19	0xbd60fbf5	-0.054927785
20	0xbdae9c8d	-0.085259534
21	0x3d6e2f33	0.05815048
22	0x3cfebf7f	0.031097172
23	0xbda16937	-0.07881396
24	0xbd974dcf	-0.07387888
25	0x3d534ddc	0.051587924
26	0xbbc06aa4	-0.0058720876
27	0xbdc2361e	-0.09482978
28	0x3d9cb37f	0.07651424
29	0x3daae65d	0.083447196
30	0x3cbe6be8	0.023244813
31	0xbcd49a8f	-0.025952606
32	0x397b8c68	0.00023989531
33	0xbd8f5246	-0.06998114
34	0xbd95e831	-0.073196776
35	0xbca851cb	-0.020546814
36	0x3ce9c3b9	0.02853571
37	0xbd6364df	-0.05551612
38	0x3dc2a36c	0.095038265
39	0x3d84778f	0.064681165
40	0x3dae9370	0.08524215
41	0xbbe7d3b0	-0.0070747957
42	0xbd40c96c	-0.04706709
43	0x3d0a1b72	0.03371758
44	0xbd0f2c42	-0.034954317
45	0xbce008b8	-0.027347907
46	0x3dac16be	0.08402775
47	0x3d9d7917	0.07689112
48	0x3d9c281f	0.0762484
49	0xbd7a38c7	-0.061089303

weight f4 [1, 50]
0	0xbd372f59	-0.04472289
1	0x3ba49d26	0.0050236164
2	0x3df942c0	0.12170935
3	0x3dd8e62e	0.10590778
4	0xbdaaba2a	-0.08336289
5	0xbdcaa1ac	-0.09894118
6	0xbd94eb8a	-0.07271488
7	0xbdd9af36	-0.10629122
8	0x3ea3743c	0.31924617
9	0x3c562436	0.013070157
10	0x3e4acfc9	0.19805826
11	0x3dfb2706	0.122633025
12	0x3dbda1d4	0.09259382
13	0xbba610d8	-0.005067926
14	0xbdc2b377	-0.095068865
15	0x3dd6706a	0.1047066
16	0xbdf3f63a	-0.11912198
17	0xbdc21d29	-0.09478218
18	0x3e91bd37	0.28464672
19	0x3d91b301	0.071142204
20	0xbb78e060	-0.0037975535
21	0x3e73a4d5	0.23793347
22	0xbd7e1c4a	-0.062038697
23	0x3d973236	0.07382624
24	0xbd66d694	-0.05635698
25	0xbd109767	-0.03530064
26	0xbcb82e9b	-0.02248316
27	0x3d928b0a	0.07155426
28	0xbdc77c84	-0.09740546
29	0x3e0cd22d	0.1375205
30	0xbdb549b2	-0.08851947
31	0xbd6c9819	-0.05776224
32	0x3edb30b2	0.4281059
33	0x3da8d3b8	0.08243507
34	0xbd9c5728	-0.07633811
35	0xbdd530cc	-0.10409698
36	0x3da578c5	0.080796756
37	0x3e2037e1	0.15646316
38	0xbe1006fb	-0.14065163
39	0x3c92a5e0	0.017901361
40	0x3ec66803	0.3875123
41	0xbdc8e588	-0.098094046
42	0xbe027d28	-0.12743056
43	0xbd0a05d6	-0.03369697
44	0xbe0948d2	-0.13406685
45	0xbda17b14	-0.078848034
46	0x3c25b3b0	0.010113642
47	0x3c4f8345	0.012665574
48	0xbc1cc7b6	-0.009569099
49	0x3d5572d2	0.052111454
