Model/RNN.pth (torch, 208079 bytes, 9 tensors)

weight_ih_l0 f4 [128, 11]
0.06548343 -0.06219688 0.10865067 0.018346127 0.061129346 0.048730843 0.018868279 0.06810962
0.01657004 -0.088237196 0.08432313 0.015177481 -0.08938082 -0.0012484553 -0.039200805 -0.09043418
0.04107544 -0.09548572 0.108385675 -0.0053868303 0.035857126 0.015173305 0.048621874 0.036330454
0.042054083 -0.010662237 -0.027002681 0.07805265 0.08036066 0.011137014 0.011685758 0.02069842
0.041106448 0.062466465 0.03831437 -0.029237637 -0.0122930575 0.07996186 0.010466627 -0.012914601
-0.038589325 -0.0441213 -0.0036536548 -0.05292359 0.02294408 -0.010408146 0.005723675 0.019815734
-0.09528526 0.023380296 0.001155284 -0.07245189 0.04698919 -0.11904426 0.040110774 0.07816001
0.05719179 0.039603043 -0.0062062046 0.03897014 0.015066645 0.015437666 -0.0075153704 -0.003839203
-0.02339869 -0.003023404 -0.08840046 -0.10077389 -0.0569944 -0.12448519 -0.02588727 0.06707263
-0.06496048 -0.028167851 -0.079982534 0.07814179 -0.021356156 -0.013429984 -0.0321528 -0.035015617
-0.026734177 -0.05493356 0.07937323 0.0055358703 -0.08482336 0.08451637 0.09449348 -0.047167957
0.085523345 -0.01652227 0.084232666 -0.0038390653 -0.047931105 -0.061548714 -0.059966873 -0.0027704525
0.068438545 0.030658156 0.058358308 -0.009660606 0.05597913 0.09912067 -0.062464595 -0.021970589
0.021771321 -0.059021473 0.07569746 -0.04936395 -0.08222254 0.0883671 -0.011862021 0.0447838
-0.029491449 -0.009720068 0.057935264 -0.014867796 -0.042845774 0.06696933 0.053350694 0.046820987
-0.012220213 0.03936165 0.007586911 0.08297856 0.019855984 -0.011043342 -0.0648833 0.044752993
0.095203094 -0.020984396 -0.007600905 0.12823321 -0.025654506 -0.06924954 -0.038841683 0.10060184
-0.08045467 0.00898213 -0.06876831 0.10036735 -0.067705825 -0.118587114 0.050482504 0.008173788
-0.046720006 0.090549454 0.059627816 0.07226912 -0.02957929 -0.035062995 0.09226077 -0.10042936
0.016736355 0.07133673 0.03702785 -0.0020441806 -0.046124347 -0.085629046 0.059609275 0.067032725
0.0063558323 0.060265508 -0.06389608 0.049593356 -0.08647539 0.023071887 -0.00041800496 0.08178941
-0.05004918 0.028342891 -0.014235802 -0.0648613 -0.033760093 -0.02227194 0.040188186 0.07276251
-0.08284377 0.01169037 0.056187294 -0.0007725442 0.077478535 -0.08510105 -0.03450361 0.028835768
0.04707092 -0.080355406 0.06405236 0.004955229 0.07756288 0.07325712 -0.032987166 -0.027197387
-0.0020935314 0.070541635 -0.030636523 -0.07163786 0.060752485 -0.056737013 -0.014834527 -0.012248932
-0.0050348677 0.08885482 0.008959378 -0.009736609 -0.051206075 -0.027692756 0.005647074 0.018341485
0.06820168 -0.033966195 0.01432741 0.013968837 0.08124178 -0.0541457 -0.009293032 0.030716237
0.06388963 -0.010111996 -0.0056085624 0.08902138 0.03766869 -0.010799046 0.014251635 -0.052032992
0.016432853 -0.048158977 0.036864772 -0.049500585 0.06546551 -0.10710711 0.065437436 0.044376213
-0.023058763 0.003557145 0.06865974 -0.064019985 0.012523602 -0.01700376 0.009115052 0.041457385
-0.12722571 0.076319106 0.011674669 -0.021592451 0.047070038 0.056747526 -0.024271265 -0.012844625
-0.08041917 -0.02807071 0.028855367 0.073091194 -0.03566084 -0.0035878692 -0.005231932 0.08340228
00000000: 2d1c 863d 28c2 7ebd 3e84 de3d 9e4a 963c
00000010: c462 7a3d fe99 473d a691 9a3c 0e7d 8b3d
00000020: e4bd 873c b4b5 b4bd 9bb1 ac3d f8aa 783c
00000030: 4b0d b7bd 35a3 a3ba 0691 20bd 8e35 b9bd
00000040: b83e 283d 048e c3bd 4ff9 dd3d 0284 b0bb
00000050: ecde 123d 7499 783c bb27 473d 3ecf 143d
00000060: e740 2c3d aab0 2ebc ba34 ddbc 11da 9f3d
00000070: 2194 a43d 0678 363c 9f75 3f3c bc8f a93c
00000080: 3c5f 283d d6dc 7f3d 87ef 1c3d c583 efbc
00000090: d268 49bc 0bc3 a33d 377c 2b3c c397 53bc
000000a0: d70f 1ebd 89b8 34bd 2872 6fbb 68c6 58bd
000000b0: 39f5 bb3c ee86 2abc aa8d bb3b 9b54 a23c
000000c0: eb24 c3bd 0988 bf3c e66c 973a a861 94bd
000000d0: bd77 403d 7acd f3bd 324b 243d 5b12 a03d
000000e0: f041 6a3d cd36 223d 6b5d cbbb 279f 1f3d
000000f0: 17da 763c 44ee 7c3c 7f43 f6bb 239b 7bbb
00000100: 9cae bfbc 4d24 46bb 4d0b b5bd 8b62 cebd
00000110: f672 69bd 17f2 febd 8a11 d4bc 605d 893d
00000120: 000a 85bd 44c0 e6bc e2cd a3bd ce08 a03d
00000130: 1bf3 aebc 7009 5cbc a8b2 03bd 896c 0fbd
00000140: a201 dbbc 0302 61bd 6f8e a23d 3f66 b53b
00000150: dfb7 adbd eb16 ad3d cc85 c13d 3033 41bd
00000160: dd26 af3d b659 87bc 2d82 ac3d d498 7bbb
00000170: 6853 44bd 811a 7cbd d39f 75bd 7b90 35bb
00000180: 8229 8c3d d026 fb3c 1f09 6f3d 8547 1ebc
00000190: 5f4a 653d c7ff ca3d e0da 7fbd aafb b3bc
000001a0: c559 b23c 80c0 71bd 4507 9b3d da31 4abd
000001b0: 4b64 a8bd cff9 b43d ec58 42bc 386f 373d
000001c0: 0d98 f1bc ec40 1fbc 874d 6d3d 0e98 73bc
000001d0: 0d7f 2fbd 3727 893d 4286 5a3d 5dc7 3f3d
000001e0: 4a37 48bc ae39 213d 9f9b f83b aaf0 a93d
000001f0: 04a9 a23c 22ef 34bc 89e1 84bd ea4e 373d
00000200: d7f9 c23d 78e7 abbc 0311 f9bb 914f 033e
00000210: 6629 d2bc b4d2 8dbd 7518 1fbd 5608 ce3d
00000220: 6bc5 a4bd c929 133c 66d6 8cbd 668d cd3d
00000230: 5aa9 8abd cddd f2bd bec6 4e3d 5aeb 053c
00000240: 7a5d 3fbd fe71 b93d 4c3c 743d d501 943d
00000250: 4450 f2bc 379e 0fbd 37f3 bc3d e9ad cdbd
00000260: ae1a 893c fe18 923d 84aa 173d a9f7 05bb
00000270: e2ec 3cbd 485e afbd db28 743d 7448 893d
00000280: 9644 d03b f7d8 763d f3db 82bd 6722 4b3d
00000290: 021a b1bd 4101 bd3c ad27 dbb9 3581 a73d
000002a0: 5e00 4dbd 5a2f e83c 483d 69bc 00d6 84bd
000002b0: 0648 0abd a573 b6bc 5e9c 243d 8304 953d
000002c0: ffa9 a9bd f788 3f3c a624 663d 9084 4aba
000002d0: 11ad 9e3d 7649 aebd a853 0dbd fd38 ec3c
000002e0: 70cd 403d 6091 a4bd e22d 833d 795f a23b
000002f0: 4ad9 9e3d d407 963d 8d1d 07bd 0ecd debc
00000300: a133 09bb 2278 903d 72f9 fabc dfb6 92bd
00000310: 99d7 783d 1265 68bd 840c 73bc bfaf 48bc
00000320: 88fb a4bb 84f9 b53d 5bca 123c 4c86 1fbc
00000330: 76bd 51bd ebdb e2bc 170b b93b e240 963c
00000340: 53ad 8b3d 2320 0bbd 83bd 6a3c 8ddd 643c
00000350: 1762 a63d e2c7 5dbd cd41 18bc 9ea0 fb3c
00000360: 91d8 823d c9ac 25bc 08c8 b7bb d750 b63d
00000370: 7c4a 1a3d 7bee 30bc b17f 693c 8c20 55bd
00000380: 319e 863c 5942 45bd 84ff 163d 20c1 4abd
00000390: c812 863d f95a dbbd 1004 863d d5c3 353d
000003a0: bbe5 bcbc fd1e 693b 7a9d 8c3d e91c 83bd
000003b0: cb2f 4d3c 784b 8bbc 4d57 153c 38cf 293d
000003c0: 7547 02be 314d 9c3d 1c47 3f3c a7e2 b0bc
000003d0: 83cc 403d 1870 683d 88d4 c6bc 4372 52bc
000003e0: ceb2 a4bd 8cf4 e5bc 1762 ec3c d6b0 953d
000003f0: 1a11 12bd 7522 6bbb a070 abbb d1ce aa3d

weight_hh_l0 f4 [128, 128]
-0.07129635 -0.0022830963 0.037763067 0.015941173 -0.004226126 -0.06456206 -0.060490802 -0.00441283
0.036657624 -0.04259257 -0.04952239 -0.011267155 0.025773749 0.015930928 0.055974983 -0.061056558
0.05697345 0.07000678 0.062446766 -0.02730143 0.06536467 -0.017459683 0.035770766 -0.045866664
0.044059865 -0.027365021 0.045347802 -0.037827987 -0.08659535 0.013490804 -0.03148502 0.060881995
0.022262417 0.0596065 -0.08529332 -0.0006367862 -0.07070885 0.0321175 0.0021459684 -0.066248074
-0.050703418 0.085664205 -0.082275316 0.022842675 0.0076709464 0.04298728 -0.05920491 0.007419564
0.041737832 -0.042335246 0.058813356 0.04483398 0.006842576 -0.016379781 -0.044611257 0.04718917
0.07645657 -0.0037875548 0.020098105 -0.048835035 0.013250433 0.08749727 -0.06913066 0.02182918
0.039366357 -0.009344496 0.0065027177 -0.010328919 0.04687085 -0.07921733 -0.05872918 0.057613514
-0.04380245 0.0011620745 0.02879984 -0.020311564 -0.031075649 0.075112276 0.070682965 0.031725742
-0.0145594925 0.028111622 0.0678458 -0.045220144 -0.007939033 -0.037109457 -0.022236288 0.055372648
-0.038557917 0.02091825 0.0081450865 -0.02694001 -0.041202843 -0.0004907474 -0.06592815 -0.07540673
0.017728679 -0.00948678 0.05554069 0.033854455 0.030092523 0.004497312 0.02858363 -0.015232727
0.055037715 0.047155447 -0.07891528 -0.012671344 -0.08748838 0.008286826 -0.085841246 -0.0040441975
-0.067535624 -0.014683023 0.00572782 0.06535757 0.012373544 -0.05613191 0.022995882 -0.061986476
0.05932089 0.06467914 -0.05872059 0.03206802 -0.08178335 0.082489826 -0.066079065 -0.078639485
-0.059317507 0.015407003 -0.018491372 -0.06313711 -0.000985384 0.07926669 -0.061310325 -0.07512357
0.082878895 -0.002645634 0.010626338 0.05187317 0.0033057556 0.026401177 -0.028870117 -0.035305656
0.07310071 0.027290113 0.024136193 -0.062424295 -0.03375208 0.07697355 0.05103477 -0.0004910603
0.06683273 -0.08749588 0.084471054 0.08255983 -0.010150239 0.08265988 0.04271332 -0.08380294
0.042381518 0.07326179 -0.014276326 -0.0780444 -0.015075706 -0.05284538 0.06465947 0.02392935
-0.04970721 0.08323141 0.04143437 -0.055317517 0.02900675 -7.979572e-06 -0.014064252 -0.0022874177
0.047209166 0.077935554 0.071259834 -0.029398039 -0.038901594 0.0038366094 -0.08701706 -0.06901318
0.08312137 -0.011908025 0.03944496 0.07031714 -0.034203727 0.0076073036 -0.0636296 -0.058560085
0.086088665 0.08507586 0.020383209 0.078671806 -0.031262953 -0.058558304 0.011941232 -0.055434022
0.07980805 -0.08325681 0.0050992966 -0.014376543 -0.08542921 0.007614605 -0.024246104 -0.036232833
-0.02421052 0.029369153 -0.06963858 0.018190265 -0.07342386 -0.037870176 -0.059573557 -0.015363865
0.06363764 0.08511723 0.0842283 0.03472069 -0.08116397 0.048344173 -0.0025105402 0.022458777
0.037564315 0.08611604 0.08597659 0.07727226 -0.061115205 -0.05881951 -0.04905634 0.004493974
-0.047972333 -0.070257485 -0.024090558 0.010126278 0.0032364428 0.05929356 0.06830514 0.073563136
0.07741573 0.06438386 0.07149144 0.025479995 -0.013402015 0.071078725 -0.015727498 -0.030902565
0.031699225 -0.03751869 0.01932747 0.081003 -0.034181315 0.032892548 -0.073502794 0.04867921
00000000: d203 92bd 00a0 15bb 72ad 1a3d 1097 823c
00000010: 507b 8abb 1d39 84bd 34c5 77bd 8099 90bb
00000020: 4e26 163d 8c75 2ebd fdd7 4abd e099 38bc
00000030: 7823 d33c 9481 823c 0646 653d 7116 7abd
00000040: fe5c 693d b75f 8f3d 2ec8 7f3d 40a7 dfbc
00000050: e9dd 853d 9c07 8fbc 5e84 123d afde 3bbd
00000060: 1e78 343d 9c2c e0bc 9ebe 393d 85f1 1abd
00000070: e758 b1bd 8808 5d3c 70f6 00bd 665f 793d
00000080: ac5f b63c f225 743d 44ae aebd 00ee 26ba
00000090: cdcf 90bd a48d 033d 60a3 0c3b 12ad 87bd
000000a0: 63ae 4fbd b770 af3d f67f a8bd 9020 bb3c
000000b0: 905c fb3b 6e13 303d d980 72bd d01f f33b
000000c0: 4af5 2a3d b967 2dbd 46e6 703d d6a3 373d
000000d0: b037 e03b e42e 86bc 4bba 36bd 6e49 413d
000000e0: 4395 9c3d a038 78bb c8a4 a43c 3f07 48bd
000000f0: 5818 593c c531 b33d 6094 8dbd 1cd3 b23c
00000100: 9e3e 213d a819 19bc c014 d53b a03a 29bc
00000110: a6fb 3f3d b23c a2bd 028e 70bd 26fc 6b3d
00000120: 336a 33bd c050 983a a4ed eb3c 7064 a6bc
00000130: 5c92 febc 77d4 993d 3bc2 903d daf2 013d
00000140: f08a 6ebc 584a e63c bdf2 8a3d c238 39bd
00000150: b812 02bc 1600 18bd e028 b6bc 6ece 623d
00000160: e8ee 1dbd c05c ab3c f872 053c 4cb1 dcbc
00000170: 50c4 28bd 80a5 00ba 5705 87bd d86e 9abd
00000180: bc3b 913c 706e 1bbc a27e 633d f8aa 0a3d
00000190: 9884 f63c 305e 933b 3828 ea3c b092 79bc
000001a0: 3a6f 613d 1226 413d 569e a1bd 789b 4fbc
000001b0: 1c2d b3bd 78c5 073c 89cd afbd 3085 84bb
000001c0: 1e50 8abd 1091 70bc 70b0 bb3b 31da 853d
000001d0: 68ba 4a3c 93ea 65bd dc61 bc3c 88e5 7dbd
000001e0: 76fa 723d 7f76 843d 0085 70bd c259 033d
000001f0: 077e a7bd 6df0 a83d 7654 87bd bd0d a1bd
00000200: eaf6 72bd a86d 7c3c 387b 97bc 074e 81bd
00000210: 0028 81ba 9356 a23d 8920 7bbd 63da 99bd
00000220: 69bc a93d 6062 2dbb 181a 2e3c f678 543d
00000230: 60a5 583b 4847 d83c 0681 ecbc aa9c 10bd
00000240: d3b5 953d 848f df3c 44b9 c53c 9eb0 7fbd
00000250: 9f3f 0abd 4fa4 9d3d d609 513d 80ba 00ba
00000260: 99df 883d 0a31 b3bd 29ff ac3d 2115 a93d
00000270: 304d 26bc 9549 a93d 2af4 2e3d e0a0 abbd
00000280: 3e98 2d3d 470a 963d 40e7 69bc bed5 9fbd
00000290: 1800 77bc 6674 58bd 2f6c 843d 7c07 c43c
000002a0: ca99 4bbd 3b75 aa3d 16b7 293d 9f94 62bd
000002b0: 909f ed3c 00e0 05b7 c06d 66bc 80e8 15bb
000002c0: 665e 413d ad9c 9f3d adf0 913d 28d4 f0bc
000002d0: 4757 1fbd a06f 7b3b 0036 b2bd c856 8dbd
000002e0: 893b aa3d e019 43bc 0a91 213d 6f02 903d
000002f0: 3519 0cbd b046 f93b 3c50 82bd b3dc 6fbd
00000300: 414f b03d 413c ae3d b0fa a63c af1e a13d
00000310: 950d 00bd d5da 6fbd 28a5 433c c90e 63bd
00000320: 6772 a33d 8c82 aabd 0018 a73b 988b 6bbc
00000330: 82f5 aebd f083 f93b c49f c6bc e168 14bd
00000340: 2455 c6bc 9497 f03c ac9e 8ebd c003 953c
00000350: 405f 96bd c21d 1bbd 6703 74bd b8b8 7bbc
00000360: 7354 823d f151 ae3d e37f ac3d 4837 0e3d
00000370: 4c39 a6bd 8a04 463d e087 24bb 78fb b73c
00000380: 0add 193d 9b5d b03d 7f14 b03d eb40 9e3d
00000390: f053 7abd baec 70bd 4def 48bd 3042 933b
000003a0: a37e 44bd 28e3 8fbd 9059 c5bc b0e8 253c
000003b0: 801a 543b cedd 723d 91e3 8b3d 45a8 963d
000003c0: 238c 9e3d afdb 833d 1b6a 923d 6cbb d03c
000003d0: 2094 5bbc b991 913d f4d6 80bc 6027 fdbc
000003e0: 0cd7 013d 33ad 19bd a454 9e3c e7e4 a53d
000003f0: b501 0cbd 56ba 063d a288 96bd da63 473d

bias_ih_l0 f4 [128]
0.12704991 0.12967561 0.049387127 0.026899165 0.025866654 -0.069933034 0.03762105 -0.036010727
0.02955995 0.011213172 -0.016928645 -0.010856739 0.14158338 0.002389269 0.066664286 -0.0007869497
-0.053624004 -0.00041309217 0.008455651 0.04686242 -0.007891745 -0.012859466 0.04696947 0.0138802435
-0.019299652 0.046463486 0.064120896 0.014216386 0.025540745 0.12163188 -0.0651985 0.018367687
-0.0006273938 0.13373284 0.020601172 -0.020299327 0.09217144 -0.08592491 -0.011318106 -0.07047793
-0.011667011 -0.0115114525 0.032235757 -0.055145662 -0.010012554 -0.028747603 0.10472113 0.07062324
0.09063949 0.036062695 0.07979819 0.11498603 -0.0031225805 0.09159632 0.017650632 0.052162446
-0.06874205 0.016779099 0.0009920301 0.07801308 0.060559753 0.026335172 0.13533679 -0.0002389675
0.08934566 0.049828455 0.026723001 0.052082103 -0.050931323 -0.021381965 0.10635137 -0.013056793
0.102713645 0.107462086 0.07234028 0.076542035 0.11461389 0.025152266 0.11815211 -0.018849736
-0.012412465 -0.015952548 0.08184447 0.10408213 -0.052568357 0.07447743 -0.043774474 0.013279848
0.028262153 -0.08617429 0.05038285 -0.013992651 0.017126912 0.051306944 0.121899344 0.027930064
0.09259589 0.10188951 0.12677513 -0.051736634 0.05284107 0.049359713 -0.022393791 0.02308674
-0.046601705 0.02447045 0.018073715 -0.01301017 0.06013858 0.0035156806 0.016334936 -0.0005054462
-0.07881058 0.09649021 0.06652626 -0.02410947 0.053509314 -0.07934575 0.09874126 0.14685772
0.13951941 0.056366157 0.041737895 0.053988453 -0.005924845 0.119143315 0.123484485 0.11964528
00000000: 5f19 023e afc9 043e 284a 4a3d a35b dc3c
00000010: 4ee6 d33c 0d39 8fbd 8818 1a3d fc7f 13bd
00000020: b527 f23c 74b7 373c f1ad 8abc 77e0 31bc
00000030: 3cfb 103e 4895 1c3b 4987 883d 4d4b 4eba
00000040: d8a4 5bbd 4b94 d8b9 9289 0a3c cff2 3f3d
00000050: 614c 01bc 82b0 52bc 0f63 403d f669 633c
00000060: 4e1a 9ebc 7f50 3e3d d151 833d d8eb 683c
00000070: d33a d13c 231a f93d cb86 85bd d577 963c
00000080: af77 24ba 43f1 083e cac3 a83c c64a a6bc
00000090: 61c4 bc3d 66f9 afbd 946f 39bc bc56 90bd
000000a0: fe26 3fbc 889a 3cbc a409 043d 6be0 61bd
000000b0: b20b 24bc 1880 ebbc 0878 d63d eba2 903d
000000c0: 32a1 b93d 7ab6 133d 3c6d a33d cc7d eb3d
000000d0: 35a4 4cbb da96 bb3d 0f98 903c 4aa8 553d
000000e0: a2c8 8cbd 5274 893c 0207 823a 52c5 9f3d
000000f0: 810d 783d dcbc d73c ba95 0a3e 5a93 7ab9
00000100: dbfa b63d ec18 4c3d 32ea da3c 0b54 553d
00000110: 5d9d 50bd 3b29 afbc bfce d93d 29ec 55bc
00000120: 885b d23d 1515 dc3d 2427 943d 12c2 9c3d
00000130: b0ba ea3d 200c ce3c bcf9 f13d c36a 9abc
00000140: a75d 4bbc ebae 82bc 139e a73d 0329 d53d
00000150: eb51 57bd 9f87 983d dd4c 33bd b893 593c
00000160: 0886 e73c 257c b0bd 3f5e 4e3d 6f41 65bc
00000170: bd4d 8c3c 3b27 523d 5da6 f93d 97cd e43c
00000180: eaa2 bd3d 73ab d03d 57d1 013e cbe9 53bd
00000190: e16f 583d 692d 4a3d 2f73 b7bc 6720 bd3c
000001a0: 6ee1 3ebd 4176 c83c 540f 943c 9c28 55bc
000001b0: df53 763d 5567 663b d8d0 853c ec7f 04ba
000001c0: 7167 a1bd a99c c53d eb3e 883d 3981 c5bc
000001d0: 952c 5b3d 0680 a2bd dc38 ca3d df61 163e
000001e0: 2dde 0e3e 33e0 663d 5bf5 2a3d ff22 5d3d
000001f0: 3425 c2bb 6901 f43d 6fe5 fc3d 9608 f53d

bias_hh_l0 f4 [128]
0.09395755 0.022595936 -0.04231455 -0.02311391 0.11733368 -0.0803821 0.08301511 0.08759601
0.08470549 0.0028195393 -0.07730804 0.010006295 0.15256572 0.0045582806 -0.04628629 0.088561945
-0.04846546 -0.022641359 0.084557004 0.057831895 -0.0021576064 0.10781848 -0.071188755 -0.037153997
0.08042778 0.056783684 -0.058658402 0.013594607 0.11131537 0.10995854 0.06903744 -0.05429351
-0.06762069 0.12009919 0.019484606 0.09237138 0.13999753 -0.059105303 0.06619373 0.017916938
-0.024911676 0.07388794 0.117376655 -0.062612884 0.05563343 -0.044686362 0.10379396 0.04911229
0.11508697 0.15480673 0.07564141 0.018917322 0.034642976 0.05883558 0.061127365 -0.0008296692
0.015193298 0.043143846 0.010099435 0.04909418 0.10718591 0.042194437 0.14146306 -0.01772571
0.046651084 -0.012160675 0.073067546 0.07365289 -0.032137852 -0.029661482 0.043585565 -0.00025194956
-0.019352293 0.096384056 0.0423506 0.012397933 0.03332534 0.0043739616 0.11859797 0.019667309
-0.0069830897 0.05618874 0.11268872 -0.007557184 0.07435181 0.011095065 -0.04899801 0.013152853
0.08285965 0.042908587 -0.05307749 0.12765945 0.03624575 -0.01715334 0.06901624 0.08391875
0.011845907 0.028067267 0.06492716 0.020253323 0.0644422 0.03988764 0.11822083 -0.010080901
0.0041195317 0.047725778 0.0036122468 0.024343552 0.08027951 -0.0860703 -0.016481332 -0.034063354
-0.034409538 0.07266908 0.0745409 0.03054159 0.06112621 -0.00440152 0.08749869 0.019612111
0.05412746 -0.042296395 0.08941819 0.14422227 -0.03060666 0.07711125 -0.00598792 0.12126058
00000000: d16c c03d 1d1b b93c 0652 2dbd 6259 bdbc
00000010: a44c f03d 5f9f a4bd d303 aa3d 8965 b33d
00000020: 127a ad3d 05c8 383b ad53 9ebd 71f1 233c
00000030: 303a 1c3e a15d 953b b196 3dbd f75f b53d
00000040: b883 46bd 5f7a b9bc 392c ad3d 23e1 6c3d
00000050: a166 0dbb efcf dc3d 69cb 91bd ca2e 18bd
00000060: 52b7 a43d 0296 683d cb43 70bd eabb 5e3c
00000070: 50f9 e33d f131 e13d 8063 8d3d df62 5ebd
00000080: b77c 8abd 90f6 f53d 2e9e 9f3c 352d bd3d
00000090: 835b 0f3e 6718 72bd 9490 873d 8bc6 923c
000000a0: 9213 ccbc 8f52 973d 2c63 f03d 2f3b 80bd
000000b0: e1df 633d 0c09 37bd ed91 d43d f829 493d
000000c0: b8b2 eb3d a885 1e3e e2e9 9a3d 80f8 9a3c
000000d0: cbe5 0d3d 94fd 703d b060 7a3d 287e 59ba
000000e0: 50ed 783c 9ab7 303d 1a78 253c fb16 493d
000000f0: 4984 db3d 13d4 2c3d b1db 103e 8235 91bc
00000100: 3515 3f3d 913d 47bc 70a4 953d 54d7 963d
00000110: fba2 03bd a3fc f2bc c786 323d 1918 84b9
00000120: b388 9ebc 0165 c53d d377 2d3d b320 4b3c
00000130: 2780 083d 7353 8f3b 7ee3 f23d 561d a13c
00000140: 67d2 e4bb 2a26 663d 58c9 e63d 41a2 f7bb
00000150: c345 983d 13c8 353c 23b2 48bd 107f 573c
00000160: 52b2 a93d eac0 2f3d c867 59bd 29b9 023e
00000170: 6c76 143d 2985 8cbc 6358 8d3d 98dd ab3d
00000180: 5615 423c 53ed e53c 88f8 843d 4cea a53c
00000190: 46fa 833d 3961 233d c31d f23d 5d2a 25bc
000001a0: 23fd 863b 1b7c 433d 72bb 6c3b 216c c73c
000001b0: 9569 a43d a045 b0bd dc03 87bc 0486 0bbd
000001c0: 04f1 0cbd 87d3 943d e6a8 983d 5b32 fa3c
000001d0: 7a5f 7a3d a03a 90bb 8332 b33d 94a9 a03c
000001e0: c1b4 5d3d fc3e 2dbd e220 b73d 01af 133e
000001f0: d1ba fabc 81ec 9d3d 5036 c4bb 7857 f83d

weight_ih_l1 f4 [128, 128]
0.05135897 -0.011087722 -0.04729601 -0.07379357 0.06602119 -0.06469575 0.052161187 0.03868781
-0.027203638 0.055730633 0.069516055 0.053863328 0.022659857 0.07189165 0.055994567 0.0952062
-0.024389848 -0.039633617 0.026320057 0.019855978 0.0722766 0.028543001 0.07424005 0.08817653
-0.03856953 -0.016187249 -0.049801044 -0.038268358 0.00902153 0.08692282 0.06328505 0.0021218765
-0.07122327 -0.039902985 0.04484887 -0.026832039 0.03222902 0.053054016 0.1297098 -0.05378422
0.12324105 0.04481561 0.116946176 -0.040238135 0.031414967 -0.040404305 0.042787176 -0.07359792
0.111007765 -0.008602483 -0.013922183 -0.015977468 -0.024386482 0.09970596 -0.022967089 0.025795251
0.0076087597 0.03757549 0.055714466 -0.025975525 0.03512909 -0.04664817 0.056428336 0.084944785
0.10064712 0.11111621 0.041361116 -0.039272707 0.024755036 -0.030771773 0.092301786 -0.083695665
0.06573798 0.058931943 0.031078327 0.10020741 0.071616694 0.081876986 0.05032965 0.021845926
0.06727247 -0.048765577 0.02194195 0.022061368 0.04672153 0.044529807 -0.06746915 -0.04207019
0.056809682 -0.022283752 0.018773992 0.10577805 -0.04954551 0.07108012 0.019758755 0.119858935
0.070193484 -0.04849566 0.10568669 0.07641932 0.06877766 -0.007881223 0.007212883 0.026455294
0.01420059 0.10021099 0.017932722 0.12164264 0.09150039 0.028735952 -0.011213213 0.05633105
0.04419086 0.09534598 0.08789707 0.03221958 0.01836108 -0.043525115 0.010977554 -0.037564192
0.09554197 0.016067974 0.07663911 0.1290029 0.09987874 0.024991402 0.082207255 0.0631803
0.12111309 0.05470521 -0.03437877 0.08270151 -0.046808332 -0.013307238 -0.041052856 0.05798917
-0.010745916 0.04677871 -0.016119435 -0.022368783 0.050947923 0.0646929 0.013843882 -0.04663678
0.10331258 -0.08343364 -0.04443259 0.060057946 0.117940694 0.12007852 -0.07002969 0.038648058
0.0074599036 0.053491294 -0.044992086 0.061151423 0.12500459 0.06464205 0.05140924 0.013004547
0.053492583 -0.039545294 0.06929662 0.1188893 0.111880586 -0.017361434 0.11761736 -0.038887307
0.12589504 0.07243895 0.05118057 0.048384093 -0.026998457 -0.029533006 0.01160657 0.048945058
0.046822384 0.07683846 0.09749062 0.06355716 0.026139816 0.014104582 0.073437795 -0.03201264
0.015988894 -0.058770634 0.025569478 0.0056937304 0.06721701 0.0066810492 -0.0040397877 0.10157217
0.08362564 -0.04668779 -0.06996754 -0.022278601 -0.031601284 0.04144105 0.033817474 0.040956646
0.08059317 0.117764555 -0.082488686 0.11792377 0.001547932 -0.039453983 0.022244353 -0.0028543386
0.03510334 -0.014710033 -0.04414282 0.020323543 0.05243158 0.12410079 0.060526066 0.02132348
0.013914956 -0.03405683 -0.06481872 0.018394765 -0.046518523 -0.021869076 -0.0028065967 0.113462
-0.028511547 0.05830421 0.09986601 -0.005438686 0.0004972396 -0.06261523 0.0049347235 0.030971933
-0.052731168 0.03855217 0.120881744 -0.011227349 0.053455047 -0.021562459 -0.022556653 -0.0020603063
-0.045725856 0.113849305 -0.02112229 0.018552357 0.034008816 -0.046580676 0.0828794 0.093796
0.07926243 -0.07341407 0.0040487484 0.07326999 0.06745864 0.012259569 -0.026098924 0.08786361
00000000: c95d 523d 47a9 35bc 76b9 41bd 1521 97bd
00000010: 1e36 873d 357f 84bd f8a6 553d 1c77 1e3d
00000020: 2ada debc ce45 643d 6f5e 8e3d cb9f 5c3d
00000030: 2aa1 b93c ee3b 933d 8f5a 653d 78fb c23d
00000040: 38cd c7bc dc56 22bd 299d d73c 01a9 a23c
00000050: c105 943d 03d3 e93c 2b0b 983d e695 b43d
00000060: 15fb 1dbd 1f9b 84bc 2efc 4bbd 48bf 1cbd
00000070: 0acf 133c 9704 b23d 989b 813d 2e0f 0b3b
00000080: 81dd 91bd 5071 23bd 73b3 373d ddce dbbc
00000090: 9402 043d 2b4f 593d a5d2 043e d84c 5cbd
000000a0: ce65 fc3d 9390 373d 7a81 ef3d bed0 24bd
000000b0: fbac 003d fc7e 25bd 9b41 2f3d 82ba 96bd
000000c0: 0a58 e33d 6ef1 0cbc de19 64bc 2ee3 82bc
000000d0: 29c6 c7bc a332 cc3d 7a25 bcbc 9050 d33c
000000e0: e752 f93b c2e8 193d da34 643d a0ca d4bc
000000f0: 85e3 0f3d 2712 3fbd 6621 673d 88f7 ad3d
00000100: 1420 ce3d e590 e33d 466a 293d 6bdc 20bd
00000110: 13cb ca3c 1615 fcbc b808 bd3d a268 abbd
00000120: a2a1 863d 9f62 713d fa97 fe3c 8b39 cd3d
00000130: c6ab 923d 1faf a73d 7726 4e3d 3af6 b23c
00000140: 26c6 893d 6abe 47bd 9bbf b33c 0bba b43c
00000150: 135f 3f3d e364 363d 442d 8abd cb51 2cbd
00000160: 45b1 683d 6a8c b6bc eacb 993c 2aa2 d83d
00000170: 3cf0 4abd 7492 913d 1ddd a13c 9a78 f53d
00000180: 9ac1 8f3d 63a3 46bd 4372 d83d bc81 9c3d
00000190: 4ddb 8c3d 3f20 01bc 0c5a ec3b c6b8 d83c
000001a0: 97a9 683c 6b3b cd3d a5e7 923c c71f f93d
000001b0: 8e64 bb3d a967 eb3c a0b7 37bc 63bb 663d
000001c0: 7a01 353d c144 c33d 6103 b43d aef8 033d
000001d0: fa69 963c 6447 32bd 33db 333c e9dc 19bd
000001e0: 82ab c33d fca0 833c f7f4 9c3d 5619 043e
000001f0: 3a8d cc3d c5ba cc3c 475c a83d ac64 813d
00000200: 240a f83d 9212 603d c1d0 0cbd 695f a93d
00000210: 18ba 3fbd 9a06 5abc 0a27 28bd 0d86 6d3d
00000220: a30f 30bc 089b 3f3d e80c 84bc bd3e b7bc
00000230: c5ae 503d b67d 843d 73d1 623c 3506 3fbd
00000240: 8c95 d33d 42df aabd f3fe 35bd 52ff 753d
00000250: e48a f13d baeb f53d ba6b 8fbd 6d4d 1e3d
00000260: 3572 f43b b019 5b3d 9f49 38bd ea79 7a3d
00000270: 3401 003e 0d63 843d 7f92 523d 0611 553c
00000280: 0a1b 5b3d 3ffa 21bd 63eb 8d3d 3c7c f33d
00000290: a621 e53d 9139 8ebc 5fe1 f03d 4c48 1fbd
000002a0: a1ea 003e df5a 943d b8a2 513d 662e 463d
000002b0: de2b ddbc 34ef f1bc 7c29 3e3c 9d7a 483d
000002c0: d4c8 3f3d 7c5d 9d3d 2aa9 c73d 422a 823d
000002d0: 2b23 d63c e816 673c 8e66 963d b01f 03bd
000002e0: 24fb 823c 7ab9 70bd 1577 d13c 7992 ba3b
000002f0: 12a9 893d b4ec da3b 3260 84bb 1205 d03d
00000300: eb43 ab3d b23b 3fbd 244b 8fbd 9d81 b6bc
00000310: 5970 01bd 17be 293d 3184 0a3d 28c2 273d
00000320: 080e a53d 8b2e f13d d4ef a8bd 0482 f13d
00000330: fbe3 ca3a 809a 21bd ca39 b63c db0f 3bbb
00000340: 85c8 0f3d 5a02 71bc 1acf 34bd 8f7d a63c
00000350: 7fc2 563d 8e28 fe3d 2eea 773d 94ae ae3c
00000360: 8efb 633c 2d7f 0bbd adbf 84bd 9eb0 963c
00000370: 358a 3ebd c726 b3bc e1ee 37bb c45e e83d
00000380: 0c91 e9bc 65d0 6e3d 8d86 cc3d 0137 b2bb
00000390: 2f59 023a 6a3c 80bd 76b3 a13b dab8 fd3c
000003a0: a3fc 57bd e1e8 1d3d d990 f73d eaf2 37bc
000003b0: aef3 5a3d c1a3 b0bc bbc8 b8bc 3406 07bb
000003c0: 094b 3bbd d329 e93d a708 adbc 1dfb 973c
000003d0: d44c 0b3d 61cb 3ebd adbc a93d 1e18 c03d
000003e0: 5754 a23d 1e5a 96bd 5dab 843b 940e 963d
000003f0: c127 8a3d 5cdc 483c 69cd d5bc d6f1 b33d

weight_hh_l1 f4 [128, 128]
-0.011374727 0.08152651 -0.075658426 0.027509227 0.051255323 0.015218154 0.02578716 0.009316511
-0.05950355 -0.041667048 -0.07102954 -0.060351368 -0.020186558 0.057307877 -0.05210992 0.015119664
0.042701818 -0.062810585 0.039737187 0.07020668 0.015317284 -0.082194805 -0.023200229 -0.011512451
0.040090702 -0.053515118 -0.0592697 -0.057312254 -0.0302083 -0.030133888 0.011624679 -0.06970914
-0.01781682 -0.058522437 -0.059237994 0.016419098 0.037317418 -0.06700848 0.011641137 0.058856644
-0.010679737 0.08230979 -0.060598865 0.0620031 -0.04653207 -0.08037065 0.013504721 -0.061686
-0.018346906 -0.08096547 -0.07559473 0.081593715 0.057441585 -0.014084727 0.06162169 -0.034760516
0.005892426 0.06400228 -0.070690714 -0.066266224 -0.08707071 -0.04495307 -0.008627869 0.026511833
-0.08796972 0.011473797 -0.042312928 -0.07191252 -0.0034219325 -0.05500605 0.06987286 -0.031557567
-0.052190643 0.006090492 -0.044817746 -0.07875738 -0.071704865 0.0469371 0.06776058 0.069428466
0.03229987 -0.059657767 0.026133649 0.043605454 -0.07015303 0.03964115 -0.048116423 0.060277082
-0.036862317 0.0804157 0.07175217 0.019271359 -0.07924597 -0.0014703572 -0.028481312 0.030106038
-0.01955495 -0.047188368 -0.013998531 0.041306622 -0.002416961 -0.065387495 -0.026636925 0.038565777
0.06888176 -0.04245411 -0.025363363 -0.07816392 0.03744436 -0.081132494 0.07786236 -0.076739766
-0.07670953 0.05659107 -0.06942269 0.045235805 -0.018314883 0.018879965 0.08816316 -0.07512387
0.03715048 0.060162522 -0.007481143 0.017061405 0.067893706 0.047168903 -0.01901497 0.035351582
0.0769536 -0.010086291 0.010562465 -0.056859523 -0.01528389 0.059554465 -0.058643736 -0.04816759
-0.05454095 0.026919678 -0.05945047 -0.019406684 -0.06719648 -0.087448135 0.050494142 -0.029023245
-0.07918097 0.06411994 -0.07318782 -0.027233798 0.012476623 -0.05682413 -0.057816382 0.077272125
0.057585187 -0.02336149 -0.086141266 -0.01677803 0.07951168 0.049120434 0.035123885 -0.06661679
-0.014024511 -0.06474728 -0.024439506 -0.07108532 -0.0742953 0.07822736 0.078361414 0.04522761
-0.015219882 0.031106316 -0.06764117 -0.08785787 -0.028190594 -0.030015308 0.07239293 0.056148462
-0.05039895 -0.026093904 -0.04923899 0.016291276 -0.041305795 0.003558278 0.046988808 0.053221054
0.015685178 0.04127594 -0.06460645 0.071873926 -0.0733613 -0.08738968 -0.019500926 0.020164937
0.015029579 0.067663215 -0.08236163 0.012905829 -0.025430068 -0.009147517 0.051446073 -0.072200365
-0.009740904 -0.032775696 0.030346334 -0.049585514 0.04298646 -0.08336294 0.025268666 -0.04423045
-0.0027775168 0.011813574 -0.05881539 0.058477245 0.033371508 -0.07294587 0.07738892 0.04245933
-0.06844691 -0.06886643 -0.08186931 -0.044764526 -0.018394783 0.046809338 0.0067425147 0.04029963
-0.042884838 -0.06096673 0.009471692 0.059136637 -0.018510118 -0.06639218 -0.04601049 -0.00567998
0.004779525 0.05223044 0.02288767 0.05638232 -0.0018327162 0.006005831 0.07305535 -0.08328492
-0.031034715 -0.012115218 -0.028530013 -0.07268819 -0.083532 0.042055078 0.013882406 -0.043331858
-0.06967762 0.046470143 0.086217426 -0.02135691 0.027737044 -0.0077484325 0.07482379 0.050769992
00000000: 105d 3abc 5ff7 a63d cef2 9abd 085b e13c
00000010: 1af1 513d 9055 793c 983f d33c 48a4 183c
00000020: ffb9 73bd 11ab 2abd ef77 91bd ff32 77bd
00000030: 485e a5bc aabb 6a3d 3671 55bd 78b8 773c
00000040: 1ae8 2e3d d6a2 80bd 76c3 223d 85c8 8f3d
00000050: 58f5 7a3c c055 a8bd 680e bebc b89e 3cbc
00000060: 2636 243d ab32 5bbd c9c4 72bd 41c0 6abd
00000070: 6677 f7bc 58db f6bc 7075 3e3c aac3 8ebd
00000080: 94f4 91bc 39b5 6fbd 8aa3 72bd 5881 863c
00000090: 26da 183d be3b 89bd 78ba 3e3c aa13 713d
000000a0: 10fa 2ebc 0992 a83d 8436 78bd f6f6 7d3d
000000b0: 6998 3ebd 5e99 a4bd e842 5d3c 76aa 7cbd
000000c0: 404c 96bc 39d1 a5bd 69d1 9abd 9b1a a73d
000000d0: de47 6b3d a0c3 66bc 0667 7c3d 0b61 0ebd
000000e0: 4015 c13b a113 833d 4bc6 90bd 96b6 87bd
000000f0: 2152 b2bd b620 38bd e85b 0dbc 582f d93c
00000100: 7829 b4bd 98fc 3b3c 5250 2dbd df46 93bd
00000110: 8042 60bb 064e 61bd 8119 8f3d 8242 01bd
00000120: dbc5 55bd c092 c73b d092 37bd 8d4b a1bd
00000130: 00da 92bd 1e41 403d 0fc6 8a3d 8330 8e3d
00000140: de4c 043d b45b 74bd 3c16 d63c a29b 323d
00000150: 64ac 8fbd c25e 223d ba15 45bd 1ae5 763d
00000160: f1fc 16bd fdb0 a43d cdf2 923d f8de 9d3c
00000170: b64b a2bd 00b9 c0ba a451 e9bc f0a0 f63c
00000180: b431 a0bc 9748 41bd 185a 65bc 2231 293d
00000190: e065 1ebb e1e9 85bd ae35 dabc 26f7 1d3d
000001a0: e111 8d3d 5ce4 2dbd d4c6 cfbc 6814 a0bd
000001b0: 425f 193d cb28 a6bd 4d76 9f3d bd29 9dbd
000001c0: e319 9dbd 0acc 673d 7c2d 8ebd 2e49 393d
000001d0: 1809 96bc 28aa 9a3c e38e b43d 8bda 99bd
000001e0: 1a2b 183d fa6c 763d 6024 f5bb 5cc4 8b3c
000001f0: db0b 8b3d 2e34 413d 48c5 9bbc d2cc 103d
00000200: d999 9d3d f840 25bc 300e 2d3c 88e5 68bd
00000210: 4869 7abc 62ef 733d 6a34 70bd 614b 45bd
00000220: 5566 5fbd a886 dc3c 5682 73bd c4fa 9ebc
00000230: 4f9e 89bd 0218 b3bd f2d2 4e3d 28c2 edbc
00000240: a229 a2bd 5151 833d 7fe3 95bd 6a19 dfbc
00000250: c06a 4c3c 6bc0 68bd dfd0 6cbd d940 9e3d
00000260: 72de 6b3d 9860 bfbc d56a b0bd 1472 89bc
00000270: 05d7 a23d 8232 493d 10de 0f3d 626e 88bd
00000280: 10c7 65bc 399a 84bd 5c35 c8bc 2e95 91bd
00000290: 2228 98bd ab35 a03d f37b a03d 9640 393d
000002a0: d05c 79bc acd2 fe3c 7487 8abd d4ee b3bd
000002b0: f6ef e6bc aae2 f5bc bf42 943d eefb 653d
000002c0: 216f 4ebd e2c2 d5bc d3ae 49bd 4875 853c
000002d0: 4430 29bd 0032 693b 5677 403d 52fe 593d
000002e0: 347e 803c f610 293d 6350 84bd a332 933d
000002f0: 733e 96bd 5cf9 b2bd 68c0 9fbc f030 a53c
00000300: a03e 763c 0393 8a3d 37ad a8bd f872 533c
00000310: b852 d0bc 78df 15bc 1eb9 523d c9dd 93bd
00000320: 5098 1fbc cf3f 06bd e098 f83c 2e1a 4bbd
00000330: 9212 303d 30ba aabd 3c00 cf3c fd2a 35bd
00000340: 0007 36bb b88d 413c 68e8 70bd d685 6f3d
00000350: 90b0 083d a564 95bd 157e 9e3d d6e9 2d3d
00000360: e52d 8cbd d809 8dbd 19ab a7bd 025b 37bd
00000370: a8b0 96bc 26bb 3f3d 50f0 dc3b 3a11 253d
00000380: 03a8 2fbd 40b8 79bd 282f 1b3c 4239 723d
00000390: 88a2 97bc a0f8 87bd 7f75 3cbd 201f babb
000003a0: 909d 9c3b 96ef 553d ec7e bb3c 26f1 663d
000003b0: c037 f0ba 90cc c43b 0b9e 953d 4991 aabd
000003c0: 843c febc e87e 46bc c6b7 e9bc 8cdd 94bd
000003d0: d312 abbd f241 2c3d 0873 633c bf7c 31bd
000003e0: 24b3 8ebd 7a57 3e3d c392 b03d b0f4 aebc
000003f0: cc38 e33c 90e6 fdbb 373d 993d 32f4 4f3d

bias_ih_l1 f4 [128]
0.05619476 0.113891624 -0.062029976 -0.006282793 -0.05564227 0.051815595 -0.028074862 -0.05121258
0.00047222784 -0.09226559 0.075172365 0.009668488 -0.06049438 -0.0078812195 0.017664202 0.045549795
0.060421463 0.02454625 -0.029526139 -0.081059754 -0.06072153 -0.0034850454 -0.04406249 0.059531443
0.13666019 -0.07255079 0.024527494 -0.067600615 0.08508632 -0.082823254 0.061977617 0.022296796
0.058864426 -0.022001987 0.044807676 0.068002336 0.12320841 -0.005599118 0.010343487 0.06933456
0.0062589394 0.0030265516 -0.010291897 0.005555027 -0.04027469 0.106273465 0.11490948 0.054294415
0.04192507 0.040677655 0.0063791224 0.065236546 0.14493166 0.097932614 -0.032907914 -0.08594768
-0.056500684 0.07276511 0.12828684 -0.03799238 0.07322625 -0.07464035 -0.06666474 0.08349482
0.07000427 0.084884934 0.010919514 0.04966744 -0.016156536 0.0769391 0.025415216 -0.04036272
-0.013465255 0.07428675 0.07698367 0.044600952 -0.056891285 -0.011002027 -0.03242281 -0.00475976
-0.07647468 0.085328944 0.14836003 0.07780816 0.0068668723 -0.02117452 0.0041259006 0.0746758
0.08156167 -0.007722322 -0.019870834 -0.0518904 0.047957532 -0.012299808 0.06123699 0.0396345
-0.010116406 0.027606867 -0.018107546 0.024504231 -0.0073633045 0.1197845 -0.020217976 -0.04407017
0.03661454 0.02313607 -0.04939255 -0.0853875 -0.0008133401 -0.067629516 0.043262947 -0.03010188
-0.068825185 0.018452873 -0.06452175 -0.075516395 0.10358205 0.08235388 -0.03278304 -0.035248864
-0.07664414 0.077173434 -0.027611125 0.10550296 0.08361138 0.13651718 0.0072216545 -0.057700805
00000000: 7a2c 663d 0340 e93d 2513 7ebd e3df cdbb
00000010: 26e9 63bd 973c 543d 41fd e5bc 48c4 51bd
00000020: 5995 f739 bef5 bcbd f8f3 993d 9468 1e3c
00000030: f4c8 77bd 3b20 01bc 84b4 903c 6c92 3a3d
00000040: 7f7c 773d 3815 c93c cde0 f1bc a802 a6bd
00000050: 24b7 78bd 5c65 64bb df7a 34bd 3ed7 733d
00000060: a6f0 0b3e 8295 94bd e2ed c83c 3172 8abd
00000070: bd41 ae3d 3d9f a9bd 3edc 7d3d c5a7 b63c
00000080: d31b 713d 833d b4bc 4188 373d cf44 8b3d
00000090: b154 fc3d ce78 b7bb bb77 293c 47ff 8d3d
000000a0: ca17 cd3b 1c59 463b 589f 28bc f206 b63b
000000b0: 13f7 24bd e7a5 d93d a955 eb3d d263 5e3d
000000c0: 9fb9 2b3d 9d9d 263d f507 d13b bd9a 853d
000000d0: f768 143e e590 c83d 73ca 06bd 5605 b0bd
000000e0: 436d 67bd e005 953d a05d 033e e69d 1bbd
000000f0: a5f7 953d 0add 98bd 8687 88bd 55ff aa3d
00000100: 665e 8f3d 27d8 ad3d c3e7 323c 1670 4b3d
00000110: b65a 84bc 3f92 9d3d 9233 d03c 6153 25bd
00000120: 5f9d 5cbc a723 983d 9da9 9d3d 7daf 363d
00000130: d606 69bd d941 34bc c8cd 04bd c3f7 9bbb
00000140: c29e 9cbd f1c0 ae3d b1eb 173e e259 9f3d
00000150: 8003 e13b 3076 adbc 9032 873b a0ef 983d
00000160: ce09 a73d 880b fdbb 29c8 a2bc 078b 54bd
00000170: 1e6f 443d 2285 49bc a3d3 7a3d c957 223d
00000180: 48bf 25bc cc27 e23c 4756 94bc 19bd c83c
00000190: e047 f1bb 9351 f53d 2ba0 a5bc ec82 34bd
000001a0: 21f9 153d db87 bd3c d84f 4abd a4df aebd
000001b0: 5536 55ba 5881 8abd 7d34 313d 3898 f6bc
000001c0: 38f4 8cbd 7b2a 973c fb23 84bd 57a8 9abd
000001d0: d322 d43d 27a9 a83d 8247 06bd 1d61 10bd
000001e0: 9af7 9cbd 1b0d 9e3d ba30 e2bc f011 d83d
000001f0: 713c ab3d 29cb 0b3e a1a3 ec3b ae57 6cbd

bias_hh_l1 f4 [128]
0.019776396 0.054373678 0.069507666 0.1172014 0.059246022 -0.0505013 -0.07399761 -0.044190872
0.056850083 -0.015808998 -0.008412827 0.15409179 -0.030690283 0.013269757 -0.05786912 -0.020520758
0.15046102 0.12418001 -0.087164626 0.03384281 0.01394245 -0.0018043164 -0.059175983 0.017725816
0.027317962 0.059781212 0.052333567 -0.08460564 0.064360194 0.058770057 0.039682508 0.085961
0.006930982 -0.08793058 0.0072250827 0.0017340274 0.10467345 0.0072573074 0.042152688 -0.052594263
0.071640894 -0.044781987 0.048252784 0.006682311 -0.09924834 -0.04871612 0.09223172 0.13143303
0.14397645 -0.026577016 -0.0077433926 0.06613804 0.03494386 -0.015302347 -0.044594824 -0.004628938
0.012881091 0.14535122 0.04383294 -0.043986756 -0.030107915 -0.073796615 -0.080575846 0.1379061
0.07079461 -0.054199424 -0.030902928 -0.053800274 0.036210593 0.10704973 0.07536385 -0.056332108
0.055971663 0.0297395 -0.0029402806 -0.068555854 -0.085057095 0.022118114 -0.07164938 -0.09241813
0.038585212 -0.07330046 0.13780333 0.13470164 -0.02221568 -0.032744 -0.05583044 0.10742458
-0.038298823 0.083818726 0.06832266 -0.03700822 -0.080134 -0.039521277 0.06549378 0.006108494
-0.028629921 0.07824053 -0.08314865 -0.03945358 -0.087385766 0.07020275 0.08534276 -0.028023824
0.041906297 0.010314495 0.014809206 -0.061593316 0.017590875 0.025957173 -0.078953855 0.058302972
0.014949289 0.11434969 0.046300787 -0.047325857 0.0026497717 0.12282724 0.042868122 0.124543555
-0.004230757 0.12233172 -0.030321285 0.012958945 0.13560866 0.045719985 -0.0059231534 -0.07270732
00000000: 1c02 a23c efb6 5e3d 095a 8e3d 4a07 f03d
00000010: f5ab 723d 73da 4ebd 0f8c 97bd 7d01 35bd
00000020: a2db 683d df81 81bc f4d5 09bc 3dca 1d3e
00000030: 306a fbbc 6569 593c 2c08 6dbd 261b a8bc
00000040: 7412 1a3e 1752 fe3d 5e83 b2bd c29e 0a3d
00000050: e06e 643c d07e ecba 8462 72bd bb35 913c
00000060: ebc9 df3c 25dd 743d b95b 563d b945 adbd
00000070: 47cf 833d dfb8 703d 208a 223d 520c b03d
00000080: 4b1d e33b f314 b4bd 63c0 ec3b 4e48 e33a
00000090: 095f d63d b5ce ed3b 4ca8 2c3d 156d 57bd
000000a0: 76b8 923d 516d 37bd b6a4 453d 4af7 da3b
000000b0: b742 cbbd 8e8a 47bd fce3 bc3d 6196 063e
000000c0: 906e 133e 0bb8 d9bc 49bc fdbb 6173 873d
000000d0: 4b21 0f3d b2b6 7abc 10a9 36bd 59ae 97bb
000000e0: 360b 533c f3d6 143e 2b8a 333d 752b 34bd
000000f0: e0a4 f6bc ae22 97bd f304 a5bd 4237 0d3e
00000100: c4fc 903d 3700 5ebd 2328 fdbc ad5d 5cbd
00000110: 8f51 143d e43c db3d 5d58 9a3d 7fbc 66bd
00000120: 8b42 653d 40a0 f33c b9b1 40bb 0367 8cbd
00000130: 6a32 aebd 0c31 b53c e9bc 92bd b745 bdbd
00000140: 870b 1e3d 8d1e 96bd 511c 0d3e 3aef 093e
00000150: a8fd b5bc 931e 06bd 76ae 64bd 6b01 dc3d
00000160: 3adf 1cbd 27a9 ab3d c0ec 8b3d ee95 17bd
00000170: 4b1d a4bd 10e1 21bd 9a21 863d c329 c83b
00000180: 4c89 eabc 923c a03d d749 aabd 149a 21bd
00000190: 4ff7 b2bd 76c6 8f3d 2fc8 ae3d 3892 e5bc
000001a0: f0a5 2b3d 21fe 283c 50a2 723c 4649 7cbd
000001b0: bd1a 903c 23a4 d43c 8fb2 a1bd 19cf 6e3d
000001c0: dded 743c 2c30 ea3d e5a5 3d3d c2d8 41bd
000001d0: cba7 2d3b d98c fb3d 7c96 2f3d b110 ff3d
000001e0: 29a2 8abb 0e89 fa3d 5864 f8bc c151 543c
000001f0: ffdc 0a3e e144 3b3d 0317 c2bb 93e7 94bd

weight f4 [1, 128]
0.050282422 0.049743425 0.057384025 0.11923523 -0.004768984 -0.08391918 -0.07529877 -0.03730195
-0.032794975 -0.044042874 0.053889595 0.074390754 -0.02753361 0.04618032 -0.07824264 0.09181659
0.12015234 0.121834576 -0.011449028 -0.08762102 -0.07649199 -0.007930578 -0.01565727 -0.056885265
0.11957177 0.047227386 -0.04336957 -0.07781581 0.092115805 -0.03754218 -0.02789358 0.06390349
-0.011705005 -0.07826882 0.114459254 -0.063818604 0.060219225 0.09457359 -0.034526378 -0.05701764
0.023186134 -0.00883929 -0.056656625 -0.07084698 -0.049580492 0.066263855 0.11248149 0.073727645
0.08736362 -0.073828585 0.08453173 -0.008290108 0.095413275 0.090326004 -0.02796361 -0.07418517
-0.025348777 0.045339525 0.0935661 -0.068886995 -0.04075256 -0.014986897 -0.03821869 0.13067624
0.08890055 0.07904997 0.010794935 -0.01936356 -0.07477107 0.08275804 0.054674134 -0.056718953
-0.069733694 -0.028963495 0.067795016 -0.05595748 -0.00050334603 0.09136715 0.08020779 -0.041208334
0.057826377 -0.04661765 0.06720792 0.12039677 -0.00437551 -0.0476931 -0.059176344 0.09500634
0.10360699 0.066845745 -0.059025176 0.00056723505 -0.078942806 -0.03635119 0.103966966 0.06289416
0.06831417 0.05303144 -0.08648985 0.109050065 0.033004723 0.033740938 0.05242709 -0.06384597
0.08683801 -0.02287047 -0.021688705 -0.040595323 -0.06451534 -0.011916646 -0.0680931 -0.037114173
-0.041550018 0.1151389 -0.07347806 -0.07112984 0.0648479 0.12587684 -0.021763194 0.084535316
-0.06707497 0.039768398 -0.021035194 0.120318025 0.062568665 0.08158632 0.09500551 -0.047212046
00000000: f1f4 4d3d c3bf 4b3d 830b 6b3d 9a31 f43d
00000010: 2345 9cbb d2dd abbd 3e36 9abd eec9 18bd
00000020: 0654 06bd 4d66 34bd 56bb 5c3d 2e5a 983d
00000030: 2a8e e1bc 9327 3d3d ad3d a0bd 560a bc3d
00000040: 6e12 f63d 6884 f93d b494 3bbc a672 b3bd
00000050: d5a7 9cbd 41ef 01bc ad43 80bc 8600 69bd
00000060: 0be2 f43d 8171 413d 4aa4 31bd e55d 9fbd
00000070: 36a7 bc3d d4c5 19bd 1481 e4bc d5df 823d
00000080: 59c6 3fbc 674b a0bd 9d69 ea3d 54b3 82bd
00000090: 6fa8 763d ccaf c13d 886b 0dbd 548b 69bd
000000a0: d9f0 bd3c abd2 10bc c710 68bd 3918 91bd
000000b0: ea14 4bbd 58b5 873d b25c e63d 85fe 963d
000000c0: b3eb b23d 7133 97bd f91e ad3d 3cd3 07bc
000000d0: 0968 c33d d7fc b83d f113 e5bc 65ee 97bd
000000e0: 3da8 cfbc f0b5 393d 959f bf3d a014 8dbd
000000f0: 28ec 26bd 9a8b 75bc 338b 1cbd fecf 053e
00000100: 7e11 b63d f3e4 a13d 3ddd 303c 54a0 9ebc
00000110: 9321 99bd 0c7d a93d fcf1 5f3d 2252 68bd
00000120: 8ad0 8ebd da44 edbc 1dd8 8a3d ac33 65bd
00000130: fbf2 03ba b31e bb3d fb43 a43d 12ca 28bd
00000140: 5adb 6c3d 26f2 3ebd 4ea4 893d 9592 f63d
00000150: 7060 8fbb d759 43bd e562 72bd af92 c23d
00000160: e72f d43d 6ce6 883d 62c4 71bd 80b2 143a
00000170: c4ac a1bd fce4 14bd a2ec d43d a7ce 803d
00000180: 4de8 8b3d 7f37 593d 9721 b1bd a455 df3d
00000190: f62f 073d f033 0a3d cabd 563d adc1 82bd
000001a0: 20d8 b13d da5a bbbc 83ac b1bc 4847 26bd
000001b0: 9e20 84bd 093e 43bc 6574 8bbd 0805 18bd
000001c0: 5a30 2abd f2cd eb3d aa7b 96bd 86ac 91bd
000001d0: face 843d dce5 003e ba48 b2bc da20 ad3d
000001e0: 9a5e 89bd 30e4 223d 0052 acbc 4c69 f63d
000001f0: 0024 803d bb16 a73d 4092 c23d 6b61 41bd
