Model/TCN.pth (torch, 528663 bytes, 9 tensors)

weight f4 [32, 11, 3]
0.1701171 0.04132967 0.14170158 -0.11347475 0.12993772 -0.036188796 0.11845549 -0.027423639
0.07511807 -0.016501462 0.04857033 0.1682174 -0.16173548 -0.10111295 0.114464715 -0.05584264
-0.15465902 -0.042936217 0.15950978 0.102735706 -0.122362524 0.0271772 0.15169325 0.01599191
-0.07984359 -0.13528033 0.12965257 0.07847273 -0.0027102574 -0.16082866 0.14799605 0.13511173
0.088215 0.028924495 0.14476825 -0.029031955 0.0256948 -0.042312283 -0.13596608 -0.11592592
-0.03254083 0.046785098 -0.0060480256 -0.061064433 0.10754099 -0.022574326 -0.0062538153 0.07517428
-0.11772153 0.10702595 -0.16057275 0.145602 -0.16280851 -0.14340904 0.048489537 0.13061167
-0.031749535 0.15315163 -0.08225345 -0.073027 0.14316642 0.021276923 -0.04307622 0.10200695
0.106487565 0.06047148 0.15470809 0.10510853 -0.08842412 -0.06570339 0.062474813 -0.10923227
0.10694379 -0.12320907 0.11680935 0.011901938 -0.12864031 -0.03718458 -0.041349526 -0.1564609
-0.120543025 0.008579584 -0.16397709 -0.105697 0.0076068332 0.043725587 -0.1476102 0.06645581
-0.13171354 0.11640155 -0.10779781 0.1273424 -0.12155712 -0.0120158475 -0.10906659 -0.0259587
-0.17251208 -0.07621252 0.075650565 -0.13100648 0.115853965 -0.10941737 -0.15437028 0.07072999
-0.04180366 0.0079989955 0.069190435 -0.07606257 0.07922638 -0.08169605 0.16013871 0.022896783
0.08890171 0.054576654 0.077197954 -0.17381573 0.08193051 0.063912205 -0.10251252 -0.15356398
0.14813688 0.08609296 -0.089630716 0.0017291243 -0.057319444 0.012775337 0.16392957 -0.15551867
0.15312769 -0.16276775 -0.06599546 -0.07192501 0.050128 -0.006024797 0.16909014 0.063512534
0.07629271 0.027038159 0.009682732 0.03515793 -0.14515077 0.040361654 -0.07322508 0.028064977
0.061333437 0.00318485 0.12381422 0.14499682 0.00068570615 -0.02739411 0.12625316 -0.047384746
-0.03042199 0.014896738 0.04117808 0.14825606 0.05658128 -0.0705362 0.04762001 -0.13931106
-0.009739728 0.09802491 0.08160638 -0.12414273 0.15668201 -0.11103832 0.12110251 -0.1252518
0.07097265 0.14892042 0.13729015 0.15666479 0.030747123 0.11766329 -0.03418097 0.1465983
-0.1172724 0.0971838 0.13109161 0.15541105 -0.04440691 -0.15069431 0.10902903 -0.113475345
0.03861301 0.060771286 0.087354556 -0.026405308 -0.008684054 -0.14226772 0.0849217 -0.05229407
-0.06881182 0.16583027 0.12167257 -0.10530756 -0.054999277 0.087839864 -0.03449831 0.11843987
-0.118813515 0.048706632 -0.08353122 -0.15446301 -0.09446552 -0.08507974 -0.035725378 -0.1538026
-0.13933206 0.004532978 0.14414418 0.12331572 -0.014584022 -0.12665302 -0.1617752 0.09330824
0.06452298 0.13610041 -0.16572668 -0.013679252 -0.0112315025 0.045567583 0.100612596 0.13372493
-0.12011181 -0.021285648 0.032029245 0.10647823 -0.076513216 0.029784411 0.0743111 -0.061464597
0.13087003 -0.13714543 -0.03040563 -0.10718893 0.1126469 -0.09749297 0.14146516 -0.03754998
0.11175222 0.06470289 -0.15639515 0.022637792 0.081135556 -0.109429464 0.15178074 0.093088135
0.027961101 0.16989984 0.004034181 0.11790284 0.15921459 -0.06761151 0.15871005 0.10899742
00000000: 2d33 2e3e 4d49 293d 381a 113e 7365 e8bd
00000010: 650e 053e b43a 14bd cb98 f23d 8aa7 e0bc
00000020: 81d7 993d 132e 87bc aff1 463d 2f41 2c3e
00000030: fc9d 25be 4e14 cfbd 7a6c ea3d 41bb 64bd
00000040: ef5e 1ebe e3dd 2fbd 8856 233e 1967 d23d
00000050: 3499 fabd b8a2 de3c 7a55 1b3e 7701 833c
00000060: 0985 a3bd ed86 0abe a5c3 043e 50b6 a03d
00000070: 939e 31bb 45b0 24be 478c 173e bb5a 0a3e
00000080: 11aa b43d 10f3 ec3c 213e 143e 6cd4 edbc
00000090: e77d d23c a54f 2dbd b13a 0bbe 926a edbd
000000a0: 8949 05bd bba1 3f3d 842e c6bb b31e 7abd
000000b0: 733e dc3d cbed b8bc ceec ccbb f9f4 993d
000000c0: fc17 f1bd 6c30 db3d 2f6d 24be b118 153e
000000d0: 46b7 26be d2d9 12be f79c 463d 11bf 053e
000000e0: cd0b 02bd c8d3 1c3e 7f74 a8bd 2e8f 95bd
000000f0: 389a 123e f14c ae3c b170 30bd 05e9 d03d
00000100: 2716 da3d f1b0 773d cc6b 1e3e 2443 d73d
00000110: b417 b5bd 808f 86bd 97e5 7f3d 2bb5 dfbd
00000120: 5905 db3d 0955 fcbd be39 ef3d 5900 433c
00000130: 49ba 03be dc4e 18bd 1f5e 29bd 4937 20be
00000140: 43df f6bd 6291 0c3c 9ce9 27be ab77 d8bd
00000150: be42 f93b 9a19 333d 2127 17be fc19 883d
00000160: eadf 06be f063 ee3d 19c5 dcbd 0c66 023e
00000170: f0f2 f8bd 1ede 44bc 4e5e dfbd 57a7 d4bc
00000180: 02a7 30be 4f15 9cbd afee 9a3d 9026 06be
00000190: d844 ed3d 3716 e0bd 3e13 1ebe e3da 903d
000001a0: 513a 2bbd 380e 033c b7b3 8d3d b1c6 9bbd
000001b0: 7141 a23d 4250 a7bd 67fb 233e 0992 bb3c
000001c0: 1a12 b63d c58b 5f3d f619 9e3d c0fc 31be
000001d0: 2fcb a73d 67e4 823d 16f2 d1bd e03f 1dbe
000001e0: 32b1 173e 8151 b03d 4f90 b7bd c9a3 e23a
000001f0: cbc7 6abd a64f 513c 27dd 273e 4940 1fbe
00000200: 81cd 1c3e 97ac 26be a128 87bd 6b4d 93bd
00000210: 0553 4d3d a96b c5bb f725 2d3e dc12 823d
00000220: 5a3f 9c3d 217f dd3c 52a4 1e3c c301 103d
00000230: 67a2 14be 4352 253d 08f7 95bd 86e8 e53c
00000240: c538 7b3d ebb8 503b 4f92 fd3d 0c7a 143e
00000250: f6c0 333a 9d69 e0bc 8248 013e 8216 42bd
00000260: 8a37 f9bc 7311 743c 59aa 283d 70d0 173e
00000270: c6c1 673d 4975 90bd 330d 433d 8fa7 0ebe
00000280: 6193 1fbc 49c1 c83d 3f21 a73d 8b3e febd
00000290: 4071 203e 0f68 e3bd 9804 f83d 0242 00be
000002a0: 1c5a 913d 987e 183e ca95 0c3e bc6c 203e
000002b0: 64e1 fb3c 73f9 f03d 5801 0cbd dd1d 163e
000002c0: 832c f0bd 4d08 c73d e13c 063e 1324 1f3e
000002d0: 05e4 35bd 9c4f 1abe 9d4a df3d c365 e8bd
000002e0: ad28 1e3d 50eb 783d f2e6 b23d f24f d8bc
000002f0: 9047 0ebc a1ae 11be 6eeb ad3d 4f32 56bd
00000300: 36ed 8cbd 69cf 293e 782f f93d 7dab d7bd
00000310: ec46 61bd 63e5 b33d 1a4e 0dbd 9a90 f23d
00000320: 8054 f3bd 9b80 473d 6b12 abbd 8d2b 1ebe
00000330: 2377 c1bd 493e aebd c654 12bd 6e7e 1dbe
00000340: 10ad 0ebe 6089 943b 889a 133e f48c fc3d
00000350: d2f1 6ebc 54b1 01be 66a8 25be 6418 bf3d
00000360: a024 843d e85d 0b3e 41b4 29be f11e 60bc
00000370: 5604 38bc 13a5 3a3d fa0d ce3d 30ef 083e
00000380: 2efd f5bd 3d5f aebc 1931 033d 4211 da3d
00000390: f6b2 9cbd 70fe f33c 6b30 983d 4dc2 7bbd
000003a0: cb02 063e da6f 0cbe 3a15 f9bc df85 dbbd
000003b0: 6bb3 e63d 65aa c7bd 3edc 103e 02ce 19bd
000003c0: 59de e43d f382 843d 0d26 20be e472 b93c
000003d0: 662a a63d 8e1c e0bd 696c 1b3e fea4 be3d
000003e0: ae0e e53c 39fa 2d3e 2a31 843b 0b77 f13d
000003f0: 2609 233e e777 8abd e384 223e 0a3a df3d

bias f4 [32]
-0.102959394 0.16000685 -0.01181835 -0.084533684 0.008608234 -0.09352007 0.03765941 -0.12157152
-0.04911936 0.092240885 0.08610921 -0.11515281 0.09370072 -0.033274844 -0.13850778 -0.15916862
0.090609804 -0.15489948 0.068294294 -0.11388729 -0.15233393 0.15741485 -0.1624164 -0.054074384
0.08300882 0.0576156 0.06431919 -0.12773272 -0.15613727 0.115422845 0.16644517 -0.093855724
00000000: 60dc d2bd d6d8 233e c1a1 41bc ff1f adbd
00000010: 8d09 0d3c 7387 bfbd c140 1a3d 7dfa f8bd
00000020: 6231 49bd cae8 bc3d 075a b03d 3dd5 ebbd
00000030: 2ae6 bf3d 344b 08bd fcd4 0dbe 19fd 22be
00000040: a291 b93d f89d 1ebe e1dd 8b3d bd3d e9bd
00000050: 6dfd 1bbe 5c31 213e 7c50 26be 1a7d 5dbd
00000060: 8700 aa3d 56fe 6b3d c8b9 833d 5ecc 02be
00000070: 73e2 1fbe d062 ec3d 9a70 2a3e 6e37 c0bd

weight f4 [64, 32, 3]
-0.077955306 -0.062068727 0.06843397 -0.00037657173 -0.04995475 0.08945285 0.100528285 0.05217692
0.06441215 0.053498056 0.03286091 0.016631112 0.0066024824 0.07863531 -0.0012001604 -0.05387147
0.08490358 0.07102051 0.06721127 0.09585113 0.050162155 -0.007802986 0.075294994 -0.038460687
0.08652943 0.04690782 -0.064994395 -0.012574796 0.07876827 -0.012689914 0.016391367 -0.046506748
0.010298332 -0.011016411 -0.03426889 -0.018876916 0.032147884 0.055612233 -0.0886746 -0.10051996
-0.008547504 -0.025254657 -0.030006627 0.088748135 0.024186043 0.060985096 0.069995455 0.08257905
0.10426852 -0.012427264 0.097067535 0.09478967 -0.09353225 -0.05067666 0.030963518 0.046778016
0.08562334 -0.09733838 -0.02233466 -0.07646672 -0.03226518 -0.0916947 0.039610043 -0.05317064
0.09033271 -0.07906731 -0.060501244 -0.029430987 -0.0009273463 -0.09275225 -0.0384347 0.024615837
0.037881415 0.1062707 -0.02111409 -0.07535422 0.0063668373 0.010346298 -0.017813116 0.027419463
-0.034356266 -0.058019 -0.048070624 0.10378462 -0.055014048 0.038813945 0.0505444 -0.035858057
0.08164948 -0.065953374 -0.033011045 -0.068913236 -0.06570013 0.08445644 -0.0335988 -0.061500043
0.047815256 -0.0024029198 0.0046657524 0.08039901 0.082322195 0.0075029107 -0.09734063 0.021010185
0.0010396997 0.03727553 -0.043629136 -0.09541338 -0.025876375 -0.014067212 -0.050540324 0.0661542
0.07343672 -0.077199146 -0.04294637 -0.06327488 0.027869858 0.05574547 0.083396375 -0.054571707
-0.08438385 0.09546216 0.09176074 -0.011071851 0.05996773 0.0151325585 0.007493477 0.068438634
0.045890834 -0.0053037694 -0.03032825 0.019018598 -0.020077217 0.011671008 -0.009770126 0.070521824
0.08386094 -0.009411216 0.046309125 0.04831176 0.010271401 0.095237724 0.076965354 -0.009411644
-0.08531525 0.040024 0.10439668 -0.08414617 0.0992907 -0.095676675 -0.02502374 0.044127394
0.025508013 0.02407053 -0.021495638 -0.10035523 -0.025838118 -0.0146373175 -0.079264574 -0.0717976
-0.028552672 0.053545482 0.07744678 -0.058362667 -0.046516225 0.089166634 -0.006342854 0.07092316
0.08382061 0.054828215 0.018759912 0.023425512 0.05563575 -0.09143887 -0.022890992 0.0049142465
0.063417256 0.039676175 0.023267107 0.0024087236 0.088782266 -0.09381446 -0.07483898 -0.076417744
-0.0051477626 -0.072136655 -0.020550096 0.07250395 0.03070316 -0.0826958 -0.09066757 -0.059510097
-0.10030333 0.100564644 -0.07308023 -0.09632656 -0.030009825 0.052669574 0.03838329 0.035900168
-0.034808103 0.07178628 -0.07054462 -0.015317838 0.00212849 -0.045312252 -0.06345473 0.022606365
0.04755584 -0.038123153 -0.08930041 -0.094460554 0.037992414 -0.06843529 -0.0080765085 0.046846915
0.03498786 0.06648336 -0.08032803 -0.0667762 0.023607427 0.044767376 -0.06759786 -0.06148884
-0.0732718 -0.042736042 -0.029675964 0.051179577 -0.02421751 -0.056382928 -0.065249756 0.017419113
-0.036336333 0.06894201 0.00515313 -0.002662102 0.074265875 0.09901015 0.00089772756 -0.08724076
-0.0082806945 0.03233318 -0.028700925 -0.011967301 0.01278533 0.070770755 0.07978497 0.10043416
-0.096509956 -0.056827527 -0.059962984 0.0429849 0.0134352315 0.005882696 -0.00094595243 0.023301074
00000000: 08a7 9fbd c73b 7ebd 1c27 8c3d 9a6e c5b9
00000010: 5a9d 4cbd 0e33 b73d c6e1 cd3d 77b7 553d
00000020: 84ea 833d c720 5b3d 2999 063d f83d 883c
00000030: a359 d83b 8d0b a13d b34e 9dba 55a8 5cbd
00000040: eee1 ad3d 3373 913d 10a6 893d 994d c43d
00000050: d576 4d3d 31b0 ffbb 4334 9a3d f488 1dbd
00000060: 5736 b13d 6a22 403d c81b 85bd 8406 4ebc
00000070: 4251 a13d 5be9 4fbc 3047 863c dc7d 3ebd
00000080: 56ba 283c 2d7e 34bc 895d 0cbd c3a3 9abc
00000090: 80ad 033d a7c9 633d 079b b5bd 69dd cdbd
000000a0: d50a 0cbc dbe2 cebc 75d0 f5bc 95c1 b53d
000000b0: cf21 c63c 82cb 793d c759 8f3d 341f a93d
000000c0: bc8a d53d b99b 4bbc 58cb c63d 1621 c23d
000000d0: d68d bfbd 5492 4fbd 34a7 fd3c 4e9a 3f3d
000000e0: 4a5b af3d 5859 c7bd 2df7 b6bc 959a 9cbd
000000f0: 7e28 04bd 6eca bbbd 243e 223d 75c9 59bd
00000100: 5b00 b93d 0bee a1bd 27d0 77bd 4119 f1bc
00000110: 2819 73ba e4f4 bdbd b46d 1dbd 27a7 c93c
00000120: 8b29 1b3d 74a4 d93d 75f7 acbc 5053 9abd
00000130: e7a0 d03b 8583 293c d0ec 91bc c89e e03c
00000140: 28b9 0cbd 55a5 6dbd b4e5 44bd 088d d43d
00000150: 6956 61bd 5ffb 1e3d a507 4f3d e6df 12bd
00000160: d837 a73d 9012 87bd 9736 07bd 6222 8dbd
00000170: ca8d 86bd 7ff7 ac3d e59e 09bd 78e7 7bbd
00000180: eed9 433d 4e7a 1dbb 2be3 983b 3ca8 a43d
00000190: 8a98 a83d fada f53b 865a c7bd 8d1d ac3c
000001a0: 8846 883a 3aae 183d 77b4 32bd 1768 c3bd
000001b0: b1fa d3bc 2a7a 66bc 5f03 4fbd da7b 873d
000001c0: fe65 963d 961a 9ebd 88e8 2fbd 4396 81bd
000001d0: 544f e43c 5d55 643d b8cb aa3d 9586 5fbd
000001e0: 71d1 acbd aa81 c33d 0eed bb3d b566 35bc
000001f0: b9a0 753d 8dee 773c d78b f53b 8e29 8c3d
00000200: 07f8 3b3d 3ecb adbb f372 f8bc e4cc 9b3c
00000210: fa78 a4bc c137 3f3c e112 20bc bf6d 903d
00000220: 49bf ab3d 8031 1abc a3ae 3d3d 8de2 453d
00000230: 6149 283c ff0b c33d 03a0 9d3d 4c33 1abc
00000240: c3b9 aebd 35f0 233d edcd d53d d454 acbd
00000250: ec58 cb3d 22f2 c3bd 96fe ccbc edbe 343d
00000260: 2ef6 d03c 8f2f c53c 9f17 b0bc 0b87 cdbd
00000270: 76aa d3bc 5cd1 6fbc 7755 a2bd 9f0a 93bd
00000280: 4be7 e9bc 8252 5b3d 6b9c 9e3d b10d 6fbd
00000290: cc87 3ebd ff9c b63d b7d7 cfbb 2940 913d
000002a0: 24aa ab3d 8d93 603d 63ae 993c dce6 bf3c
000002b0: 50e2 633d 4d44 bbbd e485 bbbc b007 a13b
000002c0: e8e0 813d 7c83 223d a99a be3c addb 1d3b
000002d0: 7ad3 b53d cc21 c0bd 2e45 99bd e880 9cbd
000002e0: 90ae a8bb 62bc 93bd ad58 a8bc f37c 943d
000002f0: 3285 fb3c 6a5c a9bd ebaf b9bd dcc0 73bd
00000300: d56b cdbd d6f4 cd3d 16ab 95bd dc46 c5bd
00000310: 2ad7 f5bc 0dbc 573d cc37 1d3d 0e0c 133d
00000320: f192 0ebd af04 933d b379 90bd abf7 7abc
00000330: 237e 0b3b 5799 39bd 8ef4 81bd fc30 b93c
00000340: eac9 423d 0627 1cbd 22e3 b6bd 8974 c1bd
00000350: ef9d 1b3d cd27 8cbd 5553 04bc 8de2 3f3d
00000360: 6e4f 0f3d 6e28 883d 0683 a4bd f6c1 88bd
00000370: 5d64 c13c ff5d 373d bf70 8abd b9db 7bbd
00000380: 870f 96bd fd0b 2fbd 021b f3bc ada1 513d
00000390: cd63 c6bc c9f1 66bd aaa1 85bd 87b2 8e3c
000003a0: 68d5 14bd 7831 8d3d 96db a83b a976 2ebb
000003b0: b518 983d d5c5 ca3d 7a55 6b3a 49ab b2bd
000003c0: c0ab 07bc cc6f 043d 341e ebbc 8012 44bc
000003d0: 9079 513c 42f0 903d 4d66 a33d 6db0 cd3d
000003e0: 03a7 c5bd fbc3 68bd bf9b 75bd ef10 303d
000003f0: 721f 5c3c a1c3 c03b cbf9 77ba e5e1 be3c

bias f4 [64]
-0.022303496 0.004816072 0.089337096 0.08037607 -0.057423063 -0.034988355 0.07514442 0.011426749
-0.04857502 -0.039653845 -0.028137242 -0.06734005 -0.020103866 0.099004015 0.10562479 0.06810386
0.087866955 0.07910994 -0.06560287 0.017335376 -0.051871706 0.09379197 0.04822088 0.010203457
0.103177175 0.0007544954 -0.06611903 -0.017458167 -0.004606658 -0.02212889 0.073956735 -0.04856351
0.013326714 -0.03693596 0.023926366 0.10537351 -0.037676074 0.06777003 -0.022359122 -0.058147747
0.02100801 0.08614718 -0.017593073 0.06500218 -0.024013208 -0.02206894 0.05899954 -0.0783307
0.05689478 -0.025668798 0.10265076 -0.0204166 -0.017920332 -0.03399522 0.1029318 -0.0019235122
0.0071934937 0.09866188 0.047890965 -0.07413262 0.0147570735 0.028054915 -0.011959678 0.09134476
00000000: d2b5 b6bc 24d0 9d3b 5ef6 b63d 369c a43d
00000010: 7234 6bbd f34f 0fbd 51e5 993d 4237 3b3c
00000020: 9af6 46bd 126c 22bd 1380 e6bc 95e9 89bd
00000030: ddb0 a4bc 9ec2 ca3d cf51 d83d 097a 8b3d
00000040: 97f3 b33d 6404 a23d cc5a 86bd eb02 8e3c
00000050: 6d77 54bd 0116 c03d 4283 453d 672c 273c
00000060: 8e4e d33d 54c9 453a 6a69 87bd 6e04 8fbc
00000070: 73f3 96bb a547 b5bc a176 973d 88ea 46bd
00000080: 4a58 5a3c 294a 17bd 3a01 c43c 11ce d73d
00000090: 3a52 1abd 03cb 8a3d 7a2a b7bc 552c 6ebd
000000a0: fd18 ac3c ef6d b03d 591f 90bc dd1f 853d
000000b0: 59b7 c4bc ecc9 b4bc 80a9 713d d96b a0bd
000000c0: 800a 693d 5f47 d2bc 903a d23d b740 a7bc
000000d0: a9cd 92bc 923e 0bbd e8cd d23d 5c1e fcba
000000e0: 66b7 eb3b 3d0f ca3d 5129 443d d8d2 97bd
000000f0: a7c7 713c 6cd3 e53c 86f2 43bc f612 bb3d

weight f4 [128, 64, 3]
0.07280653 0.077838406 -0.016086716 -0.020902138 -0.0323893 0.04834526 -0.061507903 0.02811907
0.047860373 0.060420964 -0.047275994 -0.019201534 0.059133314 0.06334075 0.056795325 0.016357955
-0.036901657 -0.03849704 -0.049063385 -0.040390916 0.04486164 0.028222563 0.052801404 -0.032949995
0.07388435 0.036811892 0.07492099 0.030601906 -0.03088697 0.04885128 0.04355143 0.005158771
-0.032276735 0.016380973 0.055121697 -0.015325661 -0.010811484 0.017739145 -0.04380962 -0.02715845
-0.024253143 -0.0004222597 0.021418909 -0.003388784 -0.041918535 0.031808298 0.029891944 0.0059220525
0.06560059 0.010877436 0.047194887 -0.028436976 0.057035174 0.04483987 0.075215265 0.07521534
0.056916457 0.07538835 0.053092677 -0.028229035 0.040074427 0.03991888 -0.021632882 0.037813198
-0.035857953 -0.01258846 0.045406085 0.02797793 0.016119724 0.057411928 0.06052827 -0.065124385
-0.031508505 0.0668136 0.053820413 -0.0042829216 0.02745451 0.009851255 0.010215284 0.045403317
-0.009421056 0.027448067 0.065013014 -0.042160977 -0.06373529 0.06304734 -0.06477459 0.038849838
-0.012489451 -0.021192813 -0.040755592 -0.04749737 0.064808376 0.023334702 0.02083066 0.061641794
-0.016705383 0.011740066 -0.045117427 0.050617564 -0.055360347 0.031338193 0.061045986 0.05048602
-0.050915886 0.017053084 -0.049495447 -0.029008728 0.04174538 -0.060440283 0.07662801 -0.021911941
0.07803534 -0.034853812 0.016128277 0.070430964 0.032406032 -0.0033031064 8.700889e-05 0.049641408
-0.061018456 -0.044938702 -0.032874525 0.076060794 0.0050460882 -0.063266344 -0.06317646 -0.0017021392
-0.0068958155 0.049411282 0.030291935 0.06842045 -0.04626952 0.0465366 0.05411427 -0.020135852
0.0024012679 0.028040297 0.07126611 -0.0436614 -0.056580286 -0.0072486084 0.021300094 0.060059242
-0.05312575 -0.03662685 0.016017903 -0.06100151 0.051721737 0.06425598 0.0065114303 -0.06568078
-0.062301956 -0.044558108 -0.047808766 -0.05509038 0.017524373 0.041716233 0.029479716 -0.064342834
0.03336002 -0.043614015 0.06860089 0.043856982 -0.039253265 0.04732407 0.076923594 0.067676656
0.018740611 -0.008535813 0.05639754 -0.042511925 0.019206394 -0.05476191 -0.047775123 0.0125100585
0.034810055 0.005526432 -0.056298148 -0.0149572035 0.07348188 0.003865023 -0.015616577 0.018064158
0.012040755 -0.05405757 0.018302817 0.071536005 0.05394047 -0.05551291 0.057539087 -0.062183738
0.015440373 -0.036346287 -0.010941584 -0.044029295 -0.007217796 0.0041723116 -0.0022241198 -0.060356934
-0.05026189 -0.010372565 -0.011558819 -0.04187565 -0.019472746 0.00080876664 0.066924475 -0.06263713
0.05402778 0.03389033 -0.06485248 -0.021509979 -0.04975929 -0.008321283 -0.010964772 -0.022397902
-0.011341449 -0.0037608999 0.07486439 0.024513068 -0.02789957 0.018425116 -0.013238548 -0.05358034
-0.04775686 0.024089718 -0.015506954 0.043155372 0.026432388 -0.009846626 0.036066893 -0.043736376
-0.014190463 -0.04224246 0.05432161 0.05015337 0.07074712 0.02788707 -0.014007276 0.07085936
-0.06546148 0.054872293 -0.0009139998 0.068403214 0.0011359408 0.059619974 0.045122597 0.05251727
0.05554098 0.000976535 0.03534153 -0.040806346 -0.038898118 -0.06133082 -0.007698248 -0.06523213
00000000: 971b 953d be69 9f3d 4ac8 83bc f63a abbc
00000010: a5aa 04bd ae05 463d b6ef 7bbd f759 e63c
00000020: 3d09 443d f97b 773d 79a4 41bd 894c 9dbc
00000030: c635 723d ccb8 813d 37a2 683d 1e01 863c
00000040: 3126 17bd 12af 1dbd b0f6 48bd f270 25bd
00000050: d7c0 373d 0133 e73c 4946 583d 93f6 06bd
00000060: ae50 973d 11c8 163d 2d70 993d d9b0 fa3c
00000070: ac06 fdbc 4818 483d fc62 323d e80a a93b
00000080: 9c34 04bd 6431 863c 4ac7 613d 7b18 7bbc
00000090: a722 31bc af51 913c b771 33bd 667b debc
000000a0: 87ae c6bc bd62 ddb9 b576 af3c 5c16 5ebb
000000b0: c5b2 2bbd 6b49 023d f3df f43c c70d c23b
000000c0: 9a59 863d 4637 323c 6d4f 413d a9f4 e8bc
000000d0: b79d 693d 03aa 373d 760a 9a3d 800a 9a3d
000000e0: 3b21 693d 3565 9a3d b577 593d 9440 e7bc
000000f0: 1525 243d fb81 233d 7137 b1bc 03e2 1a3d
00000100: cadf 12bd d43f 4ebc bbfb 393d f931 e53c
00000110: 830d 843c c528 6b3d 7eec 773d ef5f 85bd
00000120: 100f 01bd 92d5 883d cb72 5c3d c057 8cbb
00000130: 48e8 e03c 2967 213c 025e 273c d4f8 393d
00000140: c65a 1abc c5da e03c 8b25 853d fdb0 2cbd
00000150: a687 82bd f71e 813d 8aa8 84bd 0221 1f3d
00000160: 8ea0 4cbc 8d9c adbc 56ef 26bd 9a8c 42bd
00000170: 41ba 843d 6b28 bf3c 0fa5 aa3c 1b7c 7c3d
00000180: bad9 88bc 6859 403c 0dcd 38bd 5d54 4f3d
00000190: 88c1 62bd 7a5c 003d 5b0b 7a3d 6eca 4e3d
000001a0: 2d8d 50bd e9b2 8b3c bdbb 4abd b6a3 edbc
000001b0: 34fd 2a3d 3b90 77bd 25ef 9c3d ac80 b3bc
000001c0: fed0 9f3d dfc2 0ebd 731f 843c 1c3e 903d
000001d0: 30bc 043d ee78 58bb 8b78 b638 ca54 4b3d
000001e0: 7dee 79bd a511 38bd 70a7 06bd c3c5 9b3d
000001f0: a859 a53b c991 81bd a962 81bd 501a dfba
00000200: 4bf6 e1bb 7c63 4a3d cb26 f83c 0520 8c3d
00000210: 1c85 3dbd 299d 3e3d eda6 5d3d f1f3 a4bc
00000220: 975e 1d3b c4b4 e53c f7f3 913d 4cd6 32bd
00000230: bbc0 67bd bc85 edbb 897d ae3c ae00 763d
00000240: 639a 59bd 0906 16bd fa37 833c b8dc 79bd
00000250: 2cda 533d a498 833d d65d d53b a583 86bd
00000260: 5630 7fbd 9082 36bd 20d3 43bd 73a6 61bd
00000270: 468f 8f3c a4de 2a3d 727f f13c 2dc6 83bd
00000280: 84a4 083d 9ca4 32bd a07e 8c3d 61a3 333d
00000290: 08c8 20bd e2d6 413d 1e8a 9d3d 0f9a 8a3d
000002a0: e985 993c cbd9 0bbc 1b01 673d fc20 2ebd
000002b0: ba56 9d3c 064e 60bd d9af 43bd fdf6 4c3c
000002c0: fd94 0e3d 1217 b53b e398 66bd 0f0f 75bc
000002d0: ab7d 963d 534c 7d3b acdc 7fbc 49fb 933c
000002e0: 9646 453c 786b 5dbd caef 953c 7881 923d
000002f0: aff0 5c3d 8161 63bd 1bae 6b3d 60b4 7ebd
00000300: 9ef9 7c3c d8df 14bd 5444 33bc 1058 34bd
00000310: 4383 ecbb e3b7 883b 8ac2 11bb d538 77bd
00000320: 69df 4dbd b1f1 29bc 3361 3dbc cd85 2bbd
00000330: 4f85 9fbc 6903 543a b30f 893d e547 80bd
00000340: 3c4c 5d3d 96d0 0a3d 61d1 84bd b235 b0bc
00000350: 66d0 4bbd fe55 08bc 96a5 33bc ce7b b7bc
00000360: 7cd1 39bc 6e79 76bb 8052 993d a1cf c83c
00000370: a48d e4bc 45f0 963c 7fe6 58bc 0f77 5bbd
00000380: b29c 43bd cd57 c53c e110 7ebc b0c3 303d
00000390: bc88 d83c be53 21bc e1ba 133d ea24 33bd
000003a0: 1e7f 68bc 6e06 2dbd 5680 5e3d 9f6d 4d3d
000003b0: dee3 903d 6d73 e43c c67e 65bc b61e 913d
000003c0: ab10 86bd c5c1 603d 7d99 6fba fc16 8c3d
000003d0: d9e3 943a 1334 743d 79d2 383d 591c 573d
000003e0: f07e 633d 28fe 7f3a 48c2 103d 8e24 27bd
000003f0: a253 1fbd 0736 7bbd 9641 fcbb 6c98 85bd

bias f4 [128]
-0.051353592 0.052045245 0.024542142 0.062927805 -0.06042731 -0.013194141 -0.042674728 0.07586953
-0.01648704 0.019922748 0.06443678 0.036692157 -0.015494717 -0.065011054 0.07568482 0.07049474
-0.06275479 0.035005234 0.05526513 -0.0052331304 0.08007057 0.07242602 0.04974234 -0.0154213365
-0.068738885 -0.014415657 -0.007632914 0.067299515 0.054950137 0.05564861 0.060942773 0.05496516
-0.010326616 -0.057647068 0.039937735 -0.053773735 -0.012580447 0.012263958 0.07317681 0.0033219417
-0.046717767 -0.025028797 -0.028190492 0.03764575 -0.029746186 0.06620927 0.036156826 0.023092167
-0.0381032 0.0679098 0.023203505 -0.06565937 0.07356718 -0.05850951 -0.058446236 -0.045778938
0.025493663 -0.053198274 0.0018948233 0.06537176 0.08059472 0.07028831 0.005342563 0.026839504
0.07690317 -0.015206461 0.0103214625 -0.059046697 0.014542695 0.005012387 0.056315783 -0.027087323
-0.02872251 0.066357054 0.0060360823 0.0303467 0.05951956 0.08197966 -0.04154818 0.07177525
0.01814833 0.07147121 0.037605755 0.06573926 0.03244102 -0.042459942 -0.0068758004 0.012807645
-0.056829177 0.055519596 0.061243147 -0.007401434 -0.031454816 -0.029298991 0.020532938 0.00873283
0.07126699 -0.026388684 0.04224153 -0.005389338 -0.0205104 0.06326346 0.024698056 -0.011934586
0.07930153 0.03196672 -0.017099489 -0.024503367 -0.008048052 -0.05071643 -0.045403328 0.078813486
-0.0354082 0.014334909 -0.029555384 -0.0106306225 -0.03213003 0.05943922 0.019849017 0.015648989
-0.0012453411 0.040109977 -0.008723815 0.016601617 0.029213471 -0.03635606 -0.04125744 0.042255796
00000000: 2558 52bd 652d 553d 9a0c c93c 4be0 803d
00000010: a182 77bd 3d2c 58bc b2cb 2ebd 7c61 9b3d
00000020: d40f 87bc 0835 a33c 6ef7 833d 844a 163d
00000030: 8edd 7dbc 8424 85bd a500 9b3d 8c5f 903d
00000040: 9585 80bd a661 0f3d b05d 623d ae7a abbb
00000050: 0afc a33d 1854 943d a0be 4b3d c6a9 7cbc
00000060: f9c6 8cbd a62f 6cbc 861d fabb 54d4 893d
00000070: 6513 613d ccef 633d 219f 793d 2623 613d
00000080: f730 29bc 551f 6cbd c095 233d d941 5cbd
00000090: 381e 4ebc c5ee 483c b9dd 953d efb4 593b
000000a0: 215b 3fbd 3109 cdbc bfef e6bc 6e32 1a3d
000000b0: 46ae f3bc ba98 873d 2e19 143d c92b bd3c
000000c0: 1a12 1cbd 4b14 8b3d 4715 be3c 6b78 86bd
000000d0: 64aa 963d aba7 6fbd 5265 6fbd b282 3bbd
000000e0: 16d8 d03c 6fe6 59bd b85b f83a a1e1 853d
000000f0: d80e a53d 51f3 8f3d ab10 af3b 85de db3c
00000100: 697f 9d3d 8524 79bc 5a1b 293c f3da 71bd
00000110: 7c44 6e3c f33e a43b 61ab 663d 3ce6 ddbc
00000120: 784b ebbc 35e6 873d 54ca c53b a599 f83c
00000130: c8ca 733d f4e4 a73d 6d2e 2abd e7fe 923d
00000140: ceab 943c 7f5f 923d 7e08 1a3d 4ea2 863d
00000150: e0e0 043d 7aea 2dbd 654e e1bb 28d7 513c
00000160: b6c5 68bd 8468 633d 18da 7a3d ba87 f2bb
00000170: c4d6 00bd 7004 f0bc b134 a83c 2514 0f3c
00000180: 6df4 913d 152d d8bc 7405 2d3d 0b99 b0bb
00000190: 6d05 a8bc 4690 813d 9453 ca3c 4889 43bc
000001a0: d768 a23d 89ef 023d 3a14 8cbc 49bb c8bc
000001b0: fadb 03bc 08bc 4fbd d7f8 39bd f768 a13d
000001c0: 3008 11bd f7dc 6a3c 221e f2bc 102c 2ebc
000001d0: c79a 03bd 8a76 733d 689a a23c 4f32 803c
000001e0: b73a a3ba 5c4a 243d 55ee 0ebc 1d00 883c
000001f0: 1751 ef3c 18ea 14bd 90fd 28bd 6a14 2d3d

weight f4 [256, 128, 3]
-0.037373863 0.0009611791 0.015930275 0.053403474 0.051158637 6.9168455e-05 0.040257614 0.05229832
0.022173038 0.03072687 0.01388251 -0.010794019 0.015236758 0.049498193 0.05021417 0.0040268977
-0.036925886 -0.036322214 0.0537831 0.018473499 -0.012736437 0.052898288 -0.03975176 0.047265388
-0.0101703005 0.034449916 -0.006506535 -0.008353195 -0.009926222 0.05679771 0.011578975 -0.029732475
0.0019103939 -0.010026921 -0.0021433416 0.024288539 0.03340054 0.019069357 0.012873055 0.05581757
-0.004092237 0.055708926 -0.032033607 -0.027091129 0.057327833 -0.024251223 -0.0022512472 0.057823934
-0.030828115 -0.034343414 -0.029322676 0.042854987 -0.029248415 -0.030479789 0.005372086 0.047461037
0.03248609 -0.0331001 -0.010736613 -0.0051041017 0.010360532 0.028429894 -0.02842622 -0.00010287035
0.030152634 -0.024903147 -0.025902858 0.041323878 0.050643656 -0.020564022 0.054662507 -0.031252105
0.0033266107 -0.015494522 0.009372276 -0.016700068 -0.0025112154 -0.0033567995 -0.034087725 -0.030131018
-0.0036992435 0.014381671 0.05277216 0.050125353 0.012914264 -0.041655764 0.013608942 0.0264625
-0.037067328 0.010450996 0.02262302 -0.027148336 0.0033959174 0.05618044 -0.021993956 0.039431915
0.035299886 -0.028291225 -0.0398719 0.038926613 0.036874823 0.02275277 -0.04156531 0.0484558
0.056968827 -0.0391608 -0.03865988 0.052059956 0.011793476 -0.03189451 0.04841652 0.025595134
-0.015104327 -0.008884791 0.025699606 0.0025367786 -0.015702894 0.0064404435 0.050652385 -0.017529348
-0.03547024 -0.0039739227 0.014633097 0.055992268 0.05852981 -0.013775729 0.017319767 -0.033863284
0.057628654 -0.035621364 -0.03362897 -0.018067705 -0.02847033 0.026052732 0.02574065 -0.02759152
-0.010082418 0.049330235 -0.013529185 -0.025224425 -0.018995417 -0.029476201 -0.039096355 0.025713908
-0.00452486 -0.03239366 0.041779634 -0.01763713 -0.0019987246 0.051356573 -0.049000062 -0.032646712
0.036941063 0.04065775 0.0488939 0.037735824 0.055497646 0.05373017 2.1656751e-06 -0.020827645
0.012212743 0.041440733 -0.032342266 0.037374843 0.042545464 -0.026843363 0.003882864 -0.028108867
0.036627993 0.034440752 -0.035052534 -0.03503098 -0.0027583237 -0.040200092 0.04422417 -0.0059602605
-0.004802473 0.055632614 0.021932943 -0.006762014 0.02176707 -8.5606494e-05 0.008050313 0.030933548
0.0018887476 0.04697363 0.03359516 0.041870374 -0.023595069 0.0034460642 0.028402198 0.018265937
-0.0129653 -0.015871514 0.028366275 0.023760715 -0.00089954614 0.0012657556 0.0035745406 0.01604809
0.014903745 -0.008098655 -0.01883563 0.031795688 -0.01959963 -0.042965233 0.042990267 0.013108947
-0.005322587 0.05772254 0.04929626 -0.006851607 0.050580293 -0.026339289 0.048287418 0.0015718548
0.021244435 0.00965866 0.032834575 0.031237954 0.0037273583 -0.024389535 -0.010699088 -0.016678087
-0.03299982 -0.0138008045 0.003008562 -0.01717432 -0.0107121235 0.0362254 0.0010975001 -0.0013190984
0.056706764 0.045220472 0.0026582584 -0.009513147 0.02141225 0.025898628 0.03924672 0.053242914
-0.004001436 0.021299781 0.0480515 -0.015302321 -0.032824896 -0.01901083 0.03816607 0.049790964
-0.0014702543 0.026711868 0.053991947 0.0030206803 -0.020102536 -0.017453616 0.056911215 0.022846418
00000000: 5615 19bd a3f7 7b3a 3580 823c 9abd 5a3d
00000010: b88b 513d 880e 9138 2be5 243d c336 563d
00000020: 3ba4 b53c ebb6 fb3c 7873 633c 66d9 30bc
00000030: 98a3 793c 9ebe 4a3d 60ad 4d3d 11f4 833b
00000040: 993f 17bd 9ac6 14bd ab4b 5c3d bc55 973c
00000050: 7dac 50bc e0ab 583d bed2 22bd 5a99 413d
00000060: 55a1 26bc 5b1b 0d3d c634 d5bb d7db 08bc
00000070: 98a1 22bc b7a4 683d beb5 3d3c 8591 f3bc
00000080: 2f66 fa3a f447 24bc 4e77 0cbb c2f8 c63c
00000090: 01cf 083d 5737 9c3c 82e9 523c f7a0 643d
000000a0: 2c18 86bb 0b2f 643d ac35 03bd 37ee ddbc
000000b0: 97d0 6a3d 80aa c6bc a989 13bb cad8 6c3d
000000c0: 3e8b fcbc aeab 0cbd 1c36 f0bc b688 2f3d
000000d0: 5f9a efbc c0b0 f9bc 5308 b03b 8166 423d
000000e0: 2210 053d f893 07bd 9ee8 2fbc 4f40 a7bb
000000f0: 39bf 293c cfe5 e83c 1bde e8bc 19bc d7b8
00000100: a802 f73c af01 ccbc 3b32 d4bc 3a43 293d
00000110: b96f 4f3d e175 a8bc cbe5 5f3d 3502 00bd
00000120: 4403 5a3b bcdc 7dbc 2d8e 193c 95ce 88bc
00000130: 3493 24bb c0fd 5bbb 929f 0bbd 53d5 f6bc
00000140: 026f 72bb 1aa1 6b3c 9f27 583d 3e50 4d3d
00000150: 5996 533c 3c9f 2abd 0af8 5e3c e3c7 d83c
00000160: e9d3 17bd a83a 2b3c e953 b93c 3066 debc
00000170: 0a8e 5e3b 761d 663d ab2c b4bc 5c83 213d
00000180: 9d96 103d 00c3 e7bc b850 23bd 8371 1f3d
00000190: 0e0a 173d 0464 ba3c 6340 2abd 9779 463d
000001a0: 2558 693d 1367 20bd d359 1ebd d23c 553d
000001b0: 6c39 413c d1a3 02bd 6750 463d e3ac d13c
000001c0: 2478 77bc 8491 11bc fb87 d23c 1540 263b
000001d0: 5ba3 80bc 5b0a d33b e078 4f3d b599 8fbc
000001e0: 3e49 11bd ae37 82bb a8bf 6f3c 2658 653d
000001f0: f4bc 6f3d 98b3 61bc 2fe2 8d3c 3ab4 0abd
00000200: 060c 6c3d b5e7 11bd 88be 09bd b902 94bc
00000210: 9c3a e9bc 8a6c d53c 0ede d23c 9d07 e2bc
00000220: ba30 25bc 800e 4a3d 84a9 5dbc 74a3 cebc
00000230: 479c 9bbc 1378 f1bc 8023 20bd f9a5 d23c
00000240: 4745 94bb 37af 04bd 1f21 2b3d be7b 90bc
00000250: 09fd 02bb 455b 523d 4ab4 48bd 8fb8 05bd
00000260: 834f 173d be88 263d f844 483d e190 1a3d
00000270: 8051 633d 2b14 5c3d 0456 1136 bd9e aabc
00000280: f517 483c c2bd 293d 5379 04bd 5d16 193d
00000290: 2744 2e3d 9de6 dbbc a677 7e3b 9144 e6bc
000002a0: 3c07 163d bf11 0d3d 3f93 0fbd a57c 0fbd
000002b0: fec4 34bb daa8 24bd 6724 353d 4a4e c3bb
000002c0: 105e 9dbb 06df 633d b7ac b33c e293 ddbb
000002d0: db50 b23c a387 b3b8 76e5 033c 5a68 fd3c
000002e0: da8f f73a 6c67 403d 149b 093d 4580 2b3d
000002f0: 724a c1bc 5dd7 613b baab e83c 72a2 953c
00000300: 696c 54bc fa04 82bc 6460 e83c d5a5 c23c
00000310: 85cf 6bba b6e7 a53a d742 6a3b 4977 833c
00000320: d62e 743c 39b0 04bc 2e4d 9abc 323c 023d
00000330: 678f a0bc 50fc 2fbd 9016 303d e9c6 563c
00000340: 1969 aebb 786e 6c3d e0ea 493d 7283 e0bb
00000350: 482d 4f3d 7ec5 d7bc 07c9 453d b206 ce3a
00000360: cf08 ae3c 5b3f 1e3c 8c7d 063d bde6 ff3c
00000370: b246 743b 90cc c7bc 3a4b 2fbc 7ca0 88bc
00000380: d22a 07bd c51c 62bc 4b2b 453b 29b1 8cbc
00000390: e781 2fbc 1661 143d fed9 8f3a 99e5 acba
000003a0: 5a45 683d 1a39 393d 2d36 2e3b 08dd 1bbc
000003b0: be68 af3c 5c29 d43c 2bc1 203d 3e15 5a3d
000003c0: 7a1e 83bb e17c ae3c a6d1 443d 96b6 7abc
000003d0: 6673 06bd 9abc 9bbc 0654 1c3d 9cf1 4b3d
000003e0: 8cb5 c0ba d9d2 da3c a926 5d3d 9bf6 453b
000003f0: 13ae a4bc e3fa 8ebc bc1b 693d 6928 bb3c

bias f4 [256]
-0.003391761 -0.021945814 0.022085842 -0.019475125 0.035146836 -0.0003343229 0.03660521 0.034243412
0.056009833 0.049792383 0.029567743 0.039342813 -0.036534797 -0.0132995695 -0.003931768 0.004005407
0.034548722 0.025419477 -0.03870991 0.034672756 -0.0008556449 -0.019244285 -0.011990002 -0.05115897
0.018016914 -0.030476406 0.023213243 -0.031255297 0.013274756 -0.009955806 -0.012426078 -0.026476352
0.011695526 -0.021342676 -0.03661903 -0.0021435695 -0.058112167 -0.023191014 0.03392166 0.003051279
0.059438772 -0.020266773 -0.0027774782 0.015318089 -0.02169674 0.04767086 0.017979538 0.006729111
0.055379428 -0.004527024 0.05075952 -0.0032482778 0.018754445 -0.032962304 0.0036319653 -0.04084954
0.043116935 0.0053670746 0.006231056 -0.011729806 -0.02668463 -0.050379653 0.048466913 -0.033847667
-0.037267048 -0.033203833 -0.031967644 0.029688077 -0.046236355 -0.055324428 0.03731022 -0.039219845
-0.018192105 -0.054418676 -0.00011137957 0.03039712 0.043566037 0.025027076 -0.037232175 -0.05094626
0.017394716 0.037057657 0.017034994 0.029445454 -0.000996445 0.0523586 0.017804684 0.014047546
0.006955151 -0.00949809 0.042481966 -0.028613614 -0.02000702 -0.029711789 0.02109488 0.043556776
0.00804661 -0.012112164 0.043423146 0.024790015 -0.0017522048 0.0046178335 -0.038200017 -0.019764787
-0.033562765 -0.0055809254 -0.026966013 -0.034888346 -0.036810827 0.04529669 -0.023644786 -0.011821024
0.0014295721 0.037540525 -0.03904252 -0.03180986 -0.0069740587 0.019500742 0.040171936 -0.054495443
-0.02343278 0.03420493 -0.032102827 -0.037191875 0.004638315 -0.02986285 -0.025171528 -0.05289649
-0.009260313 -0.013131542 -0.044930287 0.0015562942 0.0029453484 0.034828063 0.0451263 -0.04908409
0.058145843 0.04894579 0.03478416 0.002504781 -0.022840569 0.059032552 -0.046191163 0.028318962
0.022286367 -0.047717154 0.060809433 -0.04039757 0.029202517 -0.013412644 0.037972674 -0.0014862048
0.009477278 0.02143846 0.022629565 0.003443169 -0.049540136 -0.00032840265 -0.041883145 0.059265792
-0.0290012 -0.035443105 0.041355558 0.045046125 -0.013962213 0.017849697 0.04168734 -0.01850309
-0.040816534 -0.009773599 -0.02600886 0.0061752885 -0.02743302 0.06024916 -0.0068321596 0.03051486
0.01924011 0.0069729206 0.036884494 -0.010409298 0.0116873495 0.006636718 0.043963604 0.001940345
0.0505389 -0.0030335183 -0.030014437 0.04726657 0.04943296 -0.012456909 -0.026385995 0.02286103
-0.02389888 0.003478531 -0.01486452 0.04800199 0.037728094 -0.014726138 0.044120427 0.027979482
0.03164829 0.027503345 -0.015620872 0.00034218203 -0.016424391 -0.033443682 0.024325524 0.019012725
-0.014034091 0.055081178 0.029237239 -0.015697442 -0.024417749 0.044293392 0.030470736 0.011801501
0.024690883 -0.01712317 0.00029454005 0.010309666 0.03514713 -0.026023483 -0.018597731 -0.017914329
-0.004355079 0.023827694 -0.008765223 0.04286716 0.04820378 0.00020207794 -0.031290025 0.021250177
-0.018303132 -0.005927927 0.04041673 -0.0034045621 0.03868195 -0.035271455 -0.004035329 0.0033483114
0.033092074 -0.051326714 0.044214107 0.032881863 -0.00045569538 0.04806419 0.023611993 0.004571296
0.021470543 0.032354068 -0.005374697 -0.03833968 0.01632769 0.017829569 0.014875052 -0.034307316
00000000: 4f48 5ebb b5c7 b3bc 5eed b43c 4c8a 9fbc
00000010: 21f6 0f3d 0f48 afb9 58ef 153d d242 0c3d
00000020: 916a 653d 19f3 4b3d 0d38 f23c ee25 213d
00000030: 83a5 15bd 70e6 59bc 0fd6 80bb ca3f 833b
00000040: f682 0d3d 823c d03c 488e 1ebd 0505 0e3d
00000050: 5b4d 60ba 31a6 9dbc b771 44bc 118c 51bd
00000060: 3598 933c a8a9 f9bc b329 be3c 8e05 00bd
00000070: 5d7e 593c ad1d 23bc c096 4bbc efe4 d8bc
00000080: 979e 3f3c d6d6 aebc d6fd 15bd 217b 0cbb
00000090: 0607 6ebd 15fb bdbc 70f1 0a3d f8f7 473b
000000a0: 1276 733d 8106 a6bc 5a06 36bb b9f8 7a3c
000000b0: 5dbd b1bc 8542 433d d349 933c e07f dc3b
000000c0: 8ad5 623d 6e57 94bb 37e9 4f3d 0fe1 54bb
000000d0: eca2 993c 7b03 07bd 4406 6e3b d951 27bd
000000e0: 629b 303d 49de af3b e32d cc3b 5f2e 40bc
000000f0: ba99 dabc e55a 4ebd 3e85 463d daa3 0abd
00000100: 55a5 18bd be00 08bd 81f0 02bd 6934 f33c
00000110: 5562 3dbd de9b 62bd 9ad2 183d fda4 20bd
00000120: 9c07 95bc 1ee6 5ebd 7494 e9b8 6203 f93c
00000130: 4d72 323d 9505 cd3c c480 18bd 07ad 50bd
00000140: 5d7f 8e3c c5c9 173d f98c 8b3c 9837 f13c
00000150: 259b 82ba f975 563d 21db 913c ae27 663c
00000160: 09e8 e33b e09d 1bbc 9201 2e3d 1967 eabc
00000170: c3e5 a3bc 2366 f3bc 2bcf ac3c 9768 323d
00000180: eed5 033c 1972 46bc 78dc 313d 6e14 cb3c
00000190: 3daa e5ba 3251 973b 9f77 1cbd c3e9 a1bc
000001a0: 1c79 09bd 32e0 b6bb d4e7 dcbc 15e7 0ebd
000001b0: f3c6 16bd 0689 393d b6b2 c1bc f8ac 41bc
000001c0: 7b60 bb3a 18c4 193d 0deb 1fbd 0e4b 02bd
000001d0: a586 e4bb 05c0 9f3c 548b 243d 9d36 5fbd
000001e0: 1af6 bfbc 781a 0c3d 417e 03bd 8256 18bd
000001f0: 02fd 973b f0a2 f4bc 8534 cebc fda9 58bd
00000200: 91b8 17bc ae25 57bc d208 38bd 91fc cb3a
00000210: bf06 413b dfa7 0e3d 5bd6 383d 660c 49bd
00000220: 562a 6e3d 617b 483d d679 0e3d 4027 243b
00000230: 251c bbbc 1ecc 713d f232 3dbd 2bfd e73c
00000240: e691 b63c 1073 43bd 5013 793d ec77 25bd
00000250: 1e3a ef3c b5c0 5bbc 3c89 1b3d c2cc c2ba
00000260: 9646 1b3c b69f af3c a361 b93c caa6 613b
00000270: 99ea 4abd 752d acb9 a98d 2bbd b0c0 723d
00000280: ed93 edbc ca2c 11bd 7264 293d 4982 383d
00000290: c4c1 64bc 8739 923c 58c0 2a3d cb93 97bc
000002a0: 3d2f 27bd 7221 20bc 8810 d5bc 135a ca3b
000002b0: 36bb e0bc d3c7 763d 4fe0 dfbb 4dfa f93c
000002c0: 6f9d 9d3c 197d e43b 3214 173d c38b 2abc
000002d0: 4c7c 3f3c d378 d93b 2e13 343d 2d53 fe3a
000002e0: e101 4f3d fecd 46bb d6e0 f5bc 979a 413d
000002f0: 377a 4a3d 1018 4cbc 7127 d8bc 0e47 bb3c
00000300: 96c7 c3bc 11f8 633b 518a 73bc bc9d 443d
00000310: c688 1a3d e645 71bc 9fb7 343d 3a35 e53c
00000320: a3a1 013d b24e e13c b0ee 7fbc e566 b339
00000330: 728c 86bc 3efc 08bd 5246 c73c 93c0 9b3c
00000340: 3eef 65bc cd9c 613d ef82 ef3c ec97 80bc
00000350: bb07 c8bc fd6c 353d c49d f93c 155b 413c
00000360: 8944 ca3c e445 8cbc 7f6c 9a39 e0e9 283c
00000370: 70f6 0f3d 332f d5bc 455a 98bc 12c1 92bc
00000380: 0db5 8ebb 4c32 c33c 039c 0fbc 7a95 2f3d
00000390: 5471 453d e2e4 5339 f829 00bd da14 ae3c
000003a0: 73f0 95bc 0e3f c2bb 038c 253d 131f 5fbb
000003b0: f770 1e3d cd78 10bd cb3a 84bb 586f 5b3b
000003c0: 8e8b 073d f63b 52bd da19 353d 22af 063d
000003d0: 66ea eeb9 f5de 443d f06d c13c cfca 953b
000003e0: fee2 af3c b385 043d 3a1e b0bb 110a 1dbd
000003f0: a6c1 853c 510f 923c 7db6 733c d485 0cbd

weight f4 [1, 256]
0.008018156 -0.04918764 -0.044981923 -0.053936567 -0.012645249 0.06454149 0.035098385 -0.018292746
0.00685936 0.03179521 0.055040937 -0.050497994 0.004725782 -0.0049161324 0.019752908 -0.038572844
-0.005774612 0.067556225 0.068458855 0.06537541 0.04814368 -0.010799764 0.0545491 -0.05766232
0.047553614 -0.034972955 0.04828563 0.024024466 -0.04351738 -0.024861675 0.050416116 0.024514832
-0.031645555 0.03852629 -0.039986394 0.065246895 -0.047157023 0.027002588 -0.052196607 -0.032513883
0.041078817 0.05631249 0.061922584 0.0068436875 -0.038442887 0.02016081 0.047106076 0.0074106585
0.007875612 -0.0048386143 0.01812788 0.067316934 0.034638822 0.018669456 -0.019548312 -0.038545247
0.05302586 0.059276886 0.027817413 -0.05443552 -0.051914137 -0.042712025 0.017775124 0.03182268
0.033619188 -0.040100046 -0.00015544136 0.025591273 -0.055323575 -0.05603119 0.018441873 -0.03276167
0.058899887 -0.02924413 0.062253166 -0.05540784 -0.0069039306 -0.0022434643 0.027107388 -0.03982136
0.028529763 0.069449596 -0.025154032 -0.0005299258 0.004644976 0.021814896 0.04303429 0.021275979
0.05907934 0.04621438 -0.0061319047 -0.041481767 -0.029483376 -0.018961744 0.044787493 0.036907375
-0.050633036 -0.00039798146 0.06298736 0.009458746 -0.05364271 -0.044178322 -0.014210382 0.033407327
-0.018276744 -0.03086659 0.02502538 -0.010823196 -0.047697943 0.008310242 -0.021231119 -0.049419142
-0.020640617 -0.039959684 0.03235725 -0.023224222 0.041349623 0.008348369 -0.045076933 -0.0043220874
0.03073924 0.030822266 -0.032481752 0.05353951 0.0410716 -0.019659452 0.043241672 -0.038763084
-0.028048502 0.06590794 -0.028417962 -0.051259514 0.03798364 -0.00032369135 0.05734787 -0.01309027
0.070131704 0.05777923 0.03191828 0.038278658 0.026822979 0.0661639 -0.0017717672 -0.026050858
0.010876826 -0.053001925 0.01413688 -0.005105851 -0.023246428 -0.03016257 -0.009605249 -0.034837205
0.058977094 -0.032421697 0.0130716795 0.008826347 -0.05391169 0.03126985 -0.025434097 0.060340624
0.041192718 0.037000485 0.052725006 0.024346234 -0.050341006 -0.007013951 0.06061937 0.022077342
-0.05766832 0.06605285 0.042927943 -0.030164426 0.044187237 0.0526643 0.033699576 0.046063345
0.0008474972 0.01424643 0.03498658 0.06054908 0.007777194 0.009399938 0.02492245 0.057528943
0.023741927 -0.04281241 0.015138173 0.027175602 0.026851587 -0.037460588 -0.03930013 0.055370465
-0.0500136 0.06604207 -0.046308838 0.04646824 -0.014394567 -0.005081956 0.053257104 -0.032660104
0.06620618 -0.049619958 -0.04114564 -0.036863815 -0.026543183 -0.0010304856 -0.029726658 -0.029114613
0.038995847 0.06763184 -0.025185024 0.06853193 0.00955647 0.011415761 0.037302587 0.040914204
0.030264756 -0.048752684 0.043827947 0.050012577 -0.035533793 -0.02904706 0.031994507 0.04958686
0.04265631 -0.0062671555 0.04420097 0.026328996 0.023620896 0.018752126 0.00942495 -0.023152044
0.044516712 0.03261782 -0.040350135 -0.016541252 -0.03807517 0.03800753 0.036356747 0.028734755
-0.0023199604 -0.057955034 -0.038193364 0.0570207 -0.006345934 0.00806309 -0.012558212 -0.051200505
0.0480557 -0.02253754 -0.02014037 -0.051833775 0.06909675 0.041060153 0.0674666 0.035737675
00000000: 955e 033c fb78 49bd f73e 38bd 97ec 5cbd
00000010: 052e 4fbc 542e 843d 53c3 0f3d abda 95bc
00000020: 7bc4 e03b b23b 023d 9b72 613d fcd6 4ebd
00000030: bcda 9a3b 8217 a1bb dad0 a13c 8ffe 1dbd
00000040: f538 bdbb eb5a 8a3d 2834 8c3d 8be3 853d
00000050: 4f32 453d 7ef1 30bc e16e 5f3d 532f 6cbd
00000060: 94c7 423d cd3f 0fbd 27c7 453d f5ce c43c
00000070: 483f 32bd b6aa cbbc 2181 4e3d 54d3 c83c
00000080: c59e 01bd becd 1d3d c6c8 23bd 2aa0 853d
00000090: b927 41bd 8834 dd3c 1ccc 55bd 472d 05bd
000000a0: 4342 283d eda7 663d 89a2 7d3d 0341 e03b
000000b0: 4a76 1dbd 4828 a53c 4df2 403d 1cd5 f23b
000000c0: b608 013c 3d8d 9ebb eb80 943c 76dd 893d
000000d0: 70e1 0d3d b0f0 983c c823 a0bc 9fe1 1dbd
000000e0: a531 593d 52cc 723d 58e1 e33c c8f7 5ebd
000000f0: eba3 54bd cef2 2ebd 239d 913c 8058 023d
00000100: 46b4 093d f23f 24bd f9fd 22b9 caa4 d13c
00000110: f99a 62bd f680 65bd 6913 973c 1a31 06bd
00000120: 0241 713d 6391 efbc 2dfd 7e3d 55f3 62bd
00000130: 5e3a e2bb 1607 13bb 5010 de3c b91b 23bd
00000140: 40b7 e93c 973b 8e3d d40f cebc b8ea 0aba
00000150: e234 983b 27b5 b23c b944 303d f64a ae3c
00000160: 2efd 713d 4a4b 3d3d 25ee c8bb c9e8 29bd
00000170: 1f87 f1bc a955 9bbc 1773 373d 302c 173d
00000180: 9664 4fbd 2ba8 d0b9 84ff 803d dbf8 1a3c
00000190: 75b8 5bbd 54f4 34bd a9d2 68bc 1fd6 083d
000001a0: 1cb9 95bc eedb fcbc 0702 cd3c c653 31bc
000001b0: eb5e 43bd ae27 083c e2ec adbc ba6b 4abd
000001c0: 8316 a9bc c4ac 23bd 0989 043d b940 bebc
000001d0: 395e 293d 99c7 083c 97a2 38bd 4ca0 8dbb
000001e0: dcd0 fb3c fa7e fc3c 960b 05bd 3f4c 5b3d
000001f0: b23a 283d dc0c a1bc 2e1e 313d 0ac6 1ebd
00000200: f9c5 e5bc befa 863d c9cc e8bc 7ff5 51bd
00000210: bc94 1b3d 1eb5 a9b9 9ae5 6a3d 9278 56bc
00000220: 36a1 8f3d eaa9 6c3d bebc 023d 15ca 1c3d
00000230: ddbb db3c f080 873d a43a e8ba 9c68 d5bc
00000240: b734 323c 8c18 59bd 5f9e 673c fc4e a7bb
00000250: 4b6f bebc 7e17 f7bc 565f 1dbc 75b1 0ebd
00000260: f791 713d 9dcc 04bd 992a 563c 629c 103c
00000270: 81d2 5cbd d014 003d 2b5b d0bc bb27 773d
00000280: b2b9 283d d28d 173d 2df6 573d c171 c73c
00000290: 5f32 4ebd 49d5 e5bb 044c 783d 8bdb b43c
000002a0: 9e35 6cbd b746 873d 36d5 2f3d 631b f7bc
000002b0: adfd 343d 85b6 573d 9108 0a3d ebac 3c3d
000002c0: 932a 5e3a dc69 693c 174e 0f3d 5002 783d
000002d0: d5d7 fe3b 3302 1a3c 2a2a cc3c 78a3 6b3d
000002e0: 6e7e c23c 115c 2fbd 1906 783c 5e9f de3c
000002f0: dcf7 db3c 4670 19bd 2cf9 20bd 24cc 623d
00000300: 10db 4cbd 1141 873d 56ae 3dbd 7b55 3e3d
00000310: 31d7 6bbc 8986 a6bb 1f24 5a3d 9ac6 05bd
00000320: 1b97 873d 4c3e 4bbd 5588 28bd 83fe 16bd
00000330: 1771 d9bc 5c11 87ba 5285 f3bc c581 eebc
00000340: 1cba 1f3d 9082 8a3d d350 cebc 785a 8c3d
00000350: be92 1c3c 2c09 3b3c 99ca 183d a795 273d
00000360: cbed f73c e5b0 47bd ef84 333d fdd9 4c3d
00000370: e28b 11bd 1af4 edbc ac0c 033d 971b 4b3d
00000380: 62b8 2e3d b65c cdbb 140c 353d e8af d73c
00000390: 9c80 c13c 0f9e 993c 1b6b 1a3c 5ba9 bdbc
000003a0: 2857 363d 439a 053d 2f46 25bd 8581 87bc
000003b0: b6f4 1bbd c9ad 1b3d d0ea 143d 2665 eb3c
000003c0: 7a0a 18bb 4262 6dbd a570 1cbd 8a8e 693d
000003d0: 8df1 cfbb 0d1b 043c f5c0 4dbc 9fb7 51bd
000003e0: 0ed6 443d a6a0 b8bc 6bfd a4bc a74f 54bd
000003f0: 9982 8d3d b12e 283d ee2b 8a3d ab61 123d
